models/BTCUSDT_pytorch_mlp.pth (torch, 32790 bytes, 14 tensors)

model.0.weight f4 [64, 29]
00000000: 6e9c ff3d 8f5f 053e 747b 78bd ab38 163e
00000010: 5608 70bd a379 993c 0fe8 e7bd 85df 903d
00000020: 7e4d 153e 5d4b 1fbe 1f5e 0d3e 1014 5d3b
00000030: f33f 853c 67a1 b03d c1b3 203e cfb2 1ebd
00000040: 00a3 123e 642e e13c 4875 b1bd 5abc 533d
00000050: dea7 6abd b8b4 36bd a853 a1bc a40d f23d
00000060: 5523 3bbe 99c7 f4bc 1cdc c1bd b2cb edbd
00000070: d41a 123d 0047 40be cd87 cb3d 0aff 25be
00000080: ebad 993d 2c72 d73c ee0b 87bd 56a0 e73d
00000090: 6ee2 003d b80b 153e cc7c 873c 3497 79bd
000000a0: 0295 5f3d 0a03 1abe 7372 583d d40b 123e
000000b0: ce80 c03d 2b77 ccbd db55 b53d 9cc3 6e3c
000000c0: ead1 d13d 363f cdbd 9fec 3dbe 15bc aebd
000000d0: 5d72 14be 02a2 1f3e fa80 233d 4903 ed3d
000000e0: 9806 c3bc d25b 823d 252f 0f3e 5cf0 83bd
000000f0: 49f5 ca3b d599 72bd 63a1 4f3d dd38 8ebd
00000100: 3a99 503d bc73 2dbd 015a 173e 0181 edbd
00000110: 3eb4 edbd 78ba eabd a74e a03e 3467 363d
00000120: f04d 263e 82fe 1abe 0185 03be 8061 b7bd
00000130: daab 8dbd 30a9 c83d 00d4 313d c6e2 173e
00000140: 42ae ecbd e36a 0abe fc2f c33d 1e00 c2bd
00000150: 96a4 db3d 9450 98bd 7b6e 1c3d 1f1f 10be
00000160: 02db a0bd 9a5f 763d 8aed 5e3d 81d3 37bd
00000170: d94c ee3d baa4 013e 8fd8 0abe 6148 c4bd
00000180: 2879 313e 5d69 79bd d54e 89bd c8dc acbd
00000190: a8d5 8abd 0ab9 a83d cf0d 14bc fe1c 23be
000001a0: 38a5 a4bc 2aee 1abe 0678 94bd c9c7 cdbd
000001b0: 090c 26be 3f78 a0bd 19a1 433e 2e63 f93c
000001c0: 92df c63d b282 25be c19d cdbe 54bb 8dbd
000001d0: 98b3 853d 2eb4 25be 6742 33bd 3e72 e0bd
000001e0: 220f 0e3d d367 1bbd 957d d93c c24d a5bd
000001f0: 037b bebd eb22 97bd 4833 d5bc 3535 f3bd
00000200: 0e93 133e 3a6e 16bd 0dbb 2d3e ca13 8a3c
00000210: 4c2c 17be 8f72 0d3e a2da 29bd aa27 33bd
00000220: fdec 03be adad 14be b451 1ebd b3c2 98bc
00000230: 7c93 ff3d 260a 7abe 0b81 263e 99f2 66be
00000240: 3dce 1ebd 84b9 ff3c 055f 813d 9dc2 113e
00000250: 7fbd 0b3e 63b8 1ebe 062b 293d 3641 acbd
00000260: d787 dfbc ece7 15be 95b2 263e fc2c 11be
00000270: 69e5 bd3d 571f 013d 96e3 623d 8197 b9bd
00000280: a20b d33d 0f32 4f3d 82e4 093d 5d8f 1dbe
00000290: 0794 b33d cfe3 5fbd 11e7 b6bd 724d 4e3e
000002a0: 73bd 2f3d 029f e5bd ce06 55bd 2712 bcbd
000002b0: bfd1 233e e5ad 00bd 78f6 ebbd 47ac 2ebd
000002c0: 168b 17be 4986 b23d e307 0a3e 55d2 3bbe
000002d0: 2532 fd3c de85 b33d 7e47 c83c a04f 9bbd
000002e0: e4ff af3d 5402 b93d 4764 993d 411c e2bb
000002f0: 4ecf 37bd b5b3 a63d 06e6 f33b 2230 77bc
00000300: 49c3 223e a6eb 0c3e cdd1 85bc 025a 5cbd
00000310: 86bd babb 822d cabc 1731 0a3d 8abd 323d
00000320: 43f4 1dbe f58f 62be 1a3f 163e 2122 b63d
00000330: fadc f33d b34d c3bd 35da 703c 2bb9 17be
00000340: 55bd 27bd 62ce a83d ae8a 113e af37 d43d
00000350: d5e4 14be 32d1 bebd 8ebd c7bb 45f9 443e
00000360: 8394 cd3c ebcf 5abd f3a9 b03d fec8 2dbd
00000370: 5b1f bcbd 24ce 273e 866a 0fbe f2b2 133c
00000380: def9 28be c6be 073e d5b8 253e c88a af3d
00000390: ab21 f8bd 6f28 72be 8057 6dbe 01f5 e93c
000003a0: ad62 c93d a6d3 023e 7507 da3d 0483 973c
000003b0: 7ff9 d73b 7045 09be aa4b 29be 2d47 2ebe
000003c0: 1dde ab3d d306 b0bd 84c9 0bbd 32e3 d9bd
000003d0: fd23 16bd 76cc f6bd 2a77 16be 8709 073e
000003e0: 98eb 2dbd 056d 023e cedc 3fbd a0a1 fdbd
000003f0: 84a1 47bd b51b c5bd 8bfb 9dba 23ab 30be
0.124810085 0.13024734 -0.06066461 0.14670055 -0.0586017 0.018734759 -0.113235585 0.07073883
0.14580342 -0.15556093 0.13805436 0.0033733882 0.016265845 0.08624535 0.1569357 -0.038744744
0.14319992 0.027487941 -0.08664948 0.051693298 -0.057288997 -0.04460594 -0.01969321 0.11819008
-0.18275197 -0.029880332 -0.09465811 -0.116111174 0.035670117 -0.18777084 0.09938011 -0.16210571
0.07503875 0.026299559 -0.06594072 0.113098785 0.03146594 0.14555252 0.016539 -0.060935214
0.054585464 -0.15040222 0.052843522 0.14262325 0.093995675 -0.09983667 0.08854266 0.014573004
0.10245116 -0.10021822 -0.18547295 -0.085319676 -0.14496751 0.15589145 0.039917924 0.11572892
-0.023806855 0.063651696 0.13982828 -0.06442329 0.006193791 -0.059228737 0.05069102 -0.069444396
0.05092738 -0.0423467 0.14780428 -0.11596871 -0.11606644 -0.11461347 0.31310007 0.044532016
0.16240668 -0.1513615 -0.12843706 -0.089541435 -0.06917544 0.09797895 0.04341507 0.14832601
-0.115566745 -0.13517337 0.09530637 -0.094726786 0.10724752 -0.07437244 0.0381913 -0.14074372
-0.078542724 0.060149767 0.054425754 -0.04487944 0.11635751 0.12660494 -0.13559173 -0.09584118
0.17331374 -0.060891498 -0.06704489 -0.08440548 -0.06779033 0.082384184 -0.009036495 -0.15929028
-0.020098314 -0.15129915 -0.07249455 -0.100478716 -0.16215529 -0.07835435 0.19104423 0.0304428
0.097106114 -0.16163138 -0.4015942 -0.06920496 0.065283954 -0.16182014 -0.043764498 -0.1095929
0.0346824 -0.03794081 0.02654914 -0.08071472 -0.093008064 -0.07379707 -0.02602543 -0.11875383
0.14411566 -0.036726214 0.16965885 0.01685514 -0.14762992 0.13813232 -0.04146827 -0.043739
-0.12883373 -0.14519377 -0.038652137 -0.018647527 0.12479302 -0.24417934 0.16260163 -0.22553481
-0.038770903 0.03121639 0.06316952 0.14234395 0.13646506 -0.15500025 0.041300796 -0.084108755
-0.027286453 -0.14639252 0.16279061 -0.14177316 0.09272272 0.03152403 0.055392824 -0.090621
0.10304953 0.05058485 0.033665188 -0.1538672 0.08768468 -0.054660615 -0.08930791 0.2014673
0.042905282 -0.11211969 -0.052008443 -0.0918315 0.1599798 -0.03141584 -0.115216196 -0.042644765
-0.14799151 0.08717019 0.13479571 -0.18341954 0.0309077 0.087657675 0.024448153 -0.07583547
0.08593729 0.09033647 0.074898295 -0.006900341 -0.044875436 0.08139745 0.0074431924 -0.015087159
0.15894808 0.13761768 -0.016335392 -0.053796776 -0.0056988625 -0.024679903 0.033738222 0.04363779
-0.1542521 -0.22125228 0.14672509 0.08893228 0.11907382 -0.09536304 0.014700462 -0.1481673
-0.040952045 0.082424894 0.14213058 0.10362183 -0.14540417 -0.093172446 -0.0060955947 0.19235714
0.02509523 -0.053420942 0.08626165 -0.04242801 -0.09185668 0.1638723 -0.14005479 0.009014832
-0.16501567 0.13256368 0.16183789 0.08571392 -0.12115797 -0.23648237 -0.2317791 0.02855921
0.09833274 0.1277605 0.106459536 0.01849509 0.0065910215 -0.13405395 -0.1653277 -0.17019339
0.08391974 -0.085950516 -0.034127727 -0.10639037 -0.036655415 -0.120507166 -0.14693895 0.13187228
-0.042461008 0.127369 -0.046841435 -0.12384343 -0.048738018 -0.09624425 -0.0012053115 -0.17252783

model.0.bias f4 [64]
00000000: 00f3 52be 0dea 7cbe 86b3 3bbe 4d0b a1bb
00000010: 3641 e03d 872d 4ebe b8ba 6d3c 9629 47bc
00000020: 1a1b 59be b20a 083e 7f92 5e3c f4f4 e3bd
00000030: bc12 0a3d e3a1 aa3d ce37 a1bd 52fe 4d3d
00000040: 5f24 93bc e203 5c3d 1154 8fbe acd2 003d
00000050: 1fd3 b6bd 50e1 863d 175f 163d 55ab 803c
00000060: 2915 49be 6d12 02be 38a8 bf3d c496 dc3d
00000070: 5e38 0ebc bb8d 9cbc 92ba 4ebe 9e26 e8bd
00000080: 3d8c 913a 248b 02be ce03 3fbd c58d cf3d
00000090: 1c4e 37be 771b b0bd 2576 a8bc 03cf d2bd
000000a0: 1d3b c63d c2ee 01be 8c60 113c f07a f8bd
000000b0: e92a cc3c 4f42 60be 367c 26be 3968 363c
000000c0: 4206 873d cdc9 0a3d abff 4ebe 8c1a 6e3d
000000d0: 2962 17bd 69a5 91bc d03d 4dbe dd97 b2bd
000000e0: 614c 33bc 9781 3ebe 3c7f 58be 7c26 3fbc
000000f0: 483a 053e 8c89 bdbd 0bdd 153e 3a20 40be
-0.2060051 -0.24698658 -0.18330202 -0.0049146772 0.10949938 -0.20134555 0.014509849 -0.012155911
-0.21201745 0.1328533 0.013584732 -0.111307055 0.033709273 0.08331659 -0.07871972 0.050291367
-0.017961679 0.05371464 -0.27993825 0.031450912 -0.08926987 0.06585944 0.03671178 0.015706697
-0.19636978 -0.12702341 0.09358257 0.10770944 -0.008680431 -0.019110551 -0.20188358 -0.11335491
0.0011104416 -0.1274839 -0.046634488 0.10134462 -0.1790089 -0.085989885 -0.020564148 -0.102933906
0.09679244 -0.12688735 0.008873116 -0.121328235 0.024922805 -0.21900295 -0.1625832 0.011133247
0.065929905 0.03388386 -0.20214717 0.058130786 -0.036958847 -0.017779069 -0.20043111 -0.08720372
-0.010943503 -0.18604122 -0.21142286 -0.01166689 0.13010514 -0.092547506 0.14635102 -0.18762293

model.2.weight f4 [64]
00000000: fdca 7e3f dffd 7b3f 3b01 843f 5dad 863f
00000010: b607 7c3f 0619 723f 5fe0 823f 3fe4 8f3f
00000020: 039a 843f 2e76 7e3f 80b3 843f d159 823f
00000030: cb47 7e3f c23c 753f b5ca 873f f128 803f
00000040: 2166 793f 26a2 863f 60ab 7c3f 661b 6d3f
00000050: e0ea 6e3f 7d81 743f 563f 753f 0235 853f
00000060: 11ce 733f 2189 7a3f 0085 8c3f 6c9f 843f
00000070: 12b9 7f3f 16b2 693f b236 8a3f de63 803f
00000080: e288 883f 3270 753f 7634 833f 2808 793f
00000090: 295b 6d3f e8f1 7f3f 776b 783f d814 843f
000000a0: 424f 7c3f 9d99 853f fbf4 6d3f 3cde 7c3f
000000b0: 90c7 773f 95cc 773f 7bc5 883f 9068 713f
000000c0: a7e4 7a3f baa8 723f cf7c 703f 7ae4 833f
000000d0: c15d 7f3f 0507 713f 38e7 803f 956e 803f
000000e0: 1aaa 7d3f 3f3c 813f acaa 763f 5610 793f
000000f0: 6683 683f a1cd 8b3f e3fc 7b3f 244b 813f
0.99528486 0.9843425 1.0312876 1.0521656 0.98449266 0.9456943 1.0224723 1.124153
1.0359501 0.9939908 1.0367279 1.018366 0.993283 0.95795834 1.0608736 1.0012494
0.9742146 1.0518234 0.98699 0.9261993 0.9332714 0.95510083 0.9579977 1.0406802
0.9523631 0.9786549 1.0978088 1.0361152 0.9989177 0.9128736 1.0797942 1.0030477
1.0666773 0.9587432 1.0250385 0.9727807 0.92717224 0.99978495 0.9703898 1.0318861
0.9855844 1.0437504 0.92951936 0.987766 0.96788883 0.9679654 1.0685266 0.94300175
0.98005146 0.94788706 0.9394044 1.03041 0.9975243 0.94151336 1.0070562 1.0033747
0.9908768 1.0096511 0.96354175 0.9729055 0.908255 1.0922128 0.9843275 1.0101056

model.2.bias f4 [64]
00000000: 3deb 5f3d 7692 f83c 214e 9ebd 1038 8b3d
00000010: 6936 0c3d 9b35 26bd ff88 693b a5d8 8ebc
00000020: 48c9 163d e45d 623d 652e 233d ba60 f9ba
00000030: f136 ce3d 8655 203c b406 b3bb 267d 923c
00000040: fa05 4d3d 1b25 443d b776 01be 5699 f83d
00000050: 449a 523d c2f0 7d3d 240d 8ebd f6d9 ff3c
00000060: 0b35 8dbb 44f4 af3d d68e 9e3c b3cd 963d
00000070: c123 fdb9 cdec ad3b 41eb aa3d b2af ea3b
00000080: 16e5 62bc 887d 003c 3a55 703d 9808 803c
00000090: 0c10 823a 48d2 4ebd 6ade ee3b 0754 b53d
000000a0: 06f9 ccbc 94ea 0f3d 71b6 3d3d f5b1 7fbb
000000b0: 841c 1b3d 6936 823c 11ed 643d 4d99 143d
000000c0: b7ec 293d f64d a73d 98a2 0abc 7ce1 883c
000000d0: 2a83 00bd f047 a7bd 45e9 0b3d 15eb 113d
000000e0: 0c03 49bd f7af 0c3c f00f a83c 0dc5 123d
000000f0: 013e f9bc bdef 3fbd 1786 fc3c 3f1d 86bc
0.0546677 0.030343276 -0.07729746 0.067978024 0.034231577 -0.040578466 0.0035634635 -0.017437289
0.03681305 0.055265322 0.039839167 -0.0019026019 0.10069073 0.009786015 -0.0054634456 0.017881941
0.050054528 0.04788695 -0.12642942 0.121386215 0.05141665 0.061997183 -0.069361 0.031231862
-0.0043093017 0.08591512 0.019355219 0.07363453 -0.0004828256 0.00530777 0.08345652 0.007162058
-0.013848564 0.007842429 0.05867503 0.015629098 0.0009922995 -0.05049351 0.0072896974 0.088539176
-0.025021087 0.03513582 0.046316568 -0.0039015983 0.03786899 0.015895085 0.055890147 0.03627901
0.041485514 0.08169167 -0.008461617 0.016709082 -0.031375088 -0.08168018 0.03415801 0.035624582
-0.04907517 0.008586875 0.020515412 0.035832454 -0.030425074 -0.04685949 0.030825658 -0.016371367

model.2.running_mean f4 [64]
00000000: 2efb 273d 97b7 a03c 2443 013e a6d0 5d3e
00000010: 0d25 a53e 39cb 853d caba ff3d 9c69 b93d
00000020: f43b 1a3e 2427 9b3e 4b34 493e e664 393e
00000030: c1d7 283e f749 2c3e 7a30 f83d 667d 303e
00000040: 50b9 533e 0c52 ff3d d14c b93d 8a67 a13e
00000050: 9d54 733e 2ef0 9f3e 1878 6e3e 5470 1b3e
00000060: 1ca1 e43d 40d1 813d dae5 5d3e 0769 8a3e
00000070: 42e6 013e f17b 9b3d 99d7 ad3d eda0 6d3e
00000080: b989 463e e458 d33d 93b3 223e 5ff3 793e
00000090: 04a5 173e 1aa4 753e eb73 a63e be34 e83d
000000a0: 9bcd 483e 9eda 013e decc 5b3e a313 e33d
000000b0: 9161 873e 6fdc 3e3e 00fc 193d 70b1 e23d
000000c0: 201f b53e bdd2 5a3e 3015 673d 9f14 373e
000000d0: 9d1e 623e c9cc 623e 9d3c f83c 942a af3d
000000e0: 9609 073e e98e bf3d 5959 eb3d b5c5 593e
000000f0: e21c c23e c3ad dd3d c40c 6e3e d28e 9b3d
0.041011028 0.019618792 0.12623268 0.21661624 0.3225483 0.06532902 0.12486799 0.090533465
0.15061933 0.303033 0.19648854 0.18104896 0.16488554 0.1682509 0.12118621 0.17235336
0.2067616 0.12466821 0.09047855 0.31524307 0.23762746 0.3123793 0.23288 0.15179569
0.11163542 0.063387394 0.21669713 0.27033255 0.12685493 0.07591999 0.084883876 0.2320592
0.19388475 0.10319689 0.15888815 0.24409245 0.14809042 0.23988381 0.32510313 0.11338185
0.19609682 0.12681052 0.2146487 0.1108773 0.26441625 0.18638776 0.03759384 0.11069
0.3537531 0.21369453 0.05641669 0.1787896 0.2208199 0.22148432 0.03030234 0.08553043
0.1318725 0.0935343 0.11491651 0.21266825 0.3791266 0.10824158 0.23247057 0.075956

model.2.running_var f4 [64]
00000000: 5803 1e3d 0459 a03b 4a69 6b3d a4d5 cf3d
00000010: 2c09 153e 5f7f a73d 9baa b83c 19f3 693c
00000020: 40f6 5b3d 578d 203e 5ab9 9b3d b8f9 903d
00000030: f69d 823d e463 e53d e151 b13c 961a 4a3d
00000040: c39e c73d 123c 993c 71df f83c fdc5 1c3e
00000050: cadd e53d cc6b 163e 06e1 903d abdf ab3d
00000060: 7f2c ea3d a286 db3c 1d75 2a3d e78f f03d
00000070: fd0e 863c c688 3f3d d381 453d 187c 6e3e
00000080: 1f29 9f3c 6505 a43d 59ba 593d 5079 b33d
00000090: 5008 a93d 44cf 9f3d ec74 4a3e 5f8f ec3c
000000a0: 5c71 943d 9e58 133e 93cb c13d 8dc3 143d
000000b0: 8c79 473e d08f 7e3d c69a bb3b 3ce9 f33c
000000c0: 7da5 193e 3c3f ad3d 8501 833d 5ba5 cf3d
000000d0: 2e76 313e f426 a23d 6d52 8e3c 524e 013d
000000e0: 8ed0 2f3d 3de6 853d 50ce 0b3e 6f8a 973d
000000f0: 1687 323e 4336 973c 82b7 2b3d c68c 0f3d
0.038577408 0.004893424 0.05747346 0.101481706 0.1455428 0.08178591 0.022542289 0.01427915
0.05370164 0.15678917 0.076037124 0.0707888 0.06377785 0.11200693 0.021645488 0.04934176
0.09747078 0.018705402 0.030379983 0.15309902 0.112239435 0.14689559 0.0707417 0.08392271
0.11434268 0.026797596 0.041615594 0.11746197 0.016364569 0.046761297 0.048219513 0.23289526
0.019428788 0.080088414 0.05315623 0.08763373 0.082535386 0.07803205 0.19771165 0.028876958
0.07248184 0.14389274 0.09462657 0.036319304 0.1947996 0.06214887 0.0057252375 0.0297743
0.15004535 0.084593266 0.06396774 0.10138961 0.17330238 0.07917586 0.017373288 0.031568833
0.042923503 0.06538055 0.1365292 0.07399451 0.17434344 0.018458491 0.041923054 0.03504636

model.4.weight f4 [64, 64]
00000000: ad19 00be a2f8 cebd 31f1 6abd 8599 62bb
00000010: fcf8 7c3d bc26 f4bc 1ff4 913d bb58 1dbc
00000020: ea1d 9f3d 5373 aa3d dad8 05be 733f 15bd
00000030: f62c 5dbc a135 cb3d 3a35 4abe 9e9e a1bd
00000040: d23e fe3d 5487 99bd c1c2 dc3d c4a6 ef3c
00000050: 93a4 a03d 1915 5dbd 6f42 663d 24e3 cabc
00000060: 2269 1abc 2dcc ba3d 21e8 cbbd 6607 c5bd
00000070: 7777 623d 9ad0 9abd 880a 03be fcfb aabc
00000080: 9c54 05be fa74 df3b 3c03 e3bd 2c7d 123d
00000090: 0cf5 e5bd ad1c 9bbb 057b 6b3d 7aba a4bc
000000a0: ccd3 0a3d bfe5 59bc 144e 55bd d0bc d1bd
000000b0: 9540 0dbd e09b b9bd 52e8 f1bd 3d94 1a3e
000000c0: 51f8 ccbc e9e2 e53c e439 553d d9bf d4bd
000000d0: d4c7 fdbc 3d21 c3bd a339 91bc 6304 16bc
000000e0: d50e fabd 4fbb 59bd 6d9a 1b3d 2a89 863d
000000f0: bb6d 683c ae52 983d 7758 bf3d 6b45 933d
00000100: 926f 173d 4c05 abbb 4130 1abe f34a a9bd
00000110: 3f6b bebc a379 e9bb 5530 76bd d12b 19bd
00000120: 3f3e 8c3d 7840 c1bd a5da a4bd 61bf 66bd
00000130: d84e 6cbd 7e80 0a3e 9aea 25bd f430 4fbc
00000140: d1ce 9ebb 8154 cfbd 256e 0e3d b65e 41bd
00000150: 9538 443d 43e5 3dbd 58f1 68bd c87e 23bd
00000160: 2598 653c b831 65bd 52f7 6c3d 36af 5ebd
00000170: f102 c4bd bca0 e6bd 3294 fb3a 0812 9cbd
00000180: 8578 f03c 4d39 99bd b72b 65bd 691c 7a3d
00000190: bd70 393d 8914 93bd b0ca 743d ba8c fbbd
000001a0: 7ce5 6d3d 2076 3abd 013d 8fbd 840c 82bd
000001b0: b920 f23c 5987 8d3c 6547 053e 5328 b33d
000001c0: 4b01 94bd 60aa 8ebd 72ba 26bc 959c 82bd
000001d0: 61ef 5abd ca6b 7abd 7088 debc 4647 e73c
000001e0: 0911 1f3d eacf e1bd 16ac 29bd e44e 373c
000001f0: 4206 693d 69c2 953c 6c1b 9b3d 0b45 113e
00000200: 21a6 1abd c125 923d 1d8c 90bd 38fd 0ebc
00000210: eb90 833d 2996 18be 715d 9bbd 2557 783c
00000220: a5e0 853d 286e a43d 4781 28bd ea40 16be
00000230: 031c 433d f874 343c e686 a6bd b99d adbd
00000240: a59a 933d 2f3f 18bd f419 383d 1269 a7bd
00000250: 6eb4 923c 18a5 5c3c ad5d 61bd 71b1 3bbd
00000260: 7493 a8bd b4a0 8a3d 3b15 803c 89e6 5d3c
00000270: f4ca a6bd d755 6abc 884b 01bd 7f1f 903d
00000280: 2a68 49be e996 103d 8572 72bc 1f35 a73c
00000290: 7ded 7ebd eacf 753d fc14 dcbd 86ca 03be
000002a0: ebfb 8e3d a9cb 73bd 3188 0fba d40b 05be
000002b0: e72c 263d fcbd 4b3d ebad 06be 10ec 9ebd
000002c0: 339e d53d 5c6d 233c a88b 7abd d658 50be
000002d0: 2925 593d 9764 87bc a21a 36bd 8d03 95bd
000002e0: a0ab 84bd f99d b7bc e9f8 6b3c 2ddf 433d
000002f0: f990 4abd bb70 093d dae1 623d 0f5c 653d
00000300: 6ea0 96bb 3fff 633d 3aa6 533d d975 04bc
00000310: e99b e73d 900b 823d d214 af3c 4201 0dbd
00000320: d6b5 683d 45c5 98bc 36cd 143e a065 e33d
00000330: a1f9 d53b 8ad7 2d3c cdf5 d13d aa47 91bd
00000340: bc79 eb3d ff0a 903c eef7 d43d ef47 5fbc
00000350: e10e c2bd c191 983d 0f52 5abd b9c1 863d
00000360: d228 d13d 9724 cbbd f035 80b8 06d3 95bd
00000370: 01e4 023e 901f 63bd 90d8 d43d b442 b13d
00000380: 0d73 873d e2de 073e 9d26 8fbc d332 97bd
00000390: c676 e33d 7f9d 5d3d 91cb af3c e213 d2bd
000003a0: 4f3e 23bc 9c9c ccbb 4823 fd3d a511 ec3d
000003b0: 7e31 ed3d 4520 ce3d 3f07 7fbd d618 33bd
000003c0: 4d6a 86bc cf77 9cbd bbed 033e 70c6 7c3d
000003d0: 5b06 c03d 43f8 e33c c59b d6bd 3f24 66bd
000003e0: 62cb b73d c262 a53d 4841 c43c e88b 673c
000003f0: 9c57 75bd 450e eabd bbc7 893d eef5 acbc
-0.12509795 -0.10106017 -0.057358924 -0.0034576368 0.061760888 -0.029803626 0.071266405 -0.0096036745
0.077693775 0.083227776 -0.13071004 -0.036437463 -0.013499489 0.09922338 -0.19746867 -0.07891582
0.12414326 -0.07496515 0.10779334 0.029254325 0.0784389 -0.0539752 0.0562157 -0.024766512
-0.00942448 0.09120975 -0.099563845 -0.09620552 0.05528971 -0.07559319 -0.12796986 -0.020872109
-0.13020557 0.0068193646 -0.11084601 0.035763904 -0.112283796 -0.004733643 0.057490367 -0.02010845
0.03389339 -0.013299405 -0.052076414 -0.10241091 -0.03448542 -0.09062934 -0.1181189 0.15095611
-0.02502075 0.0280623 0.052057162 -0.103881545 -0.030979075 -0.09527824 -0.017727679 -0.009156319
-0.1220986 -0.053157147 0.03798907 0.06569131 0.014186318 0.07437645 0.09343045 0.07190975
0.036971636 -0.0052191373 -0.1505747 -0.082662486 -0.023244498 -0.007125096 -0.060104687 -0.037395302
0.0684781 -0.094361246 -0.08049516 -0.056334857 -0.05769238 0.13525578 -0.040506937 -0.012645949
-0.004846432 -0.1012354 0.03477301 -0.047209464 0.047905523 -0.04636122 -0.05687079 -0.03991583
0.014013325 -0.05595562 0.05785305 -0.054366313 -0.095708735 -0.112611264 0.0019193946 -0.07620627
0.029354343 -0.074816324 -0.055949893 0.06106225 0.04527353 -0.07181651 0.05976361 -0.12282701
0.05808018 -0.04552281 -0.069940574 -0.063500434 0.029556619 0.017276453 0.13015516 0.087479256
-0.07226809 -0.0696609 -0.010176288 -0.06377522 -0.053450946 -0.061137952 -0.027164668 0.028232228
0.038834605 -0.110259846 -0.04142388 0.011188243 0.056890734 0.018281179 0.0757359 0.14186494
-0.03775609 0.07136107 -0.070579745 -0.008727364 0.06424125 -0.14901032 -0.07586182 0.015157496
0.06536988 0.08028823 -0.041138913 -0.146732 0.047634136 0.011014216 -0.081311986 -0.08477349
0.072072305 -0.03716963 0.044946626 -0.081743374 0.017908301 0.013467096 -0.055020977 -0.04582352
-0.082312495 0.06768933 0.015635123 0.013543733 -0.08144179 -0.014302692 -0.031566173 0.070372574
-0.19668642 0.03530017 -0.014797811 0.020411072 -0.062238205 0.060012735 -0.1074619 -0.12870225
0.06981643 -0.059520397 -0.0005475311 -0.12992793 0.040570166 0.04974173 -0.13152282 -0.07759869
0.10430565 0.009974804 -0.061168343 -0.20346388 0.053013954 -0.016527457 -0.044458993 -0.07276068
-0.06478047 -0.022414194 0.0144026065 0.04782026 -0.049454663 0.033554774 0.05539117 0.055995997
-0.0045967614 0.055663344 0.051672198 -0.008084738 0.113090344 0.063498616 0.021372233 -0.034425028
0.056814037 -0.018648753 0.14531407 0.11103368 0.006530002 0.010610471 0.10251961 -0.07093747
0.11497828 0.017583368 0.10398851 -0.01362799 -0.09475494 0.07449675 -0.053300913 0.065799184
0.10212864 -0.09919088 -6.113562e-05 -0.0731564 0.12782289 -0.055450022 0.103928685 0.08655301
0.06613741 0.13268617 -0.017474467 -0.07382741 0.111066386 0.054105278 0.021459373 -0.102576986
-0.009963586 -0.006244255 0.12360245 0.11526803 0.115817055 0.10064749 -0.06226277 -0.043724857
-0.01640811 -0.07640039 0.12883656 0.061712682 0.09376212 0.027828341 -0.104789294 -0.05618691
0.08974339 0.08075477 0.02395691 0.014132477 -0.059898004 -0.11428503 0.06727549 -0.021113362

model.4.bias f4 [64]
00000000: aecf 1f3d b603 9e3c aa1a 7f3d 5c00 bfb7
00000010: 9452 04bb ee9b 89be bd32 91bd 00ec 2dbe
00000020: fa29 47bb c462 4dbe a919 16be faf2 88bd
00000030: eaaf 5fbe a6e5 8e3c 5c74 c73b 584f 32bd
00000040: c327 adbd caee 123d 13aa 1bbd 5450 afbd
00000050: c0f3 aebd e28d ccbd ed4a bdbd 8363 30bd
00000060: 00ae 13be 9342 93bd 2feb 2dbd 82e2 45bd
00000070: 4e90 03be 2840 78bd ca70 44be 58da c2bb
00000080: e464 25bd 421e 173d b289 dc3c 47fd a8bc
00000090: b842 24bc 411f 9abd c0b2 3cbe bc0a 4e3d
000000a0: d4dc be3d f4ad 0d3d 62ad ee3c ad31 0c3e
000000b0: 7c38 753d 58b2 c03d e39a 88bd 590d 3abe
000000c0: 87d2 dfbd 64cb e1bc eff5 803d deb4 aebd
000000d0: cb51 eebd d6aa 41be 4ef0 603d 58bb 113e
000000e0: 593b a03c 5bd4 2bbe 7008 5c3d fc97 61bd
000000f0: 6028 06be b1de babd 2b0d a43d 7781 56be
0.03901642 0.019288879 0.06228129 -2.2769142e-05 -0.0020190822 -0.26876777 -0.07089756 -0.16984558
-0.003039001 -0.20057207 -0.14658226 -0.06686969 -0.2184445 0.01744349 0.006086869 -0.0435327
-0.084548496 0.03587226 -0.038003992 -0.08560243 -0.085425854 -0.099879995 -0.092428066 -0.04306365
-0.14421844 -0.071904324 -0.042460617 -0.048311718 -0.12848017 -0.06060806 -0.1918365 -0.0059464388
-0.04037942 0.03689409 0.026921127 -0.020628585 -0.010025673 -0.075254925 -0.18427563 0.050303206
0.09319463 0.034589723 0.02913541 0.13690825 0.05986832 0.09409016 -0.06670167 -0.18169154
-0.10928827 -0.027562805 0.06296908 -0.085305914 -0.116366945 -0.18912825 0.054916672 0.14231622
0.01955955 -0.16780226 0.053718984 -0.055076584 -0.1310134 -0.09124506 0.08010324 -0.20947824

model.6.weight f4 [64]
00000000: 1887 7b3f 93ea 823f 5c53 833f 1691 7a3f
00000010: de0a 813f 2d09 823f ea4a 8a3f f0c1 813f
00000020: a097 733f e547 843f 0076 823f 4ebf 723f
00000030: 5514 823f 9c6e 843f dd22 833f 6243 883f
00000040: 18b3 843f ae9f 793f 6547 773f 690f 783f
00000050: ec63 753f 7fc5 873f 26f3 863f 02fb 6f3f
00000060: 6df6 803f c368 893f ba11 803f 9af3 8a3f
00000070: 2027 843f a335 793f 3fe4 8a3f 3e2c 7b3f
00000080: bfaa 813f 7dc8 7a3f 8857 883f 85bb 7c3f
00000090: 49b8 7e3f e12d 803f 8b9f 7f3f 63cf 813f
000000a0: f1d7 813f d1f5 7a3f 2383 803f b822 763f
000000b0: a58b 843f 6445 8b3f e00a 833f af39 813f
000000c0: d509 843f 9786 803f 468d 813f 136f 803f
000000d0: f748 7d3f 6ceb 8f3f e0b2 763f c9a3 7e3f
000000e0: 11e1 853f 39e0 7d3f da29 803f 6541 853f
000000f0: 901a 783f 6df4 803f d4d1 773f bbbe 813f
0.9825301 1.0227836 1.0259814 0.97877634 1.0081441 1.015905 1.0804112 1.013731
0.95153236 1.033444 1.0192261 0.9482316 1.0162455 1.0346255 1.0245014 1.0645564
1.0367155 0.97509277 0.96593314 0.96898514 0.95855594 1.0607146 1.0542953 0.9374238
1.0075203 1.0735096 1.000541 1.0855591 1.032444 0.9734747 1.0850905 0.98114383
1.0130233 0.9796217 1.0651712 0.9872363 0.99499947 1.0014001 0.9985282 1.0141414
1.0144025 0.98031336 1.004002 0.96146727 1.0355116 1.0880551 1.0237694 1.0095729
1.03155 1.0041074 1.0121238 1.0033897 0.9893946 1.124372 0.9636669 0.99468666
1.045931 0.9917026 1.0012772 1.0410582 0.9691553 1.0074593 0.9680455 1.0136331

model.6.bias f4 [64]
00000000: 40b9 36be 0372 563d 1890 01be 0e3f ff3d
00000010: b0b6 3c3d 0633 81bd 35c9 993d 64f4 a93d
00000020: d885 abbd eac7 f73d 6d6c 24be ef5a b23d
00000030: 600a 283b cfd0 fe3d 049c f73d 6fc5 413e
00000040: 9058 39bd e2e4 06be c458 eabd 940d 123e
00000050: b06d 00bc dd42 163e d3a1 3bbd f3bf 1cbd
00000060: d12f fdbd c323 893c 62a4 fbbd 2626 4cbb
00000070: 95f4 8e3d feb2 58bc 8563 65be 858d 9cbd
00000080: 8b9c f0bd 0cd1 1b3d e5ee 5abd 94ce b63d
00000090: c12b ddbd 98bd bcbd 71f4 f7bd e69e 223d
000000a0: d4f7 893d bd89 803d 198d 4a3c 47b2 453b
000000b0: f459 18be 51c0 b03c 40cf 86bd 1dd1 683d
000000c0: 31f7 933d a61b 14be 99d0 89bd a50a 853d
000000d0: 2871 05be 1b2d 7b3d bf4a 173e 6253 483d
000000e0: a979 0e3e 8f28 ea3d e60b 0e3e 4b89 ac3d
000000f0: d4fb 26be 9ce2 213e 8ee5 5d3d 2c56 82bd
-0.17844105 0.052354824 -0.12652624 0.124631986 0.046072662 -0.0630856 0.0750908 0.08298567
-0.08375138 0.120986775 -0.16056986 0.087087505 0.002564095 0.12442171 0.120903045 0.18922971
-0.045250475 -0.1317325 -0.11442712 0.14262992 -0.007838652 0.14673944 -0.045808624 -0.038268995
-0.12362636 0.016740685 -0.12287213 -0.0031150668 0.06980244 -0.013226269 -0.22401245 -0.0764418
-0.11748608 0.03804116 -0.053450484 0.089261204 -0.10799361 -0.0921585 -0.121071704 0.03970232
0.067367226 0.062762715 0.012362742 0.0030166076 -0.14878064 0.021576079 -0.065824986 0.05684005
0.072248824 -0.14463672 -0.0672924 0.06496171 -0.13031447 0.061322313 0.14774607 0.048907645
0.13913597 0.11433517 0.13871726 0.08424624 -0.16307002 0.15809101 0.054174 -0.06364092

model.6.running_mean f4 [64]
00000000: f1e5 ac3e bedd 953e ee31 b63e 0dd1 ac3e
00000010: b244 883e f1a1 793e b74b 8a3e 1c59 363e
00000020: eca0 bb3e 5932 3b3e 0c4b 493e a25b a53e
00000030: 6006 533e e3bc b83e 386d ae3e 9469 b43e
00000040: cd16 843e bc6f a73e 28d6 803e dc16 963e
00000050: 87c5 9c3e c9b0 b43e b814 c23e ff43 843e
00000060: a192 7b3e 6c1f ce3e c780 3e3e 628f 9e3e
00000070: e859 323e 882e 9e3e 15b2 473e e41d aa3e
00000080: 80fe 8b3e 1bb0 963e 5873 b43e 7752 d83e
00000090: 4ffd 8d3e 35df 673e 5cd4 443e 346c bc3e
000000a0: 61f9 c93e 99e4 ba3e f501 b13e 2038 c73e
000000b0: dfd6 d73e a6ae f63e 12cb 9d3e 6d63 823e
000000c0: 3271 f73e 7f02 db3e 5972 b93e e356 6a3e
000000d0: 2cc9 843e f0e9 893e bb9f a53e 9bc6 ca3e
000000e0: 121f ba3e 91e1 9b3e 1503 083f 2a29 953e
000000f0: 742a 7b3e ac6d 7a3e 1724 c53e 0b42 7c3e
0.3376918 0.29270738 0.35584968 0.33753243 0.2661491 0.24378182 0.2701089 0.1780743
0.3664621 0.18280925 0.19657534 0.32296473 0.206079 0.3608161 0.34067702 0.352368
0.25798646 0.32702434 0.25163388 0.29314315 0.3061945 0.35291126 0.37906432 0.25833127
0.24567653 0.40258348 0.18603812 0.30968767 0.17417109 0.30894876 0.19501527 0.3322593
0.27342606 0.29431233 0.3524425 0.42250416 0.27732322 0.2264374 0.19221634 0.36801302
0.39448074 0.3650253 0.34571806 0.38910007 0.4215612 0.4818012 0.30818993 0.2546648
0.4832855 0.42775342 0.36220053 0.22884707 0.25934732 0.26936293 0.32348427 0.3960465
0.3635183 0.3044553 0.531297 0.29132968 0.24527913 0.24455899 0.38504097 0.24634568

model.6.running_var f4 [64]
00000000: 1edf 5d3e 6db9 323e 6d6d 433e 9e5c 003f
00000010: d660 183e 7b7d 843e 80e8 3e3e 6592 ba3d
00000020: e6e8 963e 1a1f f63d 0d3f 043e 83c5 433e
00000030: d054 243e 0587 823e 7a14 803e d0f7 843e
00000040: 6f9d 133e 4977 433e 486a 1e3e 5157 0b3e
00000050: 8149 7d3e 0fe2 7c3e df89 913e 0a99 6c3e
00000060: edb9 363e 9faa bd3e 9d18 033e 1a95 2d3e
00000070: e585 ee3d e1b5 8e3e 584a f73d ae95 8e3e
00000080: ff08 643e 228d 443e b402 683e 3115 e73e
00000090: 4bf6 593e 7040 123e 1d8c f23d a242 733e
000000a0: a546 a23e 22e4 993e 0de7 933e 9f2d 853e
000000b0: 0a3f 8c3e 61cd e53e 7e9d 763e 0b7e 293e
000000c0: ffe3 0f3f fb50 f13e c658 823e c1c1 803e
000000d0: a4cc 1b3e 7688 743e b738 893e dbd4 423e
000000e0: 7a48 aa3e acf3 a93e e7aa 0a3f 3268 5c3e
000000f0: 1051 6c3e 09ee 3a3e 81bd 8c3e 9064 3f3e
0.21667144 0.17453547 0.19084711 0.5014132 0.1488069 0.25876984 0.18643379 0.09109954
0.29474562 0.12017651 0.12914677 0.19118313 0.16047978 0.25493637 0.25015622 0.25970316
0.14415525 0.19088472 0.1547023 0.13607527 0.24735071 0.2469561 0.284255 0.23105255
0.17844363 0.37044236 0.12802358 0.16951409 0.11646632 0.27873138 0.12074727 0.27848572
0.22269057 0.19194463 0.22657281 0.45133355 0.2128536 0.14282393 0.11843131 0.23755887
0.31694523 0.30056864 0.28887215 0.2601137 0.27391845 0.44883254 0.24083516 0.16551988
0.5620727 0.47132096 0.25458354 0.25147822 0.15214783 0.2388018 0.26801082 0.1902651
0.3325842 0.3319372 0.54167026 0.21524122 0.23077798 0.18254866 0.2748833 0.18690705

model.8.weight f4 [3, 64]
00000000: 0ffc db3d cf29 54bc dd04 3c3d 63e1 d2bd
00000010: 0b1e 2abe e87e 443d a74e 5ebd ffa5 fabd
00000020: 6f50 ae3d 91ab f13c ed10 55bc 4834 08be
00000030: 55b9 ca3c 7a60 b6bd 18c8 a23c 09ca 46be
00000040: 82bc 9c3d 2d93 d93d 0cb8 47bb 2031 e5bd
00000050: c90e 063d 73e2 febd a4d6 3f3d de1a 9bbb
00000060: 5f7d bc3d 4047 623d 23b1 403d eebd e33d
00000070: c9a9 9cbd ad89 1cbd 5844 593e 6fe4 b93d
00000080: 5344 5c3c 234c 803d 329a d53d 97ed a9bd
00000090: 267b 70bd dd29 113e 6b49 1a3d 8f3a 23bd
000000a0: b70f 1abe 7825 68bd 2526 4d3d 794e 47bd
000000b0: 13ae 3d3c 495b 143b b0c7 743d 2cfe 66bc
000000c0: 9a25 22be 1e25 3d3d b97a 383c 325b 8dbd
000000d0: 716d c03d ee71 95bd a70e d0bd a77e 593c
000000e0: e330 fbbd 46be bfbc fa19 07be 98e1 c8bb
000000f0: 72af b03d 54fb 11be b11a a3bd 6651 1d3d
00000100: 6dd7 a3bd 575a 1c3d d58b 76bd 8fef 923d
00000110: 3ace d4bd f643 f73b 2408 f03d 352a 073d
00000120: 663f ef3b 2d81 1b3e 23be 99bd 85d3 753d
00000130: 5448 41ba 3276 843d c14f a53d e466 3c3d
00000140: c4d6 cbbc 7449 34bd 24b4 cabd 0227 2b3d
00000150: ad67 593d b83f 933d 1ae7 9abd 625e 6abd
00000160: aa4c c5bc 94c7 2f3d 4197 d4bd 37ec fd3d
00000170: 0f7b 98bd 17b1 113d 4f6a 5b3d 5049 153d
00000180: 21af cfbd f90a f9bb 982a ac3d 0a7a 743d
00000190: ed0d 07be 79f4 413d 08ac c8bd 5b03 c2bb
000001a0: c858 64bd bb83 5f3d e270 e33d 4c6b f6bd
000001b0: 52c9 b3bd bc3d 1dbd e9d4 ebbd de26 073e
000001c0: edfd c2bd e658 ccbc 2781 fdbd e81e a3bc
000001d0: 63c1 c2bd 1841 2fbc 25f3 913d be04 7c3d
000001e0: 499e 333d 45ed c43d a6b5 e33c 83ce 613d
000001f0: 576b 62bd 48c8 983d dd0f 99bd 12e8 adbc
00000200: f9c0 bcbd 107e cdbd ec66 a8bd 15b5 90bb
00000210: f356 87bd b551 babd edb9 e5bd c0f6 ccbd
00000220: d93b 8c3d 3fc4 9d3a 112e 28be fa26 65bd
00000230: fbbb e3bd c91d a23d e152 183e c8c2 183b
00000240: 286b e33d 24bf 3abd 48bc 50b9 3ee7 a4bc
00000250: 5569 b7bd 22d6 e43c a694 a83d 5635 363c
00000260: 472e d2bd 2201 f5bd 9f9f 26bc 331d 87bd
00000270: 5a49 993d 7a6b 49bd 2871 8b3d 72cc cbbd
00000280: bd04 84bc 6a12 f53c e03d c7bd c09c a2bd
00000290: bcbb 0cbd f2bb b73c 1f4c 7fbc 6eae a23d
000002a0: ee5a d03c 77a3 c6bd 39fc 81bd 0526 323d
000002b0: c89c a4bd c55d 03be 94af 933d a1e6 45bd
000002c0: 304b 4d3d 7ab6 ddbd 1a8c 093d 8616 153d
000002d0: 73c0 cdbd 3026 48be 0f91 b73d 2887 43bd
000002e0: f9b5 ec3d 9cfb ecbc 9226 0bbd 46b4 a7bd
000002f0: 3313 b1bd e565 133d c363 933d e373 46bd
0.10741436 -0.012949421 0.045903075 -0.10296895 -0.16613023 0.04797259 -0.054274227 -0.122386925
0.08511435 0.029500755 -0.013004524 -0.13301194 0.024746576 -0.0890512 0.019870803 -0.19413008
0.076531425 0.10623775 -0.003047469 -0.111910105 0.032728944 -0.124455355 0.046835557 -0.0047334274
0.092036 0.05524373 0.04704393 0.111202106 -0.076495714 -0.038217235 0.21217477 0.090767734
0.013444024 0.06264522 0.10429801 -0.0829727 -0.058711194 0.14176126 0.037667673 -0.039850768
-0.15045057 -0.056676358 0.050085206 -0.04865882 0.011577147 0.0022637418 0.05976075 -0.014098685
-0.15834656 0.046177976 0.011259728 -0.0690216 0.09395874 -0.07297121 -0.10159045 0.013274825
-0.12265184 -0.02340616 -0.13193503 -0.0061304085 0.086272135 -0.1425603 -0.07964075 0.038407706
-0.080000736 0.038172092 -0.060191948 0.071745984 -0.10390897 0.0075459434 0.11720303 0.032999236
0.007301259 0.15185995 -0.07506969 0.060016174 -0.00073731435 0.064678565 0.080718525 0.04599656
-0.024882682 -0.044015363 -0.0989764 0.041785248 0.05307739 0.07189888 -0.075636104 -0.057218917
-0.024084408 0.042914942 -0.10380412 0.1239857 -0.074453466 0.035569277 0.05356818 0.03644687
-0.10140825 -0.007600185 0.084065616 0.059686698 -0.13188906 0.047352288 -0.09798437 -0.00592081
-0.05574873 0.054568987 0.11105515 -0.12032184 -0.08778633 -0.038388953 -0.11515219 0.1319842
-0.09521089 -0.024944734 -0.123781495 -0.019912198 -0.09509542 -0.010696672 0.07126454 0.06152796
0.043852124 0.09615568 0.027796578 0.055128586 -0.05527815 0.074600756 -0.07473729 -0.021228824
-0.09216494 -0.1003381 -0.08222756 -0.004416118 -0.06608381 -0.09097616 -0.11217103 -0.10008001
0.068473525 0.0012036635 -0.16423823 -0.055945374 -0.11119839 0.07915837 0.14875366 0.0023309458
0.11104423 -0.045592442 -0.00019906566 -0.020129796 -0.08955637 0.027934138 0.082314774 0.011121115
-0.10262733 -0.11963107 -0.010169893 -0.06597366 0.07484694 -0.049174763 0.06808692 -0.09951104
-0.01611554 0.029916007 -0.097285986 -0.07940054 -0.034358725 0.022428486 -0.0155821135 0.07943426
0.025433984 -0.09699147 -0.06346936 0.04349329 -0.08037716 -0.12828739 0.07211223 -0.048315648
0.050120533 -0.1082582 0.033580877 0.036398433 -0.100464724 -0.19545817 0.089632146 -0.047736317
0.11558146 -0.02892857 -0.03397233 -0.08188681 -0.0864624 0.035985846 0.071967624 -0.048450362

model.8.bias f4 [3]
00000000: 5267 79be d804 4c3e 7d94 233e
-0.2435582 0.19923723 0.15974613
