models/BTCUSDT_lstm.pth (torch, 234878 bytes, 10 tensors)

lstm.weight_ih_l0 f4 [256, 29]
0	0x3dd73939	0.10508961
1	0x3e4c6c13	0.19963102
2	0xbca1e35f	-0.01976174
3	0x3e57c371	0.21070649
4	0xbc6e5687	-0.014546997
5	0x3d1fa750	0.03897792
6	0xbd4f523e	-0.05061554
7	0x3da47521	0.08030153
8	0x3df9fb14	0.122060925
9	0xbda2e8e2	-0.07954575
10	0x3df40606	0.119152114
11	0x3d0e88ae	0.034798317
12	0x3c80cfa1	0.015724005
13	0x3d75fd36	0.060055934
14	0x3dd16fba	0.10226388
15	0xbcaa0c58	-0.02075784
16	0x3c97fc42	0.018552903
17	0xbd731a72	-0.059351392
18	0xbe0b7366	-0.1361824
19	0xbd5c3dc1	-0.05376983
20	0xbe1bbc83	-0.1520863
21	0xbb90c2cb	-0.0044177524
22	0x3ca45709	0.020061033
23	0x3dcb5cf9	0.099298425
24	0xbdc0f3c6	-0.09421496
25	0x3c57fa0a	0.013182173
26	0xbe0116ce	-0.12606356
27	0xbddd0f5e	-0.10793947
28	0xbdb63874	-0.08897486
29	0xbd98a8ef	-0.074540965
30	0x3dcf39d7	0.10118454
31	0xbd6a8e5b	-0.057264667
32	0x3dadab45	0.08479933
33	0x3d8b141d	0.06790946
34	0x3b9f2acd	0.004857397
35	0x3e004252	0.12525299
36	0x3d9dd052	0.077057496
37	0x3e17d3ae	0.14826843
38	0x3d7843f1	0.06061167
39	0x3c1c5fef	0.009544357
40	0x3dabd62f	0.08390462
41	0xbdb31470	-0.087441325
42	0xbbe4ac93	-0.0069785803
43	0x3cdd69fc	0.027028076
44	0x3dd6999d	0.10478518
45	0xbbbda591	-0.0057875593
46	0x3df7d691	0.12101472
47	0x3d91dd11	0.07122243
48	0x3dbf8b92	0.09352793
49	0xbd22b84a	-0.039726533
50	0xbd9b17fc	-0.07572934
51	0xbdca9fc2	-0.09893753
52	0xbd555429	-0.052082215
53	0x3e1bc78d	0.15212841
54	0xbc700053	-0.014648515
55	0x3d55e044	0.05221583
56	0xbb6ba527	-0.0035956593
57	0x3b811769	0.0039395583
58	0x3e0672e0	0.13129759
59	0xbdb87858	-0.09007329
60	0x3d295669	0.041342173
61	0xbdb14f12	-0.086576596
62	0x3d874bf3	0.06606283
63	0xbca11dbd	-0.0196675
64	0x3d718ca2	0.05897201
65	0xbbe2b331	-0.006918334
66	0x3e074607	0.13210307
67	0xbd484c7d	-0.04890107
68	0xbd56ef1c	-0.052474126
69	0xbd552935	-0.05204125
70	0x3e35a72f	0.17739557
71	0x3e15be1d	0.14623304
72	0x3e3923bd	0.1808004
73	0x3c8294a7	0.015940024
74	0x3d9e022a	0.077152565
75	0x3dd3a2eb	0.103338085
76	0x3defb68d	0.11704741
77	0x3e51c4d2	0.20485237
78	0x3e49ae19	0.19695319
79	0x3dff0c82	0.124535576
80	0xbd412220	-0.047151685
81	0xbd7ecaeb	-0.062205236
82	0x3daa8b75	0.083273806
83	0xbd078565	-0.0330862
84	0x3db8021e	0.08984779
85	0x3dc7c79a	0.09754868
86	0x3d9c0855	0.07618777
87	0xbd833e77	-0.064083986
88	0xbd0aa4d0	-0.033848584
89	0x3d91b551	0.071146615
90	0x3d63fa41	0.055658583
91	0xb9c7ba46	-0.00038095022
92	0x3dd7e357	0.105414085
93	0x3debdced	0.115167476
94	0xbd844ddb	-0.06460162
95	0xbd0f45f5	-0.034978826
96	0x3e14d815	0.14535554
97	0xbc54cbf9	-0.012988084
98	0xbc61cd76	-0.013781896
99	0xbe3131ac	-0.17304105
100	0xbd4f82d1	-0.050661866
101	0x3d37ba1a	0.044855215
102	0x3b6b38fd	0.0035892122
103	0x3c4a0a34	0.012331534
104	0x3dd9016b	0.105959736
105	0x3c9086f4	0.017642476
106	0xbc731560	-0.014836639
107	0xbd01a763	-0.031653773
108	0xbda238f3	-0.079210185
109	0xbd4bc884	-0.049751773
110	0x3e238ec9	0.15972437
111	0x3d49e179	0.049287293
112	0x3d8bffa3	0.06835868
113	0xbe177620	-0.14791155
114	0xbd07e6fe	-0.033179276
115	0xbd9016de	-0.070356116
116	0xbca4640a	-0.020067234
117	0xbdaacd1e	-0.08339904
118	0xbdbf6ea5	-0.09347276
119	0xbd4599da	-0.048242427
120	0xbd26eb63	-0.040751826
121	0xbdacb720	-0.08433366
122	0xbd42fc4d	-0.047603894
123	0xbe007081	-0.12542917
124	0xbe0115ef	-0.12606023
125	0xbde6888b	-0.11256512
126	0xbda937f4	-0.08262625
127	0xbe0b8f0d	-0.13628788
128	0x3da2d570	0.07950866
129	0xbc6bb678	-0.014386766
130	0x3df89636	0.121380255
131	0x3c82fdb7	0.015990121
132	0xbb1ab6d3	-0.0023607507
133	0x3e4286b3	0.18996696
134	0x3d8d743c	0.069069356
135	0xbc05f42d	-0.008175892
136	0xbe09f088	-0.13470662
137	0xbe27210c	-0.163212
138	0x3dbee0ee	0.09320246
139	0xbd78a3e9	-0.060703192
140	0x3b9ce926	0.0047885356
141	0xbd38d612	-0.04512603
142	0x3dea9bbb	0.114554845
143	0xbe1d55b2	-0.15364721
144	0xbd86ac54	-0.06575838
145	0x3cd0dbb5	0.02549539
146	0x3e34cad7	0.17655502
147	0x3dcd6a58	0.10030049
148	0x3e675096	0.22589335
149	0xbdccb5e0	-0.099956274
150	0x3cedda04	0.029034622
151	0xbd5ff3ff	-0.054676052
152	0xbc70f9f3	-0.01470803
153	0xbdc159c4	-0.094409496
154	0x3de6496a	0.11244471
155	0xbdbf675c	-0.09345886
156	0x3d86c454	0.06580415
157	0xbd3a9c63	-0.0455593
158	0x3d428d22	0.047497876
159	0xbd930dfe	-0.07180403
160	0x3e1bb022	0.15203908
161	0xbd230b56	-0.039805733
162	0xbd518f17	-0.05116185
163	0xbe35a7fe	-0.17739865
164	0x3d97d133	0.074129485
165	0x3d398e21	0.04530156
166	0xbd6e49c9	-0.058175836
167	0x3d196c45	0.03745677
168	0x3c97e058	0.018539593
169	0xbd7f4f3a	-0.062331416
170	0xbe0862bf	-0.13318919
171	0xbe0eed93	-0.13957815
172	0x3d28e30d	0.041232157
173	0xbe2bf4c4	-0.1679259
174	0xbde0e91b	-0.10981961
175	0xbd91fbda	-0.07128115
176	0xbe070c1c	-0.13188213
177	0x3c83eb11	0.0161033
178	0x3d6e999c	0.058251962
179	0xbe237dca	-0.15965953
180	0xbc6c14ad	-0.014409226
181	0x3cdd957c	0.027048819
182	0xbc87158c	-0.016489767
183	0xbdaf1524	-0.08548954
184	0x3cbce76b	0.023059567
185	0x3cbcb37d	0.023034805
186	0x3d187aa0	0.03722632
187	0xbc35ac56	-0.011088451
188	0xbd8f9879	-0.07011504
189	0x3de71cd1	0.11284793
190	0xbd128988	-0.03577569
191	0xbd50a73f	-0.05094075
192	0x3d879944	0.0662103
193	0x3dbafd3b	0.09130331
194	0x3cc3828b	0.023865959
195	0xbd9248ac	-0.07142767
196	0x3d7999c5	0.06093766
197	0xbd3dfc54	-0.046383217
198	0xbc90e48b	-0.017687103
199	0x3dc0d3d8	0.09415406
200	0xbdb7a705	-0.08967403
201	0xbe39a038	-0.18127525
202	0x3de42f09	0.11141784
203	0x3d0002b4	0.031252578
204	0x3dd3670b	0.10322388
205	0xbdbe1088	-0.09280497
206	0x3d0706b2	0.03296537
207	0xbe05848b	-0.13038842
208	0xbd71241c	-0.058872327
209	0x3cc04f40	0.02347529
210	0x3d7f8a6d	0.062387872
211	0x3d23338d	0.039844085
212	0xbe03d6dd	-0.12874933
213	0xbdc08c23	-0.09401729
214	0xbd11e41d	-0.035617936
215	0x3dfae994	0.12251583
216	0x3d07db84	0.03316833
217	0xbce472e4	-0.027886815
218	0x3dd69cea	0.10479148
219	0xbda62bb5	-0.08113805
220	0xbdea5864	-0.114426404
221	0x3d6c681d	0.057716478
222	0xbcbfe175	-0.023422936
223	0x3bdf3d73	0.0068127452
224	0xbe1285be	-0.14308831
225	0x3d03a055	0.032135326
226	0x3d8a5ecc	0.06756362
227	0x3d0be5ed	0.03415482
228	0xbe0e0457	-0.13868843
229	0xbe0b211f	-0.13586853
230	0xbd23b608	-0.03996852
231	0xbd0032c8	-0.03129843
232	0x3dbeefd3	0.093230866
233	0x3dfd7576	0.123759195
234	0x3dca23f4	0.09870139
235	0x3d4da676	0.050207578
236	0x3d05845f	0.032596942
237	0xbd745be4	-0.059657946
238	0xbd8934f3	-0.066995524
239	0xbd94f9bf	-0.07274198
240	0x3dadd778	0.08488363
241	0xbccad584	-0.024760015
242	0x3c612aa1	0.013743074
243	0xbcfb3166	-0.030663203
244	0xbd700169	-0.058595095
245	0xbe0d57e1	-0.13803054
246	0xbdebdb04	-0.11516383
247	0x3b4314cb	0.0029767032
248	0xbd34af52	-0.04411251
249	0x3d8fcaf3	0.07021131
250	0xbd40bf86	-0.04705765
251	0xbdc60696	-0.09669225
252	0xbbe9f1d3	-0.0071394234
253	0xbca7dfb1	-0.020492407
254	0xbdf75e7c	-0.12078568
255	0xbdb4f173	-0.08835115

lstm.weight_hh_l0 f4 [256, 64]
0	0x3dd02d8b	0.10164937
1	0x3dc4cf1b	0.09609815
2	0xbc4f6fd3	-0.012660938
3	0xbd5ffa95	-0.054682333
4	0xbce1ddf6	-0.02757166
5	0xbda4b5cf	-0.0804249
6	0x3e1581ed	0.14600344
7	0xbe0db1a6	-0.13837299
8	0xbe1ee25b	-0.15516035
9	0xbc9d6e80	-0.01921773
10	0xbe196002	-0.1497803
11	0xbe1df2fd	-0.15424724
12	0xbd291156	-0.0412763
13	0xbba636ff	-0.005072474
14	0x3d828561	0.06373096
15	0x3dcf7d49	0.10131318
16	0x3e0d122d	0.13776465
17	0x3e08891d	0.13333555
18	0x3d7c0428	0.0615274
19	0xbd01a010	-0.031646788
20	0x3d50be64	0.05096282
21	0xbdef4af3	-0.11684217
22	0x3d833676	0.06406872
23	0xbd203efa	-0.03912256
24	0xbd89c742	-0.067274585
25	0x3e0f659c	0.14003605
26	0x3d78fb6e	0.060786657
27	0x3e0731e9	0.13202633
28	0x3de49ddf	0.11162924
29	0x3ca64d45	0.020300517
30	0x3cb87b72	0.0225198
31	0x3d7d5f95	0.061858732
32	0x3ca820f1	0.02052352
33	0x3d92fef3	0.07177534
34	0xbc8d90ce	-0.017280962
35	0x3d5bd31c	0.053668126
36	0x3d81e42d	0.06342349
37	0xbd64578d	-0.055747557
38	0x3d19a397	0.037509527
39	0x3db180af	0.086671226
40	0xbc98e2df	-0.018662868
41	0x3db380f9	0.08764834
42	0xbd37876c	-0.044806883
43	0xbd6d3e4e	-0.057920747
44	0xbd09f622	-0.033681996
45	0xbe0d2877	-0.13784967
46	0x3c1775a0	0.009244353
47	0x3c3af9e3	0.011412117
48	0xbca00278	-0.019532427
49	0x3cc63f32	0.024200056
50	0xbdab7bd2	-0.08373226
51	0x3d835ccb	0.06414183
52	0x3d7ee41c	0.06222926
53	0x3e22d76c	0.1590249
54	0x3df6cd31	0.12050856
55	0xbdcd65cb	-0.10029181
56	0xbc67ed20	-0.014155656
57	0xbd22cbe3	-0.039745223
58	0xbdaa6c2f	-0.08321416
59	0x3cb12cf1	0.021627875
60	0x3d00a0af	0.03140324
61	0xbe105d0b	-0.14097993
62	0xbd8a82f5	-0.06763259
63	0x3d306c14	0.04307182
64	0x3e1c772f	0.1527984
65	0x3b06d3b6	0.0020572967
66	0xbde3544d	-0.111000635
67	0xbe4a4390	-0.19752336
68	0x3ca9865d	0.020693952
69	0x3e103462	0.14082482
70	0xbd716719	-0.058936212
71	0x3c9a5ff0	0.018844575
72	0xbdc1b280	-0.09457874
73	0xbad15c97	-0.0015973028
74	0xbda8655d	-0.082224585
75	0xbd8f99cf	-0.070117585
76	0x3d0fb0c2	0.03508068
77	0x3e3099d9	0.17246188
78	0xbd1c5c6a	-0.03817407
79	0x3c8ce0d7	0.017197056
80	0xbe136bcd	-0.14396591
81	0xbc343629	-0.010999241
82	0x3de74690	0.112927556
83	0x3d1f3f5f	0.038878795
84	0xbe2e98a4	-0.17050415
85	0x3d37ff13	0.044920992
86	0x3d0ac63e	0.033880465
87	0x3d93bf32	0.07214202
88	0xbb15f5da	-0.0022882135
89	0x3de718c3	0.1128402
90	0x3d80284b	0.06257685
91	0x3a2889c8	0.00064292224
92	0xbd162b61	-0.036662463
93	0x3dd91ba6	0.10600977
94	0x3db4a54f	0.088205926
95	0x3de66c7f	0.11251163
96	0x3cf685b4	0.030093051
97	0x3dc3c01d	0.09558127
98	0x3c9e3653	0.019313013
99	0xbe00009f	-0.12500237
100	0xbdadb4f5	-0.084817804
101	0x3d8a0c85	0.06740669
102	0x3e095a18	0.13413274
103	0x3dae5efd	0.08514211
104	0xbe432d34	-0.19060212
105	0x3c0a9e98	0.008460663
106	0xbd9dade8	-0.076991856
107	0xbd8afe90	-0.06786835
108	0x3e195f74	0.14977819
109	0x3d5946df	0.053046104
110	0x3dbf0ea4	0.09328964
111	0x3d9edb3d	0.0775666
112	0xbcbc8c47	-0.023016108
113	0xbd258e6a	-0.04041902
114	0x3d2d4522	0.04230226
115	0x3e43beda	0.19115773
116	0x3dcf3c43	0.10118916
117	0x3e03dcf5	0.12877257
118	0xbe0b14b0	-0.1358211
119	0x3decc732	0.11561431
120	0xbdf6d7b3	-0.1205286
121	0x3d51c337	0.051211562
122	0xbce70074	-0.028198458
123	0xbc8e596c	-0.017376624
124	0x3e031b35	0.12803347
125	0x3cdf8038	0.02728282
126	0xbd0bdd19	-0.034146402
127	0xbda5d2d3	-0.08096852
128	0xbdab6544	-0.08368924
129	0xbd5701c3	-0.052491914
130	0xbe2c75b8	-0.16841781
131	0x3d97505b	0.073883735
132	0xbd88de55	-0.066830315
133	0x3caf808c	0.0214236
134	0x3cf91ab9	0.03040825
135	0xbd01d493	-0.031696867
136	0x3c3434ba	0.010998899
137	0x3c984555	0.018587748
138	0xbaad0c0f	-0.0013202446
139	0xbb4576f0	-0.0030130707
140	0x3e431d04	0.19054037
141	0xbe3c7cad	-0.18406935
142	0x3d15d25a	0.03657756
143	0xbde3cd29	-0.111231156
144	0xbe1096d3	-0.14120035
145	0x3bead475	0.00716644
146	0x3d01b260	0.031664252
147	0xbd480963	-0.048837077
148	0xbdeaad13	-0.114587925
149	0xbd17bc52	-0.03704483
150	0xbcc7020a	-0.024292964
151	0x3d404f62	0.046950705
152	0xbcbc658f	-0.022997646
153	0xbc8f34ed	-0.017481292
154	0xbdca9a2c	-0.09892687
155	0xbcf59d6a	-0.029982287
156	0x3d8f475d	0.06996033
157	0x3d8d0496	0.0688564
158	0xbd029b88	-0.031886607
159	0xbd1e1d1b	-0.038601976
160	0xbc33348c	-0.010937821
161	0x3de5f4aa	0.112283066
162	0xbd9b3cb5	-0.07579938
163	0xbde0a991	-0.10969842
164	0xbda2578d	-0.07926855
165	0x3e56138d	0.20905896
166	0xba8f2f5c	-0.0010924148
167	0xbdd74b17	-0.10512369
168	0xbe18d34e	-0.14924356
169	0xbd534be3	-0.051586043
170	0xbd871996	-0.06596677
171	0x3c353ef6	0.011062374
172	0xbd7a1144	-0.061051622
173	0xbd4ca799	-0.04996452
174	0x3d8ecd7e	0.06972788
175	0xbc03ba4e	-0.008040024
176	0x3cb6ff55	0.022338549
177	0x3e3ddfff	0.18542479
178	0xbced2b74	-0.028951384
179	0xbdec17bf	-0.11527967
180	0x3d86768f	0.06565582
181	0x3c7878f3	0.015165555
182	0x3ddf800c	0.10913095
183	0x3cdfdd5a	0.027327228
184	0xbc1fefbf	-0.00976175
185	0xbdb26955	-0.08711497
186	0xbd49bce0	-0.04925239
187	0xbdc01d9d	-0.09380648
188	0x3bfec9d6	0.0077755256
189	0xbcf32a59	-0.029683279
190	0x3d4d7367	0.050158884
191	0x3dfa3241	0.122166164
192	0x3e189a2a	0.14902559
193	0x3d46019d	0.048341382
194	0xbda54ecd	-0.08071671
195	0x3d591b64	0.053004637
196	0x3d09d09e	0.03364622
197	0xbda89569	-0.08231623
198	0xbd749444	-0.05971171
199	0x3e17c8ac	0.14822644
200	0x3e4a3d67	0.19749986
201	0x3c17b232	0.009258794
202	0xbe117a44	-0.14206797
203	0xbdc6ef1a	-0.09713574
204	0x3dfb5c68	0.122734845
205	0xbda9b64a	-0.08286722
206	0x3da11035	0.07864419
207	0xbdd32247	-0.10309272
208	0x3dbe2c32	0.09285773
209	0x3e216695	0.15761788
210	0x3de60cf4	0.11232939
211	0x3dc59cf8	0.0964908
212	0xbe3ab711	-0.18233897
213	0x3cf334e9	0.029688315
214	0xbe14bb2b	-0.14524524
215	0xbd740503	-0.059575092
216	0x3deae7d4	0.11469999
217	0x3c0c90f3	0.00857948
218	0x3d2e80f2	0.04260344
219	0xbd013c20	-0.03155148
220	0xbd476de4	-0.048688784
221	0xbdb0ab23	-0.08626392
222	0xbe32be50	-0.17455411
223	0xbc931085	-0.017952213
224	0x3cf54dd6	0.029944342
225	0x3e2d44a6	0.16920719
226	0x3dcdf9e0	0.100574255
227	0x3df7c91c	0.120989054
228	0xbcc8bcc6	-0.024504077
229	0x3e2a1b87	0.16612063
230	0xbd9d5072	-0.07681359
231	0x3de3fa67	0.11131745
232	0xbd9ff180	-0.07809734
233	0x3e2e0ec6	0.16997823
234	0xbd0e0a22	-0.034677632
235	0xbcb945b1	-0.02261624
236	0x3dbe10f4	0.09280577
237	0x3cfe74f3	0.031061625
238	0x3e4562d6	0.19275984
239	0xbd403dc6	-0.04693391
240	0x3d8c6c54	0.068565995
241	0xbd99a01a	-0.0750124
242	0x3d1e4a68	0.038645178
243	0xbd49b17a	-0.04924152
244	0xbccf7e02	-0.02532864
245	0x3de40463	0.11133649
246	0x3dca8640	0.098888874
247	0x3bb4b7c9	0.005515073
248	0xba6b2c27	-0.0008971118
249	0xbcfd0798	-0.03088741
250	0xbd96c6b6	-0.0736212
251	0x3e182163	0.14856486
252	0xbd33c9a3	-0.043893468
253	0xbd2f1fb2	-0.042754836
254	0xbdadefd0	-0.08493006
255	0x3dcb88f6	0.099382326

lstm.bias_ih_l0 f4 [256]
0	0x3da5b811	0.080917485
1	0x3cb712da	0.022347856
2	0x3d07a0c2	0.033112295
3	0x3e0712d0	0.1319077
4	0x3d8e7599	0.06956024
5	0xbdbad4dc	-0.09122631
6	0x3d4dddc8	0.050260335
7	0x3d1eac7f	0.038738724
8	0xbdacbcc3	-0.08434441
9	0xbdb3acf8	-0.087732255
10	0x3e4fd93b	0.2029771
11	0xbd35d08c	-0.04438834
12	0xbcf14e50	-0.029456288
13	0xbce075d4	-0.027399935
14	0x3d5df7dc	0.054191455
15	0x3dbfea7d	0.09370897
16	0xbcbd42f7	-0.02310322
17	0xbca70fd9	-0.020393299
18	0x3dc792a6	0.09744768
19	0x3d919afa	0.071096376
20	0x3cf2877a	0.029605616
21	0xbacd9efe	-0.0015687642
22	0xbd156fff	-0.03648376
23	0x3c9c9199	0.019112395
24	0x3dc589f3	0.09645452
25	0xbc0656d4	-0.008199412
26	0x3cdc7cf4	0.026915051
27	0x3c063d47	0.008193321
28	0x3e0afbf0	0.13572669
29	0xbd79f92a	-0.061028637
30	0x3df2a2f0	0.11847484
31	0xbd658f69	-0.05604497
32	0x3dc89259	0.097935386
33	0x3d8f0a84	0.069844276
34	0xbda7098c	-0.08156118
35	0x3d0e0d90	0.034680903
36	0xbbb923cb	-0.005650019
37	0xbb154aa5	-0.0022780087
38	0x3e1eae06	0.15496072
39	0xbafe28b1	-0.0019390789
40	0x3df3a736	0.11897127
41	0x3e2dcda7	0.16972981
42	0x3e593646	0.2121211
43	0xbbd8e238	-0.0066187643
44	0xbd611dd8	-0.0549601
45	0x3e173b9e	0.14768836
46	0x3cd7b9a9	0.026333647
47	0x3d192e9a	0.03739796
48	0xbcb7c0b3	-0.022430753
49	0x3e486c2d	0.19572516
50	0xbd5e254f	-0.0542348
51	0x3dab790e	0.08372699
52	0x3dca12dc	0.098668784
53	0xbcf967af	-0.030444948
54	0x3d691b94	0.056911066
55	0x3e2dd774	0.1697672
56	0x3e00ad2b	0.12566058
57	0x3db6ca33	0.08925285
58	0x3d8fed60	0.070276976
59	0x3d33fd15	0.04394253
60	0x3ca950d1	0.02066842
61	0xbccd1200	-0.025032997
62	0x3d92e6e5	0.07172946
63	0x3d2f09b5	0.042733867
64	0x3df60e3b	0.12014433
65	0x3d9b0d86	0.07570939
66	0x3c0e7749	0.008695432
67	0xbc9aeebf	-0.018912671
68	0x3dfbddd4	0.1229817
69	0x3e09add2	0.13445213
70	0x3e2d3633	0.16915207
71	0x3d978f11	0.074003346
72	0xbd514eca	-0.05110053
73	0xbd8abaf2	-0.06773938
74	0x3d729316	0.059222303
75	0xbd4197c9	-0.047263894
76	0xbb94f5f9	-0.004545924
77	0x3de9e575	0.114207186
78	0xbd8217ee	-0.063522205
79	0xbcf3c7f4	-0.029758431
80	0x3d4a76f8	0.049429864
81	0x3dcaef61	0.09908939
82	0x3d5dc023	0.054138314
83	0xbcab937a	-0.020944346
84	0x3d9e6a87	0.07735162
85	0xbd8a5e25	-0.06756238
86	0x3d74c49f	0.059757825
87	0x3da8cf59	0.082426734
88	0x3d6b6e9b	0.05747853
89	0x3e13cf9f	0.1443467
90	0x3dff3ace	0.12462388
91	0xbd3fb93c	-0.046807513
92	0xbb5498dd	-0.0032439746
93	0xbdad86d2	-0.084729806
94	0x3e0265cf	0.1273415
95	0xbd4fc377	-0.05072352
96	0x3cea1e87	0.02857901
97	0xbdac5429	-0.0841449
98	0x3dbd1804	0.09233096
99	0xbd39370c	-0.045218512
100	0xbd3ebd85	-0.04656746
101	0xbce6bce4	-0.028166242
102	0x3e185277	0.14875208
103	0x3ca4396c	0.020046912
104	0x3d9a2486	0.075264975
105	0x3d18802a	0.0372316
106	0x3d2fddef	0.04293626
107	0x3cea7718	0.028621241
108	0x3e216966	0.15762863
109	0xbd07e98a	-0.033181705
110	0x3e327c83	0.1743031
111	0x3e0dd231	0.13849713
112	0x3db2e5b6	0.0873522
113	0x3c9d689d	0.019214923
114	0x3e1aa101	0.1510048
115	0xbd1fa466	-0.038975142
116	0xbcfc1bac	-0.030774914
117	0x3dd4d977	0.103930406
118	0xbdae18c8	-0.085008204
119	0x3e386194	0.18005973
120	0xbc3bb735	-0.011457254
121	0xbd711508	-0.058857948
122	0x3df68809	0.120376654
123	0x3e084a0c	0.13309497
124	0x3dfdb7e2	0.123885885
125	0xbcc4035b	-0.023927381
126	0x3d4449a0	0.047921777
127	0x3cb849e0	0.022496164
128	0x3e18f827	0.14938413
129	0x3d2d607a	0.042328335
130	0xbcc9d910	-0.024639636
131	0xbe14d1b7	-0.14533125
132	0xbced4bdb	-0.028966835
133	0x3ddb6681	0.107129104
134	0xbde95d1f	-0.113947146
135	0x3c9bc688	0.019015566
136	0xbdb279ef	-0.08714663
137	0xbc8628ea	-0.016376931
138	0xbdadf53a	-0.08494039
139	0x3cc0a58f	0.023516444
140	0xbcac1754	-0.021007217
141	0xbd6a0c5b	-0.05714069
142	0xbd5919ea	-0.05300323
143	0x3d089e72	0.03335423
144	0x3c8144c5	0.015779862
145	0xbd81a7e9	-0.063308544
146	0x3d97a283	0.074040435
147	0x3e13dd40	0.14439869
148	0x3d46e4f7	0.0485582
149	0x3cbcb86d	0.02303716
150	0xbd23dd32	-0.04000587
151	0x3dc290c0	0.09500265
152	0xbd72da94	-0.059290484
153	0x3ddd74b5	0.10813276
154	0x3d9ae9c2	0.07564117
155	0xbce8f7a3	-0.028438395
156	0xbdb1d11f	-0.08682465
157	0x3c8d7786	0.017268907
158	0xbd4b41e9	-0.049623404
159	0x3dcb8d6c	0.099390835
160	0xbd0c22d1	-0.03421289
161	0x3dac0fba	0.08401437
162	0x3df8d765	0.12150458
163	0x3d8332da	0.064061835
164	0x3d090024	0.0334474
165	0xbc420429	-0.011841812
166	0x3d6f5c6d	0.058437753
167	0xbb3565b3	-0.0027679026
168	0xbd605419	-0.0547677
169	0x3de12e31	0.109951384
170	0xbc686f7c	-0.014186736
171	0x3d808144	0.062746555
172	0x3da3b70d	0.079938985
173	0xbd9d1c42	-0.076714054
174	0x3dc13351	0.09433616
175	0xbd2631a2	-0.040574677
176	0x3d639796	0.055564485
177	0xbd8953c5	-0.06705431
178	0x3d0de163	0.034638774
179	0x3e078fa2	0.13238385
180	0xbd98b432	-0.074562445
181	0x3de82364	0.11334875
182	0xbd5851fd	-0.052812565
183	0x3d80407f	0.06262302
184	0x3d253901	0.040337566
185	0x3d054246	0.032533906
186	0x3bdbca2a	0.0067074494
187	0x3d655a8b	0.05599455
188	0xbc8852f5	-0.01664112
189	0xbdfbe28b	-0.12299069
190	0xbdafae77	-0.085781984
191	0x3d47ce08	0.04878047
192	0x3cf6e1df	0.030137
193	0x3dacaf88	0.084319174
194	0x3c9b5e79	0.018965947
195	0xbd819da6	-0.06328897
196	0xbd7b484a	-0.061348237
197	0xba548e57	-0.00081083685
198	0xbd0b4160	-0.033997893
199	0x3e1106a6	0.14162692
200	0xbcf716d1	-0.030162247
201	0xbbc11347	-0.0058921906
202	0x3dd9d6e8	0.10636693
203	0x3de94ebe	0.11391972
204	0x3de73d8d	0.11291037
205	0x3d5303a1	0.051517133
206	0x3db6c227	0.0892375
207	0x3d3eae8b	0.046553176
208	0x3e4c13d3	0.19929437
209	0x3d613a0c	0.054987
210	0x3e04fc82	0.12986949
211	0x3ce7aa47	0.028279437
212	0x3e0b4287	0.13599597
213	0x3cebb1ae	0.028771248
214	0xbcef4b4f	-0.029210715
215	0xbcab6ebc	-0.020926826
216	0x3e04224b	0.12903707
217	0x3d20321a	0.03911028
218	0x3e2a7120	0.16644716
219	0x3e10a3e8	0.14125025
220	0x3e46324b	0.19355123
221	0x3c622b38	0.013804249
222	0x3e139353	0.14411668
223	0x3d8a17e9	0.06742842
224	0x3d9671c2	0.07345916
225	0x3d8c4ceb	0.068506084
226	0xbd3cb004	-0.0460663
227	0x3e232c14	0.15934783
228	0x3db60bcc	0.08888969
229	0x3ccafb7e	0.024778124
230	0x3d3eca42	0.046579607
231	0xbd0743a7	-0.033023503
232	0x3d06794c	0.03283052
233	0x3dea9c9e	0.114556536
234	0x3e1082f1	0.1411245
235	0x3e12adbc	0.14324087
236	0x3e2a671e	0.16640899
237	0x3d5d1180	0.053971767
238	0x3d103044	0.03520228
239	0x3e2f4d0e	0.17119238
240	0x3d88cfdb	0.0668027
241	0x3d9d0fad	0.076690055
242	0x3cb32d2a	0.021872122
243	0x3e17012f	0.14746545
244	0x3e2871b5	0.16449626
245	0x3d7cf98c	0.061761424
246	0x3d4b04aa	0.049564995
247	0x3d9784e3	0.07398393
248	0x3dbe5d8c	0.092951864
249	0xbd18c104	-0.03729345
250	0xbd37c6e0	-0.044867396
251	0x3d44ff26	0.04809489
252	0x3dd0958a	0.10184772
253	0xbd12e297	-0.035860624
254	0x3e10bf32	0.14135435
255	0x3da6c144	0.08142331

lstm.bias_hh_l0 f4 [256]
0	0x3df37cc9	0.11889035
1	0x3d92bce9	0.07164938
2	0xbd80dee7	-0.06292515
3	0x3d22af7f	0.039718147
4	0x3ca5c89a	0.020237256
5	0x3d01091a	0.03150282
6	0x3b3f9259	0.0029231517
7	0x3e48d387	0.19611941
8	0x3e1b99a6	0.15195331
9	0xbd162f86	-0.036666416
10	0x3e5e44e1	0.21705963
11	0x3d892d9e	0.06698154
12	0x3da9cb8c	0.082907766
13	0x3c91b1f0	0.017785043
14	0x3e38a41e	0.18031356
15	0xbc34c879	-0.0110341245
16	0x3e04a744	0.12954432
17	0x3d11e4f3	0.035618734
18	0x3e0bfb93	0.13670187
19	0xbcae74d2	-0.021295939
20	0x3c8270ae	0.01592287
21	0x3de96ab5	0.11397306
22	0xbdaa2986	-0.08308701
23	0xbd0886f1	-0.033331815
24	0x3e18a8a8	0.14908087
25	0xbc652a52	-0.013987141
26	0x3d074c43	0.033031713
27	0xbcb389f1	-0.021916362
28	0x3d92299c	0.071368426
29	0xbcedde98	-0.029036805
30	0x3e115c42	0.1419535
31	0x3e0aae2d	0.13543005
32	0x3e298e5e	0.16558215
33	0xbc459de4	-0.01206157
34	0x3dfee8a6	0.12446718
35	0x3dcbcbda	0.09950991
36	0xbceb8e37	-0.028754337
37	0xbd48570d	-0.048911143
38	0x3da45f2a	0.080259636
39	0x3e366e1c	0.17815441
40	0x3d3facab	0.04679553
41	0x3cdbf6af	0.026851026
42	0x3e30db25	0.17271097
43	0xbda7cab6	-0.08192961
44	0x3e1a3824	0.15060478
45	0x3d85b6f8	0.06529039
46	0x3d806173	0.06268587
47	0x3d294a96	0.041330896
48	0x3d5e7ebc	0.054320082
49	0x3dacf966	0.084460065
50	0x3e106839	0.14102258
51	0x3e29035b	0.16505186
52	0x3e023c69	0.12718357
53	0x3b0cf2f8	0.0021507125
54	0xbc7494d0	-0.014928058
55	0x3c88ff06	0.016723167
56	0x3de92e90	0.11385834
57	0x3ccdbac0	0.025113463
58	0xbdb0d321	-0.0863402
59	0xbd096097	-0.03353938
60	0xbce274f9	-0.027643668
61	0xbcd301be	-0.025757667
62	0x3db58495	0.08863179
63	0x3d25066d	0.04028933
64	0xbcd5f0cb	-0.026115796
65	0xbd12d0a2	-0.0358435
66	0x3d34cb83	0.044139396
67	0x3d51ad99	0.051190946
68	0x3dd20e9e	0.10256694
69	0x3db4ee15	0.08834473
70	0xbd10b996	-0.03533324
71	0x3e140be5	0.14457662
72	0xbdd5c747	-0.104384
73	0xbd9c2a7c	-0.07625291
74	0x3e6d9786	0.23202333
75	0x3e2acb3b	0.16679089
76	0x3dbd3378	0.092383325
77	0x3c3176b5	0.010831525
78	0xbc07e6d0	-0.008294776
79	0x3e0447df	0.12918042
80	0xbdab5011	-0.08364881
81	0x3e1c82cc	0.1528427
82	0xbcd4554f	-0.025919585
83	0xbdddc9a2	-0.10829474
84	0x3d9448f9	0.07240481
85	0x3d3c6313	0.045992922
86	0xbdd89534	-0.10575333
87	0xbcfadf7b	-0.030624142
88	0x3cf85297	0.03031282
89	0x3d3e01cb	0.04638843
90	0xbc27e205	-0.010246758
91	0x3e3d7547	0.18501769
92	0xbd3aabbc	-0.045573935
93	0x3dc87d68	0.09789544
94	0x3def7733	0.11692657
95	0x3c0a62ac	0.008446377
96	0x3d568ca8	0.052380234
97	0xbdb4cb63	-0.088278554
98	0xbd707c65	-0.058712382
99	0x3ddb522d	0.10709033
100	0x3a92b8c1	0.0011193977
101	0x3da897bd	0.08232067
102	0xbc36219c	-0.011116412
103	0x3dc35099	0.09536857
104	0xbdb6bc7e	-0.08922671
105	0x3dbbfebf	0.09179448
106	0x3e67e047	0.22644149
107	0x3ddc8f45	0.10769514
108	0x3de017b7	0.10942023
109	0x3e028322	0.12745336
110	0x3e3448d5	0.17605908
111	0x3e3048e1	0.17215301
112	0x3d998696	0.07496373
113	0x3da77c0d	0.08177958
114	0x3dae1906	0.085008666
115	0x3e0d8c78	0.13823116
116	0x3df2ba76	0.11851971
117	0xbc39f817	-0.011350653
118	0x3bb9cc0d	0.0056700767
119	0x3e12300b	0.1427614
120	0xbd8df875	-0.06932155
121	0xbd1384aa	-0.03601519
122	0xbd033388	-0.032031566
123	0x3d49d9f5	0.049280126
124	0x3e1baddf	0.15203045
125	0x3e150ae4	0.14554936
126	0x3da92a03	0.08259966
127	0x3ccac948	0.024754182
128	0xbb960e70	-0.004579358
129	0xbddde91e	-0.10835479
130	0xbc7dda1b	-0.015493895
131	0xbd47d327	-0.048785355
132	0xbd963196	-0.073336765
133	0x3d99bd51	0.07506812
134	0x3d70522a	0.058672108
135	0x3d32473c	0.043524966
136	0xbd9b3743	-0.075789
137	0xbd0f848a	-0.03503851
138	0xbe28746f	-0.16450666
139	0x3ca24c83	0.019811874
140	0x3d31922f	0.043352302
141	0x3d9e35d5	0.077251114
142	0xbdddeab3	-0.10835781
143	0xbd56b18a	-0.05241541
144	0xbd8121ee	-0.063053
145	0x3db68523	0.089121126
146	0x3e03e3b4	0.1287983
147	0xbdb70ad7	-0.089376144
148	0xbd967863	-0.07347181
149	0xbce49851	-0.027904661
150	0xbe048897	-0.1294273
151	0xbdec0312	-0.11524023
152	0xbdb21498	-0.08695334
153	0x3e0cee0d	0.13762684
154	0xbc5566c7	-0.013024992
155	0xbd9607f0	-0.07325733
156	0xbd19cb3a	-0.037547328
157	0x3dc07c15	0.09398667
158	0xbe1a80c8	-0.15088189
159	0x3d9c444c	0.07630214
160	0x3c82d0e5	0.01596875
161	0xbdfe257d	-0.12409494
162	0x3e115129	0.14191116
163	0xbd6cdf54	-0.05783017
164	0x3dde397f	0.1085081
165	0x3d29adae	0.0414254
166	0xbb135ed2	-0.0022486937
167	0xb9982c56	-0.00029024732
168	0xbde6d131	-0.11270369
169	0x3d99d94e	0.07512151
170	0xbcdbb10b	-0.02681782
171	0x3d573509	0.052540813
172	0x3e141491	0.1446097
173	0xbd858505	-0.06519512
174	0x3cd80d30	0.026373476
175	0x3c5587b9	0.013032847
176	0xbd4b0992	-0.049569674
177	0x3d94d109	0.07266433
178	0xbdb20f5d	-0.086943366
179	0x3dd9f27e	0.10641955
180	0xbd853c98	-0.06505698
181	0xbbd28e87	-0.006425682
182	0xbc92528e	-0.01786163
183	0x3d19a285	0.037508506
184	0x3db563c8	0.088569224
185	0x3d68948d	0.056782294
186	0xbda5ac63	-0.08089521
187	0x3e0e66e1	0.13906433
188	0x3e1c2cc8	0.15251458
189	0xbd9513d9	-0.07279176
190	0xbd8e5ddf	-0.06951498
191	0xbd17731e	-0.03697502
192	0x3d5291f8	0.051408738
193	0x3e5da30d	0.2164423
194	0x3d7c6187	0.061616447
195	0x3db5a052	0.08868469
196	0xbd81fbef	-0.06346881
197	0x3dc2d18c	0.09512624
198	0x3e11f05d	0.14251848
199	0x3d24c802	0.040229805
200	0xbd8d2b17	-0.06892984
201	0x3d185400	0.037189484
202	0xbc84681c	-0.016162924
203	0x3e507e5f	0.20360707
204	0xbce50d68	-0.027960494
205	0x3e22b7aa	0.15890375
206	0xbd9f41cb	-0.07776221
207	0x3dc65e61	0.0968597
208	0x3d1f532e	0.038897686
209	0xbd9dde8b	-0.07708462
210	0x3df1f036	0.11813395
211	0x3e0f142a	0.13972536
212	0x3cb448b3	0.022007322
213	0x3d55c05f	0.052185412
214	0xbd502af4	-0.050822213
215	0x3e079b7b	0.13242905
216	0x3e2b77ff	0.16744994
217	0xbb9f9565	-0.004870104
218	0x3e280398	0.16407621
219	0x3e087a48	0.13327897
220	0x3dd0a42a	0.10187562
221	0xbccf5899	-0.025310801
222	0x3e1a56ff	0.15072249
223	0x3d69e7f1	0.057105962
224	0xbbc70bf8	-0.006074425
225	0xbdba8539	-0.091074415
226	0xbdbbd04a	-0.09170587
227	0x3e2ff8c0	0.17184734
228	0xbcbd48f6	-0.02310608
229	0xbd296f5c	-0.041365966
230	0x3e5ff1ba	0.21869555
231	0x3a003ada	0.0004891582
232	0xbd4a5712	-0.049399443
233	0x3def9fb4	0.11700383
234	0x3d98d88f	0.0746318
235	0x3d8cd7f6	0.06877129
236	0x3e457f0d	0.19286747
237	0x3ce13eac	0.027495705
238	0x3e04fcc9	0.12987055
239	0x3d0df6a4	0.034659043
240	0x3cbcd161	0.023049058
241	0x3dc18f81	0.09451199
242	0x39ad0fba	0.0003300885
243	0x3d996c28	0.07491332
244	0x3dfdd1a6	0.12393503
245	0xbdc00fad	-0.0937799
246	0xbcd38781	-0.02582145
247	0x3e4d4e2e	0.20049354
248	0x3d558f2f	0.052138504
249	0x3e2d6b27	0.16935407
250	0x3e068b4e	0.13139078
251	0xbce5f3c3	-0.028070336
252	0x3c89afb1	0.016807409
253	0x3db2d01f	0.08731102
254	0x3d8fce3d	0.07021759
255	0x3c232d4e	0.009959532

lstm.weight_ih_l1 f4 [256, 64]
0	0x3d912cb8	0.070886075
1	0xbdd7b5ea	-0.10532744
2	0x3dbec216	0.09314363
3	0xbe03202b	-0.1280524
4	0xbe0a33bf	-0.13496302
5	0xbda762da	-0.08173151
6	0xbe3f2e2b	-0.18669955
7	0x3de2c2a9	0.11072285
8	0xbde216bf	-0.11039495
9	0x3d97b7af	0.07408082
10	0xbe17dc9e	-0.14830253
11	0x3d98cf0e	0.074613675
12	0x3cbc2ac6	0.022969615
13	0xbc9366c2	-0.017993335
14	0x3cb2d48c	0.021829866
15	0x3d4bcda1	0.04975665
16	0x3d62d5c0	0.05537963
17	0x3da38069	0.07983477
18	0x3dfb3b56	0.12267177
19	0x3dd7a9a2	0.10530402
20	0xbc1be3e9	-0.009514787
21	0xbd29e3ea	-0.04147712
22	0xbe11d748	-0.1424228
23	0x3e10adaa	0.14128748
24	0xbe333869	-0.17501988
25	0xba879009	-0.0010342608
26	0x3dd91f13	0.1060163
27	0xbd86f581	-0.06589795
28	0xbda4e87c	-0.080521554
29	0x3e19cf72	0.1502054
30	0xbd0b84ed	-0.034062315
31	0x3d9d1bba	0.07671304
32	0x3da60d60	0.0810802
33	0xbc4b794b	-0.012419055
34	0xbdb544f5	-0.08851043
35	0xbd17ca17	-0.037057962
36	0xbdb379d3	-0.087634705
37	0xbd5a4ab6	-0.053293906
38	0xbcf45fc8	-0.029830828
39	0x3d960c1b	0.07326528
40	0xbe393ded	-0.18090029
41	0x3deb0765	0.1147602
42	0x3e055146	0.13019285
43	0x3e266c5f	0.16252278
44	0x3e02d22d	0.12775488
45	0x3d60e6cb	0.0549076
46	0x3dedd717	0.11613291
47	0x3d9eb661	0.0774963
48	0x3cc77939	0.024349796
49	0x3d9b38c0	0.075791836
50	0x3dfbe967	0.12300377
51	0x3db54ed0	0.08852923
52	0x3da5670d	0.08076296
53	0x3bcf4b32	0.0063261027
54	0xbda287cb	-0.07936057
55	0xbe07efc0	-0.13275051
56	0x3d26f361	0.040759448
57	0xbd7cb592	-0.061696596
58	0xbdde94ed	-0.10868249
59	0x3dffed0e	0.124963865
60	0x3de341fa	0.110965684
61	0xbd73c47c	-0.059513554
62	0x3d91ac50	0.07112944
63	0x3d020a55	0.031748135
64	0x3e11f884	0.14254957
65	0x3d5f003e	0.05444359
66	0x3dd3966c	0.10331425
67	0xbdd1de3d	-0.10247467
68	0xbd0e4e6b	-0.034742754
69	0xbe1f24ca	-0.15541378
70	0xbdc22bef	-0.09481036
71	0x3dc9dbbe	0.098563656
72	0xbdc36501	-0.09540749
73	0x3d9179b5	0.07103292
74	0xbd7e4097	-0.062073316
75	0x3d571f06	0.05251982
76	0x3dc0bf3d	0.09411476
77	0x3dbde5b2	0.092723265
78	0x3dd51efc	0.104063004
79	0xbd018e20	-0.03162968
80	0x3da33b25	0.07970265
81	0x3ba610c9	0.005067919
82	0x3d9ffebf	0.07812261
83	0x3dd4de77	0.10393994
84	0x3c4b0da5	0.01239339
85	0x3c9d831b	0.019227555
86	0xbd299b6c	-0.041407987
87	0x3dd6b729	0.10484154
88	0xbb9365d9	-0.004498225
89	0xbd512d4a	-0.05106858
90	0xbcfc1172	-0.030770037
91	0x3d9b9d28	0.075983346
92	0x3dd85cab	0.1056455
93	0xbd8760f9	-0.06610293
94	0x3e0a497d	0.13504596
95	0x3e2342d7	0.15943466
96	0xbe14da93	-0.14536504
97	0x3d4a5082	0.049393184
98	0xbc77450f	-0.015092148
99	0x3d1da2bf	0.038485285
100	0x3dfc29f0	0.123126864
101	0x3c30d3dc	0.010792699
102	0x3d579b79	0.052638505
103	0xbe013197	-0.12616573
104	0x3db7cce8	0.0897463
105	0x3c07f78e	0.008298768
106	0x3db914a6	0.090371415
107	0x3de34503	0.11097147
108	0xbc8f68c8	-0.017506018
109	0x3dc88ade	0.09792112
110	0xbc7d70df	-0.015468805
111	0x3de93ab4	0.1138815
112	0x3d8e7e77	0.06957715
113	0xbdc93d25	-0.098261155
114	0x3d3180c5	0.043335695
115	0x3ca397fb	0.01996993
116	0xbe0839ee	-0.13303348
117	0x3d249d78	0.040189236
118	0xbe003538	-0.12520301
119	0x3ce88fb9	0.028388845
120	0xbd5ce789	-0.053931747
121	0xbda72247	-0.08160835
122	0x3d9bf6f2	0.076154605
123	0xbcbf8265	-0.023377607
124	0xbdc2e492	-0.095162526
125	0x3d15df21	0.036589745
126	0xbd08d70e	-0.033408217
127	0xbe0d373d	-0.13790603
128	0x3e155693	0.14583807
129	0xbd81216b	-0.06305202
130	0xbe05c6c9	-0.13064112
131	0xbe0ae15a	-0.13562527
132	0x3dbd10fe	0.09231757
133	0x3ca55a11	0.020184549
134	0xbd3eb827	-0.04656234
135	0x3dff9ae5	0.12480716
136	0x3db4bfef	0.08825671
137	0x3d97493b	0.073870145
138	0xbd52bccc	-0.051449582
139	0xbe077b08	-0.13230526
140	0x3d83966f	0.06425177
141	0x3d316ec7	0.043318536
142	0xbe32c429	-0.17457642
143	0xbdd2a20b	-0.102848135
144	0xbd54d713	-0.051962923
145	0x3c0f346b	0.008740525
146	0xbe001b9c	-0.12510532
147	0xbd888ecd	-0.06667862
148	0xbe2f3fb5	-0.17114146
149	0xbd630785	-0.055427093
150	0x3e02a95b	0.12759916
151	0x3e015ac8	0.12632287
152	0x3d7b6543	0.061375868
153	0x3d732dc6	0.059369825
154	0x3e1a215d	0.1505179
155	0x3db84ebf	0.089993946
156	0xbdbe3ef9	-0.09289355
157	0xbd832b91	-0.06404794
158	0x3e157531	0.14595486
159	0xbdd2d64d	-0.10294781
160	0xbd741771	-0.059592668
161	0x3d926a1b	0.07149144
162	0x3d0a74be	0.03380274
163	0xbd405548	-0.04695633
164	0xbd948f7b	-0.07253929
165	0x3d3f0785	0.04663803
166	0xbd78799e	-0.06066286
167	0xbd8135c4	-0.06309083
168	0xbe21e6ba	-0.15810671
169	0xbd1f8967	-0.038949396
170	0xbe4ea1a6	-0.20178851
171	0x3d1a3873	0.03765149
172	0x3c8c056e	0.017092433
173	0xbe217d23	-0.15770392
174	0x3df8fda1	0.12157751
175	0x3d9113e1	0.0708387
176	0x3c1c7f2f	0.009551807
177	0xbda0384a	-0.07823236
178	0xbd85a2c7	-0.06525188
179	0x3de53f7e	0.11193751
180	0x3d685ad4	0.056727245
181	0x3d273c40	0.040828943
182	0xbd259926	-0.040429257
183	0x3db2074b	0.08692797
184	0x3cfde639	0.030993568
185	0x3d9c2d0a	0.07625778
186	0x3d982229	0.074283905
187	0x3e01ca3b	0.12674801
188	0x3d393d9a	0.045224763
189	0xbd06d062	-0.032913573
190	0xbb8ffedf	-0.0043943967
191	0x3d16656b	0.036717813
192	0x3d1fd67f	0.03902292
193	0xbe33b155	-0.17548116
194	0x3d0fc2c4	0.035097852
195	0x3d83c2b7	0.06433623
196	0x3ce5126f	0.027962891
197	0x3dae092e	0.08497845
198	0xbd21ad99	-0.039472196
199	0x3cf48bb6	0.029851776
200	0xbc633138	-0.013866715
201	0x3e0a1873	0.13485889
202	0xbe1d15d8	-0.15340364
203	0x3e66dfd8	0.22546327
204	0x3d0e498f	0.03473812
205	0x3c9c62a0	0.019089997
206	0x3ca3cc51	0.019994887
207	0x3dc2a7a3	0.095046304
208	0x3e25a8c9	0.16177668
209	0xbd276af2	-0.040873475
210	0x3c5fffb9	0.013671809
211	0x3d25053a	0.040288188
212	0xbe17f61e	-0.1483998
213	0x3cb5ac1c	0.022176795
214	0x3d501054	0.05079682
215	0x3c02ad98	0.007975958
216	0xbd4fa871	-0.050697748
217	0x3e8196ca	0.25310355
218	0xbd1ca4fd	-0.038243283
219	0x3d37c558	0.044865936
220	0x3dca9b89	0.09892947
221	0x3e050cd6	0.12993178
222	0x3dcc192d	0.099657394
223	0x3cd0cc5a	0.025488067
224	0x3af4d672	0.0018679632
225	0x3e04590b	0.12924592
226	0xbd58eacf	-0.052958306
227	0xbd3e2e48	-0.046430856
228	0x3ca4e3ec	0.020128213
229	0x3e7774ff	0.24165724
230	0xbddff642	-0.10935642
231	0x3da03625	0.07822827
232	0xbd6868de	-0.056740634
233	0x3e3c59cb	0.18393628
234	0x3c0b021e	0.0084843915
235	0xbd7b6da4	-0.06138386
236	0x3e23e234	0.16004258
237	0x3ddebeaa	0.1087621
238	0x3e00bdfe	0.12572476
239	0xbd17f1d1	-0.03709585
240	0x3e19a406	0.15003976
241	0xbd86a5fd	-0.065746285
242	0x3bb73009	0.005590443
243	0x3d96e84f	0.07368528
244	0x3d050a4d	0.032480527
245	0x3d0dd257	0.034624424
246	0x3de6ee99	0.11275978
247	0xbbd9bfc5	-0.006645175
248	0x3e075d67	0.13219224
249	0x3d947a5a	0.07249899
250	0x3da912e6	0.08255558
251	0xbdf6d7be	-0.12052868
252	0x3d550e48	0.052015573
253	0xbdb1df8f	-0.086852185
254	0xbd2350fe	-0.039872162
255	0x3e3f029f	0.18653344

lstm.weight_hh_l1 f4 [256, 64]
0	0xbdbfa7ea	-0.09358199
1	0xbcabaa9f	-0.020955382
2	0xbdf57692	-0.11985506
3	0x3e098c63	0.1343246
4	0xbd4a01dc	-0.04931818
5	0x3d5759c8	0.052575856
6	0xbdbc6366	-0.09198646
7	0x3e13d2dd	0.14435907
8	0x3c970341	0.018434169
9	0xbdf1643c	-0.11786696
10	0xbca62867	-0.020282937
11	0x3e41beae	0.18920395
12	0x3d6b0ec5	0.057387132
13	0x3dbfd6fd	0.09367178
14	0x3d37efb2	0.044906326
15	0x3e0ae3c4	0.13563448
16	0x3da0e91f	0.07856964
17	0x3c838c6a	0.016058166
18	0x3de129b7	0.109942846
19	0x3dfc76a0	0.123273134
20	0x3d1a95db	0.03774057
21	0xbad4cae2	-0.001623478
22	0xbd4bacad	-0.049725223
23	0x3de60b39	0.11232609
24	0x3c76bf38	0.015060239
25	0xbd89984c	-0.067185014
26	0x3df74e97	0.12075537
27	0x3e3171ea	0.17328611
28	0xbd844c45	-0.0645986
29	0x3e02730f	0.12739204
30	0xbd52c9b6	-0.051461898
31	0xbd5ac5c4	-0.05341126
32	0x3c82b234	0.015954114
33	0xbd85a9ee	-0.06526552
34	0xbdbdd6b4	-0.09269467
35	0x3c379dd6	0.011207065
36	0xbbd2f272	-0.006437593
37	0xbdadb0b1	-0.08480967
38	0x3daebc7e	0.08532046
39	0x3dbf32a4	0.09335831
40	0xbd5482c0	-0.051882505
41	0x3df38b8e	0.11891852
42	0xbcae1ca3	-0.02125389
43	0x3ca56383	0.020189052
44	0x3d1814c6	0.037129186
45	0xbd94131e	-0.07230209
46	0x3d2c53d4	0.042072132
47	0x3e2b504c	0.1672985
48	0x3e470774	0.19436437
49	0xbe23a38f	-0.15980361
50	0xbdc64b10	-0.09682286
51	0x3e043b8f	0.12913345
52	0x3dd83db1	0.10558642
53	0xbbb5f350	-0.0055526868
54	0xbdb4bd66	-0.088251874
55	0xbe465864	-0.19369656
56	0x3e072db3	0.13201027
57	0xbd442e11	-0.047895495
58	0x3e50fda9	0.20409264
59	0xbe0b8a15	-0.13626893
60	0x3d43d2c9	0.047808442
61	0x3da09253	0.07840409
62	0xbd878b36	-0.06618349
63	0x3d92d50f	0.07169544
64	0xbd205b88	-0.03914979
65	0x3e113320	0.14179659
66	0xbe16d154	-0.1472829
67	0x3deeeb45	0.11665968
68	0xbd3098ab	-0.043114346
69	0xbd78e4aa	-0.060764946
70	0xbdd7dd10	-0.10540211
71	0x3dd02705	0.101636924
72	0x3aa693e2	0.0012708867
73	0xbddc016b	-0.10742458
74	0x3c25630a	0.0100944135
75	0x3de4986b	0.11161884
76	0x3dcf5428	0.101234734
77	0x3e262dab	0.16228358
78	0x3db2762f	0.08713948
79	0xbd33014f	-0.04370242
80	0x3cdcd5e6	0.026957463
81	0x3d9ad68d	0.075604536
82	0x3bb7a4ef	0.0056043784
83	0x3b813fce	0.0039443737
84	0xbc1a5e17	-0.009421847
85	0xbd93a1af	-0.07208573
86	0xbca06fd7	-0.01958458
87	0xbdb02721	-0.08601213
88	0xbd6d6a40	-0.057962656
89	0xbd9e2ebc	-0.077237576
90	0x3d5004cc	0.050785825
91	0xbd5d1985	-0.053979415
92	0x3d543444	0.051807657
93	0x3e002ed6	0.12517866
94	0x3c6e576a	0.014547208
95	0xbce5ca9b	-0.028050711
96	0x3d16a3b4	0.036777213
97	0xbcadf855	-0.021236578
98	0x3c898132	0.016785238
99	0xbdd9a077	-0.10626309
100	0x3d908ade	0.07057737
101	0x3d7198b4	0.05898352
102	0x3c0c7cde	0.0085746925
103	0x3d97451c	0.073862284
104	0x3dd3dd8d	0.10344992
105	0x3d0a650f	0.033787783
106	0xbde28c6e	-0.11061941
107	0x3e032448	0.12806809
108	0xbdb18fd3	-0.086700104
109	0x3e09fd77	0.13475595
110	0xbc2fe78c	-0.010736357
111	0x3caa3665	0.02077789
112	0x3debf3ea	0.11521132
113	0x3da1674d	0.07881031
114	0x3c7aaa00	0.01529932
115	0x3ce0ca84	0.027440317
116	0xbd52ea62	-0.051493056
117	0xbd738c99	-0.059460256
118	0xbd253479	-0.040333245
119	0x3c957e53	0.018248713
120	0x3d0027db	0.03128801
121	0xbd6effea	-0.058349527
122	0x3bd350cd	0.006448841
123	0xbe13a9fa	-0.1442031
124	0x3daa3f9d	0.083129145
125	0xbb9c72f2	-0.0047744447
126	0xbcbd6d85	-0.023123512
127	0x3e1e9325	0.15485819
128	0xbdfa95e3	-0.1223562
129	0x3dadeffa	0.084930375
130	0x3d84932a	0.06473382
131	0x3e052f07	0.13006221
132	0xbd71dc13	-0.05904777
133	0xbc63dff0	-0.013908371
134	0xbdd423cd	-0.10358391
135	0x396e8ec4	0.00022750633
136	0x3d3f53bf	0.046710726
137	0x3c7a5455	0.015278895
138	0x3dcf6e75	0.1012849
139	0xbe3cb8fc	-0.18429941
140	0xbdf3993a	-0.1189446
141	0x3c44f7c6	0.012021964
142	0x3c78c5d1	0.015183882
143	0xbd7eb5ef	-0.062185224
144	0xbdffddb5	-0.12493459
145	0xbb8f8efe	-0.0043810597
146	0x3c30c990	0.010790244
147	0x3e1af3c1	0.15132047
148	0x3d10fe6c	0.035398886
149	0xbd22480a	-0.039619483
150	0x3dfadebe	0.12249516
151	0x3d8436aa	0.06455739
152	0x3beb6ff6	0.0071849776
153	0x3c9434e2	0.018091623
154	0x3e2aaff3	0.16668682
155	0xbd23aa14	-0.03995712
156	0x3d547e70	0.051878393
157	0xbd0ef38b	-0.03490023
158	0x3da0efc0	0.07858229
159	0xbcee8ec9	-0.02912082
160	0x3d983cf7	0.07433503
161	0xbdcf0742	-0.10108806
162	0xbd868f1d	-0.065702654
163	0x3d956850	0.07295287
164	0x3d8f0197	0.06982725
165	0xbda334fe	-0.07969092
166	0xbd75dd2d	-0.060025383
167	0x3e218c9d	0.15776296
168	0x3da3ccd4	0.07998052
169	0x3dd4c2c8	0.10388714
170	0xbd0f43f0	-0.0349769
171	0x3dd80b0d	0.10548983
172	0xbd38fb43	-0.045161497
173	0x3bc25704	0.005930783
174	0xbc6f69c4	-0.014612619
175	0x3cfbaa35	0.03072081
176	0xbd8bb7ee	-0.06822191
177	0x3d893883	0.06700232
178	0xbd2460b8	-0.0401313
179	0x3d703efd	0.05865382
180	0x3c39f81b	0.011350657
181	0xbaf8ec7b	-0.0018991375
182	0x3bb5e60a	0.0055511044
183	0x3b912b33	0.0044301986
184	0x3e0eb9e4	0.13938099
185	0x3d8bd4ec	0.06827721
186	0x3c10d26f	0.008839234
187	0x3d831026	0.063995644
188	0x3d11e7f9	0.035621617
189	0xbc218cf2	-0.009860264
190	0x3ae5140e	0.001747729
191	0x3d3f2476	0.04666563
192	0xbdd8d4b0	-0.10587442
193	0xbda6b3e1	-0.08139778
194	0xbdded255	-0.108799614
195	0xbc465588	-0.012105353
196	0xbd935216	-0.07193391
197	0xbb391ec1	-0.002824709
198	0xbe31b20d	-0.17353077
199	0xbb1d253a	-0.0023978488
200	0xbd5401a4	-0.051759377
201	0x3d1d7f15	0.038451273
202	0xbe548b79	-0.2075633
203	0xbd3eb5e7	-0.046560194
204	0xbd0a78e1	-0.033806685
205	0xbda72a3e	-0.08162354
206	0x3c038ca0	0.008029133
207	0xbe1d499e	-0.15360114
208	0x3d609dff	0.054838177
209	0xbdb53362	-0.08847691
210	0xbc80d9fe	-0.015728947
211	0xbb3caeeb	-0.0028790783
212	0x3c0f24a7	0.008736766
213	0x3e21b035	0.15789874
214	0xbd858139	-0.06518788
215	0xbd6768f4	-0.056496575
216	0xbdc481d7	-0.095950775
217	0xbce7cdb8	-0.028296337
218	0x3e1e997e	0.1548824
219	0x3df0378e	0.11729346
220	0xbe3b3b31	-0.18284298
221	0x3da79ded	0.08184419
222	0x3bb3a815	0.0054826834
223	0xbdddb0f7	-0.10824769
224	0x3d318b85	0.043345947
225	0x3cc4aab9	0.024007188
226	0xbd56d76c	-0.052451536
227	0x3dea5684	0.11442283
228	0xbdab95bb	-0.08378168
229	0xbe2c64e7	-0.16835366
230	0xbd308d82	-0.043103702
231	0x3df73f47	0.12072616
232	0x3da0de8c	0.078549474
233	0x3c65aff7	0.014019004
234	0x3dfefb66	0.12450294
235	0xbe11f79a	-0.14254609
236	0xb8b87bb2	-8.796844e-05
237	0xbd9031b6	-0.070407316
238	0x3d5eeb2e	0.054423504
239	0x3df13d5c	0.117792815
240	0x3c1aee3d	0.0094562145
241	0x3c6058e9	0.013693073
242	0xbd6c2a26	-0.057657383
243	0x3d5889a6	0.052865647
244	0xbd66279a	-0.05619011
245	0xbbe7ab1c	-0.0070699584
246	0xbd799b6b	-0.060939234
247	0xbc870909	-0.0164838
248	0xbd95c2f7	-0.07312577
249	0xbcb91f16	-0.02259783
250	0x3c0bacf5	0.008525123
251	0xbe15b43f	-0.1461954
252	0xbb52e014	-0.0032177018
253	0x3d814864	0.063126355
254	0xbe3faacf	-0.18717502
255	0x3d7ddf10	0.061980307

lstm.bias_ih_l1 f4 [256]
0	0x3c62edd1	0.013850645
1	0x3d8dc699	0.06922645
2	0x3e0ae326	0.13563213
3	0xbca6c4cf	-0.020357518
4	0x3d947fe0	0.07250953
5	0x3c99b76e	0.018764224
6	0xbd18a001	-0.037261967
7	0x3d966d7e	0.07345103
8	0xbd05eb7d	-0.032695282
9	0x3dcaeb3a	0.09908147
10	0xbd5317ef	-0.051536497
11	0x3cd604b1	0.026125284
12	0x3df32fb8	0.11874336
13	0x3cfe029e	0.031007107
14	0x3e62f1f6	0.22162613
15	0x3e4ca9e2	0.1998668
16	0x3d2bc7ad	0.041938473
17	0x3e208ab9	0.15677918
18	0x3e3bded6	0.18346724
19	0x3cc7f5db	0.024409225
20	0x3e29daf5	0.16587432
21	0x3dc3d9b0	0.09563005
22	0x3e07798b	0.13229959
23	0x3e1f7f4a	0.155759
24	0x3e16d701	0.14730455
25	0x3e0bbbe0	0.13645887
26	0x3d96fe97	0.07372778
27	0x3d0d7c3e	0.034542315
28	0xbd3eca29	-0.046579514
29	0x3cce7cb4	0.025205947
30	0xbc1e9d23	-0.009681019
31	0x3d35947a	0.04433105
32	0x3d967e58	0.07348317
33	0x3cc00c63	0.023443406
34	0x3dc7a921	0.09749056
35	0x3e717cc2	0.23582748
36	0x3d62eaf8	0.055399865
37	0x3da54afd	0.080709435
38	0x3e24edf9	0.16106404
39	0x3e3ba03d	0.18322845
40	0x3e44d1b1	0.19220616
41	0xbda67b4b	-0.08128985
42	0x3c1e4d81	0.009662033
43	0x3d81322a	0.06308396
44	0x3e13af09	0.1442224
45	0x3d91d74f	0.07121145
46	0x3df9b609	0.121929236
47	0x3dcbda02	0.09953691
48	0x3e0ccab6	0.13749203
49	0xbd038532	-0.032109447
50	0xbd844d29	-0.0646003
51	0x3da5bf7c	0.08093163
52	0x3e2a2b9c	0.16618198
53	0x3d3c8d80	0.046033382
54	0x3e08baef	0.1335256
55	0x3d06177e	0.032737248
56	0x3d426d9f	0.047467824
57	0x3e293473	0.16523914
58	0xbd85f94c	-0.0654169
59	0x3d55e234	0.052217677
60	0xbbdb4540	-0.006691605
61	0x3d9e4cd8	0.077295005
62	0x3d8f438d	0.06995306
63	0xbd31d471	-0.04341549
64	0x3e08face	0.13376924
65	0x3d113ffe	0.03546142
66	0xbde309b5	-0.11085836
67	0xbce88299	-0.028382586
68	0x3da42e77	0.08016675
69	0xbd981580	-0.07425976
70	0xbbfa88e0	-0.0076457113
71	0x3dac4a44	0.084126025
72	0xbcfd0c2a	-0.03088959
73	0x3e00dd6e	0.12584469
74	0x3cbda28b	0.023148796
75	0xbc4a7684	-0.012357358
76	0x3cdf2b72	0.027242396
77	0x3d23f4c7	0.04002836
78	0x3bff4dbd	0.0077912495
79	0x3e20670d	0.15664311
80	0xbd2b8b00	-0.041880608
81	0x3ca007b2	0.01953492
82	0x3b9d3cbf	0.0047985013
83	0x3de0efcb	0.10983237
84	0x3dabcf5d	0.08389161
85	0x3cd75bc3	0.026288873
86	0xbcd64032	-0.026153658
87	0x3c45f9eb	0.012083511
88	0x3de802ee	0.11328684
89	0xbcce2774	-0.025165297
90	0x3d921f3d	0.071348645
91	0x3d42e414	0.047580793
92	0x3d713ef6	0.058897935
93	0x3dee5ab9	0.11638398
94	0x3db7abb9	0.089683
95	0xbb2b88e7	-0.002617413
96	0x3cdfbd68	0.027311996
97	0x3d12c3b4	0.03583117
98	0x3d1a0d8c	0.037610576
99	0x3d6f3da6	0.058408402
100	0x3daf1143	0.08548214
101	0x3dafa9c5	0.08577303
102	0x3d952e55	0.07284228
103	0x3c78bc94	0.015181679
104	0x3ddf9394	0.1091682
105	0xbc98bee2	-0.018645708
106	0xbd8194d2	-0.06327213
107	0x3ce877fe	0.02837753
108	0xbb903829	-0.004401226
109	0x3c4b24a0	0.012398869
110	0x3d960698	0.073254764
111	0x3bf7ac16	0.007558356
112	0x3e09ef1b	0.13470118
113	0xbd7df88f	-0.062004622
114	0xbcd32b70	-0.025777549
115	0xbc2b5601	-0.010457517
116	0xbddc212f	-0.10748517
117	0x3dcc982a	0.099899605
118	0xbccf9e7e	-0.02534413
119	0x3e1b321f	0.15155838
120	0x3dfd916f	0.12381255
121	0xbda79272	-0.08182229
122	0xbd6d1a42	-0.05788637
123	0x3e048589	0.12941565
124	0x3dd21e1e	0.10259651
125	0x3dd8951f	0.105753176
126	0xbd9b22d3	-0.075750016
127	0x3d6f36a9	0.058401737
128	0x3da2b5ae	0.07944809
129	0xbc8e1d95	-0.01734809
130	0xbd95edfc	-0.073207825
131	0x3e09880a	0.13430801
132	0x3e0a66c0	0.13515759
133	0xbcd765e7	-0.026293708
134	0xbd660f6c	-0.05616705
135	0x3db1fa93	0.08690371
136	0x3d451f23	0.048125397
137	0xbddab7a8	-0.10679561
138	0x3d22ea9c	0.039774522
139	0xbe01bc55	-0.12669499
140	0xbc08d587	-0.00835169
141	0x3de81e2d	0.113338806
142	0x3c738ee0	0.014865607
143	0x3d82252c	0.06354746
144	0x3dc323f9	0.095283456
145	0xbdc5df73	-0.0966176
146	0xbd6424e0	-0.05569923
147	0xba5e0608	-0.00084695267
148	0x3d77a777	0.06046244
149	0x3d1b1609	0.03786281
150	0xbdde7945	-0.10862974
151	0x3d35dd58	0.044400543
152	0x3e0af9b3	0.13571815
153	0xbe00a12c	-0.12561482
154	0xbdbab09d	-0.091157176
155	0xbd69a396	-0.057040773
156	0xbc1efb35	-0.009703447
157	0x3e169a86	0.14707384
158	0x3c5082d4	0.012726504
159	0x3cb299f7	0.021801932
160	0xbd19f7a1	-0.037589673
161	0xbe168d22	-0.14702275
162	0x3d6376d0	0.05553323
163	0x3d3adef5	0.045622785
164	0x3da28694	0.07935825
165	0x3d2b9696	0.041891657
166	0x3dbb54da	0.091470435
167	0x3de9a325	0.114080705
168	0xbd8ce240	-0.06879091
169	0x3d8d6090	0.069031835
170	0xbc919d7b	-0.017775288
171	0x3d832774	0.064040095
172	0x3d45fd6c	0.048337385
173	0x3d9bef94	0.07614055
174	0x3dc0f8c6	0.0942245
175	0x3d1506f1	0.036383573
176	0x3e163733	0.14669494
177	0xbdb945f4	-0.090465456
178	0xbd1898e2	-0.037255175
179	0x3a69cc9e	0.0008918735
180	0xbbdd8c4f	-0.006761111
181	0x3caf13c4	0.02137173
182	0xbd81deff	-0.06341361
183	0xbd4eb96b	-0.050469797
184	0x3df2d539	0.11857075
185	0xbdb7279e	-0.08943103
186	0x3dfc5666	0.12321167
187	0xbde9480d	-0.11390696
188	0xbd9e3638	-0.07725185
189	0x3e010016	0.12597689
190	0x3cfc5905	0.030804167
191	0x3cf5f840	0.030025601
192	0x3e49920f	0.19684623
193	0x3c18d301	0.009327651
194	0xbc91b5b5	-0.01778684
195	0x3dfd7b36	0.12377016
196	0x3e255b96	0.16148219
197	0x3d969806	0.07353215
198	0x3cd43802	0.025905613
199	0x3e32cd1d	0.17461057
200	0x3d9b06cc	0.07569656
201	0xbd93bbd7	-0.07213562
202	0x3d3786a1	0.044806127
203	0x3e14b77b	0.14523117
204	0xbcfebeb8	-0.031096801
205	0x3d0cc47f	0.03436708
206	0x3e5c346d	0.21504374
207	0x3bb419ed	0.0054962547
208	0x3e08fc54	0.13377506
209	0xbc7212cd	-0.01477499
210	0xbc8b70b5	-0.017021516
211	0x3dd6b3a9	0.10483486
212	0xbd18c97e	-0.037301533
213	0x3e5fa2ba	0.21839419
214	0x3e18ed54	0.14934283
215	0x3e3f4569	0.18678822
216	0xbcc2d2f0	-0.023782223
217	0x3c3888f9	0.011263126
218	0xbd61ae03	-0.05509759
219	0x3e270af8	0.16312778
220	0xbd73ac45	-0.05949046
221	0x3e30922d	0.17243262
222	0xbcfb4b9a	-0.030675698
223	0x3d702e92	0.058638163
224	0x3c9d5043	0.01920331
225	0x3d18d0f2	0.03730864
226	0x3ccc0766	0.024905872
227	0x3e5fcf6b	0.21856467
228	0x3ca20512	0.019777808
229	0x3e4f8d5f	0.20268773
230	0xbc0923fa	-0.008370394
231	0x3e0160a4	0.12634522
232	0x3e623d61	0.22093727
233	0x3d969b67	0.073538594
234	0x3e0c8a24	0.13724571
235	0xbda6dafa	-0.08147235
236	0x3d995780	0.074873924
237	0x3e3a1e50	0.18175626
238	0x3d46ef70	0.04856819
239	0x3c874539	0.0165125
240	0x3e3bff43	0.18359093
241	0x3e4bdc75	0.19908316
242	0xbd8ad558	-0.06778973
243	0x3c8aaaab	0.016927084
244	0x3e0e2aab	0.13883464
245	0x3e5e2af9	0.2169608
246	0x3e1a968a	0.15096489
247	0x3e0e46f4	0.13894254
248	0x3de4781c	0.111557215
249	0x3e34dbd4	0.17661983
250	0x3c9a7a16	0.018857043
251	0x3e0e4bcf	0.13896106
252	0x3ccfadb6	0.025351387
253	0x3dc8531d	0.097814776
254	0x3de8be9a	0.11364479
255	0x3df76512	0.120798245
