models/ETHUSDT_lstm.pth (torch, 234878 bytes, 10 tensors)

lstm.weight_ih_l0 f4 [256, 29]
000000 fb 99 d5 3d 7c a3 de 3d 62 60 a8 bc 32 52 f5 3d
       0.1042976 0.10871026 -0.020553771 0.11978568
000010 3a 9a b4 bc 31 7d e9 3c f2 a3 75 bd 1d 86 77 3d
       -0.022046197 0.028502079 -0.059970804 0.060430635
000020 91 2e ee 3d 58 bc b3 bd 21 05 df 3d a2 f8 3d 3c
       0.116299756 -0.08776158 0.1088965 0.011594923
000030 6b bb 1e 3e 5f 78 8b 3d dc 96 d9 3d 23 99 d2 bb
       0.15501182 0.06810068 0.10624477 -0.0064269467
000040 4e 40 d3 3d 33 01 cf 3c ab 32 53 bd 72 8e b7 3d
       0.103149995 0.025269127 -0.051561993 0.08962716
000050 2b 4d bf bb 3c a8 61 bc 39 6e 85 bd 43 3b a8 3d
       -0.0058380566 -0.01377302 -0.06515164 0.08214428
000060 03 77 c5 bd dc 74 93 bd 1a ca 05 3d 33 42 88 bd
       -0.0964184 -0.072000235 0.032663442 -0.066532515
000070 41 e7 36 3c f6 cd 1f be c7 33 e8 3d 12 1d 0e be
       0.011163534 -0.15605912 0.11338001 -0.13878277
000080 36 a5 c6 3d b7 1d 8e bc e8 fa 9c bd f7 ff 38 3d
       0.0969948 -0.017348154 -0.07665044 0.045165982
000090 de 75 c3 ba d5 6b 84 3d 93 3e b6 bc 2d d7 93 bd
       -0.0014912446 0.0646588 -0.022246635 -0.07218776
0000a0 2e d3 83 3c b2 f0 58 bd 94 46 f0 3c 12 c6 9b 3d
       0.01609191 -0.05296392 0.02933053 0.07606138
0000b0 ef 53 c6 3d 6a 9f 8b bc f0 c9 e0 3d e0 a0 75 3d
       0.09683978 -0.017043788 0.109760165 0.059967875
0000c0 e2 4a de 3d b9 59 52 bd 50 8e 1f be df 41 0e bc
       0.108541265 -0.051355097 -0.15581632 -0.008682697
0000d0 fc 73 f8 bd 30 e2 85 3d 25 dc 9a 3d 86 1b 45 3d
       -0.12131497 0.065372825 0.075615205 0.04812195
0000e0 33 a6 c8 3d c9 c3 33 bc 03 9f 03 3e dd b4 c3 bd
       0.09797325 -0.010971972 0.12853627 -0.09555981
0000f0 c8 06 1e 3d 99 8b bc bd c4 d7 6f 3d f6 46 cd bc
       0.038580686 -0.09206314 0.05855538 -0.02505825
000100 95 f5 62 3d 3c 44 37 bc a8 00 01 3e 82 40 5f bd
       0.055409987 -0.011185702 0.12597907 -0.05450488
000110 7e fd 67 bd f0 c2 7b bd 3a f3 1f 3e 4b 34 8b 3d
       -0.056638233 -0.061465204 0.15620127 0.067970835
000120 da c7 0d 3e 33 bb 86 bd df 78 62 bd ae 63 ee bc
       0.13845769 -0.06578674 -0.055291053 -0.029100265
000130 3f 2a 7c bc ca 59 ff 3d 27 fe d8 3d f2 c0 f7 3d
       -0.015390932 0.12468298 0.10595351 0.12097348
000140 3e 98 b7 bd 1b 30 93 bd f0 f1 af 3d 0c df 9a bd
       -0.08964585 -0.0718691 0.08591068 -0.07562074
000150 ba 0a 11 3e db ed 48 bd df d3 a4 3d 79 34 98 bd
       0.14164248 -0.04905496 0.08048224 -0.07431883
000160 ac d4 0e bd 7e 7e 79 3d 64 ca 5f 3d d7 aa 41 bc
       -0.03487079 0.060911648 0.054636374 -0.011820517
000170 23 d5 bf 3d c6 73 d5 3d 00 57 90 bd 21 aa 3c bd
       0.093668245 0.10422473 -0.07047844 -0.046060685
000180 a4 6d 09 3e e2 c3 bb bc db 29 c1 bc 4a 96 0a be
       0.13420731 -0.022920553 -0.023579529 -0.13533893
000190 b3 07 86 bd 5b 0b 0a 3d 9a 1d ff bb d2 5e ab bd
       -0.06544437 0.033702236 -0.007785511 -0.08367695
0001a0 8e a0 23 3c 9b 6b a0 bd 5f 25 99 bd 92 b7 5c bd
       0.00998701 -0.07833024 -0.07477831 -0.053886004
0001b0 1a a2 b8 bd 3f 84 a5 bd 0e 5a 11 3e 6f 5f 38 3d
       -0.090152934 -0.080818646 0.1419451 0.045012888
0001c0 91 b7 18 3d fd 2d 00 be 17 a2 9e bd 97 81 66 bd
       0.037284438 -0.12517543 -0.0774576 -0.05627593
0001d0 fd 2b b7 bb a5 ff cc bd 65 c8 a1 bd 77 ff 84 bd
       -0.0055899606 -0.10009698 -0.0789955 -0.064940386
0001e0 91 3b c5 bc af 47 91 bd fa 75 cc bc a0 9b b5 bd
       -0.024076255 -0.07093751 -0.0249586 -0.08867574
0001f0 b3 2f e2 bd 85 9d c4 bd d6 6a 77 bd 30 42 d8 bd
       -0.11044254 -0.09600357 -0.06040462 -0.10559499
000200 b6 01 a4 3d b0 47 7b bd 04 59 99 3d cc 4c 9a 3c
       0.08008139 -0.061347663 0.074876815 0.018835448
000210 f9 66 d5 bd 33 86 b4 3d df 25 06 bd cc 2c 82 bd
       -0.10420031 0.08814659 -0.03275096 -0.063562006
000220 0e a3 e6 bd b9 f0 0f be cf 7c 29 3d 6e 5c 2a bd
       -0.11261569 -0.14056672 0.041378792 -0.041592054
000230 af 9a 00 3d 1b 95 c6 bd b6 10 98 3d 86 48 c5 bd
       0.031397518 -0.09696408 0.07425062 -0.096329734
000240 c2 c0 e1 bc cc 81 a6 3d 70 aa 96 3d 9c da 1f 3e
       -0.027557734 0.081302255 0.07356727 0.15610737
000250 fb b5 fb 3d 6a b4 59 bd de 0c 9c 3d c8 3d 1f bc
       0.122905694 -0.053150572 0.07619642 -0.00971932
000260 4f 70 01 3d c8 09 36 bd 2a 70 24 3e 7a 8c 39 bd
       0.031601246 -0.044442922 0.16058412 -0.045299985
000270 e0 29 e5 3d 9c 23 6c 3d cf 40 31 3c 87 25 f4 bd
       0.11189628 0.057651147 0.010818674 -0.1192122
000280 70 be 23 3e 79 3d aa 3d 0f eb 92 3d cd 3a 5f bd
       0.15990615 0.08312506 0.0717374 -0.054499436
000290 c0 9f fb 3d 5f ef 19 3d ea 94 58 bc 3b f9 07 3e
       0.12286329 0.037581798 -0.013219098 0.13278668
0002a0 fb 48 97 3d 8b c2 0f bd 8a 10 1b bd 0a 5b ea 3c
       0.07386967 -0.03509764 -0.03785757 0.028607864
0002b0 20 d6 1f 3d 8b a8 11 bd 10 87 47 bd 97 7f 80 bd
       0.039022565 -0.035561126 -0.04871279 -0.06274336
0002c0 9e f2 90 bd fe db c9 3c 48 cc d0 3d 52 16 e7 bd
       -0.070775256 0.024641033 0.101952136 -0.11283554
0002d0 eb 69 29 3d 3f 03 bf 3d 12 cd 04 3d cb 87 14 bd
       0.041360777 0.09326791 0.032422133 -0.036262315
0002e0 13 a2 9f 3d 77 c2 c0 3d e3 0c 2c 3d f3 91 77 bd
       0.07794585 0.09412091 0.042004477 -0.060441922
0002f0 7b 63 b7 bd 8c 2f 4a 3d e0 bf 06 3d ba 3f 91 3c
       -0.08954521 0.04936175 0.03289783 0.017730583
000300 65 1e 0a 3e 23 2a 2e 3e 85 4a 0f 3d 83 44 80 bc
       0.13488157 0.17008261 0.034983177 -0.015657669
000310 f2 8a 7e b9 fa 69 76 3b 5b f8 31 3d 40 fd 06 3d
       -0.00024275089 0.0037599788 0.04344974 0.03295636
000320 66 bc c4 bd 1a 59 8a bd 40 e9 d7 3d a4 47 72 3d
       -0.09606247 -0.06755276 0.10542536 0.059150353
000330 ce 0a 51 3c 18 ee 84 bd 9c 84 6b bd b5 4a ea bd
       0.012758924 -0.06490725 -0.057499513 -0.114400305
000340 47 e2 45 bd dc 3a 10 3d bf 4a 9a 3d 21 c1 6e 3d
       -0.048311498 0.035212383 0.07533788 0.05828965
000350 cb 5e ea bd cb ea a4 bd 5c ea cb bc c8 9e 29 3e
       -0.114438616 -0.08052596 -0.024892025 0.16564476
000360 80 d2 2a 3d b5 1b 31 bd 50 11 fa 3d 46 0e a7 bb
       0.041704655 -0.043239314 0.12210333 -0.005098137
000370 ce 41 1d bd c7 f5 08 3e ca 65 69 3c 23 11 16 3d
       -0.038392834 0.13375007 0.01424546 0.036637437
000380 ee 80 06 be 37 50 05 3e a7 1a c0 3d 22 b8 02 3d
       -0.1313512 0.13018881 0.093800835 0.031913884
000390 66 60 26 bd 4e 8f 73 bd 8a bc d3 bd 46 07 6a 3d
       -0.040619276 -0.059462838 -0.10338695 0.057135843
0003a0 b4 6c 5b 3d 99 04 d4 3d f6 d4 71 3d ab 89 f5 3c
       0.053570464 0.103524394 0.059040986 0.029972872
0003b0 d0 6a 9e bb 79 62 c9 bd dd 60 da bd 3b ba f6 bd
       -0.0048345104 -0.09833235 -0.106630065 -0.120472394
0003c0 54 52 40 3d 5f 99 83 bd 66 4e d9 bc 95 30 9e bd
       0.046953514 -0.064257376 -0.026526641 -0.0772411
0003d0 e4 d1 1c bd 68 14 c4 bd 99 2f a3 bd 2f 4a 10 3c
       -0.038286105 -0.09574205 -0.07968063 0.008806749
0003e0 71 3a 40 bd 7c ff 89 3d 6d 56 4c bd fa 65 df bd
       -0.046930734 0.06738183 -0.04988711 -0.10908122
0003f0 f3 35 dd bc b5 47 76 bd ed 21 08 bd 0d e3 f0 bd
       -0.027003264 -0.06012698 -0.03323548 -0.117620565

lstm.weight_hh_l0 f4 [256, 64]
000000 0b 0c bc 3d ee 11 8c 3d b9 c5 79 bc 05 1a 85 3c
       0.091819845 0.06839357 -0.015244895 0.016247759
000010 d1 e2 87 bc 2f 4d 1f 3c e4 91 27 3d 63 6f ef bc
       -0.016587647 0.009722992 0.040910617 -0.029227918
000020 26 6a 12 be 2f 8e 51 3b c2 ae 5a bd 5d 2b fa bc
       -0.14298305 0.0031975617 -0.05338932 -0.030538255
000030 09 f5 15 bd 40 a1 f9 3b 8c cb 95 3d 3d 37 bb 3d
       -0.036610637 0.0076180995 0.07314214 0.09141395
000040 4c 42 f2 3d 7b 7c bf 3d 24 a8 aa 3d 4c 04 18 3b
       0.118290514 0.09349915 0.083328515 0.002319592
000050 22 de d1 39 50 cc ba bd 6f b8 32 3c 14 fd 09 bd
       0.00040029088 -0.09121001 0.01090823 -0.03368862
000060 f6 48 b9 bd 7e 13 cc 3d df 1d 9a 3d 6a dc 37 3d
       -0.09047119 0.09964655 0.07525229 0.044887938
000070 1f 23 80 3d aa fd 50 bd bc ea ba bb 09 ce a7 3b
       0.06256699 -0.051023163 -0.005704252 0.005120997
000080 46 41 64 3d 4c 3b 40 3d d0 58 ea bc 21 9b 85 3d
       0.055726312 0.04693155 -0.028606802 0.06523729
000090 4b 2f e1 3b 54 2a db bc 19 d1 9f 3d 9c 4a 18 3e
       0.006872093 -0.026753582 0.07803554 0.14872211
0000a0 4b 78 3f bd 68 b0 2b 3d de d0 86 3c 52 c3 1d 3d
       -0.04674558 0.04191628 0.016457018 0.03851635
0000b0 ea 19 71 bd 90 fc 98 bd f5 73 66 bc ce 3e 92 bc
       -0.058862604 -0.074700475 -0.014065732 -0.017852213
0000c0 05 24 9d bc dd 1c a6 3c f9 c9 07 bc cd 57 7e 3d
       -0.019182215 0.020277435 -0.0082879 0.062095452
0000d0 9d 12 f7 3d 95 75 82 3d 3a 8b 28 3e 8a dd 29 bd
       0.12064097 0.06370083 0.1645936 -0.04147104
0000e0 37 bc 45 3d 0f af c6 bc fa 11 bb bd 66 82 10 bd
       0.0482752 -0.024253396 -0.09134288 -0.035280608
0000f0 af 11 96 3d 7f 45 e4 bd 56 bb d6 bd fc ca 65 3d
       0.07327592 -0.11146068 -0.1048495 0.056101784
000100 a2 93 2c 3d cd 3e 58 bc 8c db bd bd 44 85 42 bd
       0.04213298 -0.013198567 -0.09270391 -0.047490373
000110 23 cc 53 3d d0 c0 16 3e 34 1d 45 bd eb 50 6e 3d
       0.05170835 0.1472199 -0.048123553 0.05818264
000120 2c 22 19 be bd e4 01 be 8f 4b 6b bd 7e 2e bc bd
       -0.14954442 -0.12684913 -0.057445105 -0.09188555
000130 0e f8 8f bd ff 72 a4 3d 30 e1 6d 3d 82 78 02 bc
       -0.070297346 0.08029746 0.058076084 -0.007963302
000140 88 12 84 bd 30 7d 8f 3c c9 cd d0 3d d3 0f 9b bd
       -0.06448847 0.017515749 0.101955004 -0.075713776
000150 ac 12 60 bc 03 d6 8c bb 12 63 b7 3d 9d 7f 00 3e
       -0.013676327 -0.004297973 0.08954443 0.1254868
000160 77 6a 06 bd 6f 09 9b 3c a0 d8 8c 3d 29 bb 3b 3d
       -0.032816377 0.018925397 0.068772554 0.045832787
000170 bc 36 ce bd df 7a 15 3e b5 93 32 3d 2b db 39 3d
       -0.100690335 0.14597653 0.043597896 0.04537503
000180 dd 38 8e 3c 7f 2c 2f bc a9 52 b2 bd 96 33 7a bd
       0.017361099 -0.010691761 -0.087071724 -0.061084352
000190 58 44 a4 bd 95 2f 09 3e d5 bc 47 3d b7 ba 9c 3c
       -0.08020848 0.13397057 0.04876407 0.019132001
0001a0 73 54 73 bd d8 76 0e bd 74 43 8b 3d 87 79 cd bd
       -0.05940671 -0.034781307 0.06799975 -0.10032945
0001b0 66 b6 b5 3d 4c e5 27 3d 4d 4d 46 bd e7 70 d5 3d
       0.0887268 0.04099016 -0.048413564 0.10421925
0001c0 d5 e2 f3 bd cf 4c 00 bd 43 ef 8e 3d d5 5a c1 3d
       -0.11908499 -0.03132325 0.06979229 0.09441153
0001d0 dc 9a ce 3d c9 1d 06 3e 3c 17 20 be 0e 68 86 3d
       0.10088131 0.130973 -0.15633863 0.065628156
0001e0 4f ee 1a be 0c 4c d2 3c 79 cc d8 3c f7 07 09 3e
       -0.1512997 0.025671028 0.026464688 0.13381945
0001f0 ca 16 89 3d b7 c9 ee 3d 5c 45 56 3c 6d b6 12 be
       0.066938 0.11659568 0.01307806 -0.14327402
000200 1b c7 78 bd 8a 43 1a bd 30 b9 ba bd 20 a7 e7 3d
       -0.060736757 -0.037662067 -0.09117353 0.113111734
000210 08 a0 b7 bd 0e e5 cb bd 2b 40 c1 3d 85 1b 3d bd
       -0.089660704 -0.09955798 0.09436067 -0.046168823
000220 43 56 9a bd d6 29 bc 3c 7f e7 b4 3b df 0a 31 bd
       -0.07535984 0.022969168 0.0055207605 -0.043223258
000230 59 56 b1 3d 97 6b 8f bd 1e 21 98 3b 1c ef c8 bd
       0.08659048 -0.07002943 0.0046426198 -0.098112315
000240 f1 7d 87 bd 33 79 4f 3d f1 f5 d6 3d 1e 37 34 bd
       -0.06615818 0.050652694 0.10496128 -0.043997876
000250 00 33 88 3d 58 48 1b bc 85 b2 63 3d 57 c5 d0 3b
       0.066503525 -0.009477697 0.05559017 0.006371181
000260 aa 45 77 bd 01 4f 14 3d 46 14 da bd 22 9d 6e 3d
       -0.06036917 0.036208156 -0.10648398 0.058255322
000270 8b 95 15 3e 04 54 02 3e 8d de 2d bd 4f 89 1b bd
       0.14607827 0.12727362 -0.04244857 -0.037972745
000280 02 a7 99 bc ae 26 ab 3c d4 ca 8f bd 08 d7 ed bd
       -0.018756393 0.020892467 -0.07021108 -0.116132796
000290 6d 64 10 bd 7c bc 0d 3e df 1b 68 3d ae d5 8a bd
       -0.035252023 0.13841432 0.056667205 -0.067790374
0002a0 fd 29 aa bd 50 b2 c8 bd ac 48 3f bc d9 27 ec 3c
       -0.0830879 -0.097996354 -0.011675041 0.028827595
0002b0 b6 da b6 bd ef 6b 88 bd 51 ac 15 bd 2a 86 01 3c
       -0.089284346 -0.06661212 -0.036541287 0.007905522
0002c0 e4 2b df 3d 2a 22 74 3d 86 63 63 bd 0f d7 d1 bd
       0.10897043 0.059602894 -0.055514835 -0.10246097
0002d0 29 58 fa 3c fc eb a4 bc dc d2 64 3d 3a e2 e5 bd
       0.030559616 -0.020132057 0.055865154 -0.1122479
0002e0 7b 39 57 3c e2 02 96 bd 29 1a db bc 92 97 ec bd
       0.013136263 -0.073247686 -0.026745873 -0.11552347
0002f0 00 f3 5d bd 44 15 dd bc ea 65 cd 3d 70 09 05 3e
       -0.05418682 -0.02698768 0.10029204 0.12991881
000300 87 2f e5 3d be eb d9 3c ca 30 3d 3c 5e 94 e6 3d
       0.11190706 0.026601668 0.011547277 0.112587675
000310 5d 65 b2 bd 8f 41 f8 bd c1 d8 90 bd d6 70 bc 3d
       -0.0871074 -0.12121879 -0.070725925 0.09201209
000320 6f 16 d8 3d 71 f6 0d bd 54 4f dd bd c8 f3 f6 bd
       0.10551154 -0.034658853 -0.10806146 -0.12058216
000330 ce c4 92 3d ce 91 08 bd 01 1c 9e 3d ca bf a9 bc
       0.07166444 -0.033342175 0.07720185 -0.020721335
000340 c7 d4 21 3e 6e 5a ba 3d 51 00 d1 3d f8 83 93 3d
       0.15803824 0.09099279 0.102051385 0.072029054
000350 70 2a ab bd c4 ef 0b 3d 82 bd bf bd af ab 1a bd
       -0.08357704 0.034164205 -0.093623176 -0.037761386
000360 9a 4d 92 3d 89 39 4a bd 6c 06 9b 3d 1c ca 06 3d
       0.071437076 -0.049371276 0.07569584 0.03290759
000370 e9 92 3b bd 1b b7 84 bd d7 7e f5 bd 3e c0 1a 3d
       -0.0457944 -0.06480237 -0.119870834 0.037780993
000380 f6 d7 be 3c f3 03 fe 3d e1 5c 87 3d 3d 20 32 3d
       0.023296338 0.12403097 0.06609512 0.043487776
000390 bb 17 0f bd 86 37 ab 3d 79 43 95 bb aa 7b 60 3d
       -0.03493474 0.083602 -0.0045551625 0.054805435
0003a0 95 6e b5 bd fc ea b6 3d a8 66 13 3d 23 ce 96 3d
       -0.088589825 0.089315385 0.035986573 0.07363536
0003b0 52 61 b9 ba f2 84 c7 3d 86 5c 05 3e 8d 2a a7 3c
       -0.0014143384 0.09742154 0.13023576 0.020406032
0003c0 47 64 d3 3d 0b 45 be bd 6e fd c2 bc 0f 66 c4 bd
       0.10321861 -0.09290513 -0.023802485 -0.09589779
0003d0 2b 07 2e 3c f7 27 c7 3c ed d7 de 3c 02 21 a8 bd
       0.010621826 0.024311049 0.02720257 -0.08209421
0003e0 52 14 75 3d 8c 27 0d bd 4f 23 09 bd a6 c3 9e 3d
       0.059833832 -0.034461543 -0.03348094 0.07752161
0003f0 67 43 0b be 31 bd 0e 3b ad f4 d7 bd 98 d2 90 3d
       -0.1359993 0.0021780247 -0.10544715 0.070714176

lstm.bias_ih_l0 f4 [256]
000000 fd d3 76 3d ca 60 8d bd 2b 81 62 3d 79 4b c9 3d
       0.06026076 -0.06903227 0.055298965 0.098288484
000010 80 e1 57 3d 13 1f c7 bd 58 91 bf bb de 4c e1 3b
       0.052705288 -0.09722724 -0.0058461837 0.0068756184
000020 9e 2e a6 bd 5c 2a da bd 78 ed e6 3d 5b e4 ef bc
       -0.0811436 -0.10652611 0.11275762 -0.029283693
000030 c1 47 32 bd cf 15 82 bc 35 0a ee 3c d6 bd b6 3d
       -0.04352546 -0.01587954 0.029057601 0.08922927
000040 89 03 06 be e0 74 d2 bc eb ee 84 3c 5a 45 59 3d
       -0.13087286 -0.025690496 0.016227206 0.053044654
000050 ca 0b 13 bd f6 88 7b bc 58 6d 0d bd 42 e7 4e bc
       -0.035899915 -0.015352478 -0.034528106 -0.012628378
000060 f4 1d ce 3d c3 25 6f bc a3 4e be 3b d0 fa 20 bd
       0.10064307 -0.014596405 0.005807714 -0.039301693
000070 25 21 84 3d d2 42 87 bd 5b e5 69 3d 23 da ca bd
       0.06451634 -0.06604542 0.057103496 -0.099048875
000080 c7 0f c3 3d b6 f9 b2 3d 40 01 a0 bd 6b 29 dd 3b
       0.09524494 0.08739035 -0.078127384 0.006749322
000090 c3 01 78 bd 62 e0 ad bc 4d d8 90 3d 1c 01 12 bd
       -0.060548555 -0.021225158 0.07072506 -0.03564559
0000a0 c1 e7 a8 3d 80 4a 98 3d 9b 55 06 3e 4a 6c d9 bc
       0.082473285 0.07436085 0.13118593 -0.026540894
0000b0 4a 69 7b bd 7d 7e ec 3d 66 5d 1e 3c eb 20 24 bd
       -0.06137971 0.11547563 0.009665823 -0.040070456
0000c0 6a e0 57 bd 14 33 09 3e 5b f2 65 bd 49 23 80 3d
       -0.052704252 0.13398391 -0.05613933 0.0625673
0000d0 03 25 33 3d 31 9e ef bc 04 8a da 3d f2 e6 c8 3d
       0.04373647 -0.029250236 0.10670856 0.09809674
0000e0 18 15 b2 3d d1 96 35 3d bb 24 7a 3d 29 eb 47 3d
       0.086954296 0.044333283 0.061070185 0.04880825
0000f0 6d 9b b4 bc 06 21 a1 bd 25 78 f9 3c 55 71 f9 3c
       -0.022046769 -0.07867627 0.030452797 0.030449549
000100 ce 74 d7 3d c3 02 77 3d 37 51 d3 3c 3f d4 5e bd
       0.105203256 0.06030537 0.025795562 -0.054401632
000110 7f be f7 3d db 7a f1 3d 4f 1b 19 3e 74 db 30 3d
       0.12096881 0.11791011 0.14951824 0.043178037
000120 8a 03 2b bd 55 63 ba bd 6f fe b8 bd b8 fc 81 bd
       -0.041751422 -0.09100977 -0.09032904 -0.063470304
000130 b9 cb 6b bc 08 5a f7 3d 0b 4e 9b bd d0 95 07 bd
       -0.014391833 0.12077719 -0.07583245 -0.033101857
000140 37 ab 15 3d 7c fe a0 3d 4f 8b ef 3c e5 eb 0a bb
       0.036540236 0.07861039 0.029241232 -0.0021197733
000150 9e 0a c4 3c 23 75 51 bd 51 b1 b9 3d 20 d6 c2 3d
       0.023930844 -0.0511371 0.090670235 0.09513497
000160 0b 0e 67 3d 0c ad ea 3d 6d fc bd 3d 1f fc 97 bd
       0.056409877 0.11458787 0.09276662 -0.07421135
000170 4a 53 65 bc 74 90 c5 bd 10 45 9b 3d 47 8e ae bd
       -0.013996908 -0.09646693 0.07581532 -0.08523231
000180 60 f1 84 3d 61 c6 7d bd 14 1f a6 3d a2 1d 94 bd
       0.06491351 -0.061956767 0.081113964 -0.072322145
000190 19 db dc bd af 22 14 bd 13 3f 5e 3d d7 3b d1 bc
       -0.10783977 -0.03616589 0.05425937 -0.02554123
0001a0 3a ad 7d 3d 82 bf b8 3c 48 96 2c bd 7e c4 84 3c
       0.06193278 0.022552256 -0.042135507 0.016206976
0001b0 9e 63 ed 3d 7c bf e2 bc 0b c6 13 3e 39 5d 38 3d
       0.11591266 -0.027679197 0.14431016 0.04501078
0001c0 96 d9 9e 3d 3e 4c 16 ba a1 d3 0b 3e a5 ac 7e bd
       0.07756345 -0.0005733407 0.13654949 -0.062176365
0001d0 be 7a 19 bd ae d6 c4 3d 65 cf 01 bd 0c 0c 01 3e
       -0.03747057 0.096112594 -0.031691927 0.12602252
0001e0 bf c6 10 bd 44 93 e5 bd a7 eb 13 3e 3b 67 e5 3d
       -0.03534579 -0.11209729 0.14445363 0.1120133
0001f0 65 a5 85 3d 5f ab b3 bd ad 9d 57 3d da b5 d2 bb
       0.06525687 -0.08772921 0.052640606 -0.00643037
000200 0d 85 08 3e d6 c3 24 3d e4 9c 27 3b dd 6f f6 bd
       0.13332005 0.040225826 0.0025575692 -0.12033055
000210 13 33 aa bd 6b 21 90 3d 7d 53 95 bd a6 2c 18 3c
       -0.08310523 0.07037624 -0.07291315 0.009287989
000220 ab aa ee bd c7 62 64 bc 52 d1 54 bd d9 0d 46 bd
       -0.11653646 -0.013939566 -0.051957436 -0.04835305
000230 a4 be a7 3c 80 09 80 bc 95 96 8b bd cc 4e 9e 3d
       0.020476647 -0.01562953 -0.068158306 0.07729873
000240 68 9f cb 3c ff dd 06 bd a2 78 4d 3d a9 f1 d5 3d
       0.024856284 -0.032926556 0.050163873 0.10446484
000250 05 62 ae 3d 17 12 4e 3d 9b b4 01 bd 8c ef a2 3d
       0.085147895 0.05031022 -0.03166638 0.07955846
000260 87 65 dd bc 92 0a 9a 3d d9 89 03 3e d2 6c 68 ba
       -0.027025951 0.075215474 0.12845553 -0.0008866313
000270 83 ce 98 bd 07 dd 5c 3d a8 e8 6a bc 22 6d b1 3d
       -0.07461264 0.053921726 -0.014337696 0.086633936
000280 cc 7f 73 bd 56 b1 a4 3d cc 87 aa 3d 57 34 52 3d
       -0.05944805 0.08041637 0.083266824 0.051319446
000290 53 64 58 3c 56 fe 57 bd b7 7c b2 3d 50 07 1f bd
       0.013207513 -0.052732788 0.08715194 -0.038825333
0002a0 72 40 68 bd 35 bc c0 3d 18 28 9b bc 1a df 59 3d
       -0.056702085 0.09410898 -0.018940017 0.05319128
0002b0 9b 5d e9 3c 1a 07 57 bd 5f a1 a3 3d 13 77 13 3c
       0.028487017 -0.052497007 0.079897635 0.0090005575
0002c0 44 fa a4 3d f3 e9 9c bd 09 6d 0b 3d 27 fe 10 3e
       0.08055547 -0.0766181 0.03403953 0.14159451
0002d0 86 10 8a bd 20 3e e2 3d 90 4c b1 bd d1 45 cf 3c
       -0.06741433 0.11047006 -0.08657181 0.025301846
0002e0 4b 3d ec 3c 60 d3 ca bc 9d d8 1b 3d 89 f6 e8 3c
       0.02883782 -0.024758995 0.038048375 0.02843787
0002f0 a9 22 67 bd 77 41 e9 bd e7 ec 97 bd cf f8 d7 bb
       -0.05642954 -0.113894396 -0.074182324 -0.0065909396
000300 d0 2a f3 3c 35 b6 e9 3c ca 2d db 3c 5b ad c9 bd
       0.0296835 0.028529266 0.026755232 -0.09847518
000310 8b c5 dd bd db 67 2b bc ca 38 96 bd c3 0d 0c 3e
       -0.10828694 -0.010461773 -0.073350504 0.13677125
000320 74 5a 6a bc 8d 93 53 bd 38 f4 35 3d b3 3c af 3d
       -0.014303792 -0.051654387 0.04442236 0.08556499
000330 9f dd c4 3d fe 79 3b 3d f7 c3 a8 3d b9 10 38 3d
       0.09612583 0.045770638 0.08240502 0.044937823
000340 7d de d0 3d 98 ab 78 3d 78 c1 ac 3d d6 69 fe 3c
       0.10198686 0.06071052 0.08435339 0.031056326
000350 8b 1b 9f 3d d6 4d a7 3c d0 20 28 bd 9f cf 2b bd
       0.07768925 0.020422857 -0.041046917 -0.04194605
000360 82 40 f5 3d 43 c0 4f 3d 89 2b 1a 3e 1e ed ec 3d
       0.119751945 0.050720464 0.1505567 0.11568664
000370 67 fb 14 3e 1d ba 4d ba 5e 5f e5 3d fa 02 1e 3d
       0.14549027 -0.00078478624 0.111998305 0.038577057
000380 42 8d 8c 3d 07 a0 a3 3d c9 de 5e bd b0 94 0b 3e
       0.0686288 0.07989507 -0.054411683 0.13630939
000390 c8 2f 86 3d b6 68 5c 3c 27 9e a9 bd 85 c1 07 bd
       0.06552082 0.013452699 -0.08282118 -0.03314354
0003a0 f0 54 a7 3b b7 f1 0a 3d 74 96 94 3d b3 59 18 3e
       0.005106561 0.033921923 0.07255259 0.14877968
0003b0 b9 6d 18 3e 1f 22 d1 3c bc 2d 6a 3c e8 68 e4 3d
       0.14885606 0.025528966 0.0142931305 0.11152822
0003c0 c3 8d 10 3c 15 6d 2c 3d 83 63 39 3d 84 05 06 3e
       0.008822861 0.042096216 0.045260917 0.13088042
0003d0 23 2c d0 3d 95 46 93 3d 75 cf 93 3d 3b 3d 0f 3c
       0.101646684 0.07191197 0.07217304 0.008742626
0003e0 91 03 51 3d 6e b9 8e bd 4b 29 6a bd 98 51 45 3d
       0.05102879 -0.06968962 -0.057168286 0.048173517
0003f0 d3 c5 28 3d 02 88 85 bd ec 20 a1 3d 8a aa 99 3d
       0.041204285 -0.06520082 0.078676075 0.07503231

lstm.bias_hh_l0 f4 [256]
000000 b6 2e c9 3d 72 a2 a1 bc 63 dd 26 bd c8 d9 c7 3b
       0.098233625 -0.01973078 -0.040738475 0.0060989596
000010 aa ab 5d 3b 63 e9 d0 3c ba d6 59 bd d3 32 28 3e
       0.0033824244 0.025501912 -0.053183295 0.16425638
000020 c1 e0 1e 3e 67 2a 63 bd 61 e2 01 3e ce 1c a8 3d
       0.15515424 -0.05546036 0.12684013 0.08208619
000030 46 fb 8c 3d ff 11 f0 3c 76 e7 1e 3e ae 2d 7e bc
       0.06883864 0.029305456 0.15517983 -0.015513821
000040 ea 60 b2 3c f5 64 f8 3c 87 40 63 3d 02 2b 21 bd
       0.021774728 0.030321578 0.05548146 -0.039347656
000050 38 17 4b bd 15 30 cd 3d 2c 28 a6 bd c1 44 85 bd
       -0.04958269 0.100189365 -0.08113131 -0.065072544
000060 9e f2 1c 3e 9c fc a6 bc 4d 5e 43 3c 92 27 8e bd
       0.15326926 -0.020384125 0.0119243385 -0.06941141
000070 4a ab 25 39 b9 7b 0b bd 4b 08 a5 3d e7 49 bd 3d
       0.00015799436 -0.034053538 0.080582224 0.092426114
000080 1d cd 26 3e ac b7 b3 3b 7f f8 02 3e ae 97 92 3d
       0.16289182 0.005484542 0.12790106 0.07157837
000090 36 52 ab bd 46 f9 8a bd 0d 49 82 bb 21 ea 13 3e
       -0.0836529 -0.067858264 -0.0039759935 0.14444782
0000a0 be b6 28 3c 1d 53 8c bd f5 f4 bb 3d a9 97 d0 bd
       0.010297475 -0.0685179 0.09177581 -0.10185177
0000b0 48 a5 13 3e 7f 7c 07 3d 56 7d 3c 3d ef 04 14 bd
       0.14418519 0.033077713 0.046017967 -0.036137518
0000c0 47 fd c4 3c c3 1c ba 3c ef 74 0e 3e 75 58 13 3e
       0.024046553 0.022718793 0.13911794 0.14389212
0000d0 6d f8 93 3d 0b 3f 5b 3b 55 d3 0e 3d 40 10 61 bd
       0.07225118 0.0033454325 0.03486951 -0.054947138
0000e0 5c e9 99 3d 6c 40 a2 bc 2c ae c3 bd fd e4 ea bc
       0.07515213 -0.01980611 -0.09554705 -0.028673643
0000f0 4d 18 90 bd f6 9c a2 bd 75 f7 41 3d c5 6a e5 3c
       -0.07035885 -0.07940094 0.047355134 0.028005013
000100 24 2b 28 bd dc e8 51 bd 3a d6 7a 3d 6e a1 80 3c
       -0.041056767 -0.051247463 0.06123946 0.015701976
000110 59 ef cd 3d 4f 0d 93 3d 34 25 61 bd 70 f6 e8 3d
       0.100554176 0.07180273 -0.05496712 0.11375129
000120 a3 a1 c2 bd df d2 cb bd 14 e7 a8 3d cb 32 1a 3e
       -0.09503486 -0.0995233 0.082472 0.15058438
000130 6d 09 a9 3d 96 8d 8e 3c ce cb a8 bc 65 db 00 3e
       0.08253751 0.017401498 -0.020604994 0.12583692
000140 ea b5 c5 bd 4e 8a 07 3e 23 25 50 bd 1c 3c b7 bd
       -0.09653838 0.13236353 -0.050816666 -0.08947012
000150 76 84 9b 3c 4b aa 7f 3d 31 46 99 bd 4e c4 92 bc
       0.01898406 0.062418263 -0.07484091 -0.017915871
000160 76 91 ef 3c f5 3a 88 3c 26 75 2c bd 86 65 21 3e
       0.029244166 0.016629675 -0.04210391 0.15761384
000170 f7 b6 66 bd c6 73 b0 3d a5 f0 85 3d c7 80 d5 bc
       -0.056326833 0.08615832 0.0654004 -0.026062382
000180 14 b0 b5 3d 6b 5a 87 bd 24 37 8f bd 16 d0 a3 3d
       0.08871475 -0.06609043 -0.06992939 0.079986736
000190 d9 62 76 bd a0 35 98 3d 96 49 d8 bd 9f e6 4b 3d
       -0.060152862 0.07432103 -0.105609104 0.049780484
0001a0 6a 0a d2 bd 95 ee 9d 3d 38 c3 10 3e 9a 22 c3 3d
       -0.102558926 0.077115215 0.1413697 0.09528084
0001b0 84 a8 8a 3d 93 25 08 3e 5e 92 15 3e ed 1b a1 3d
       0.06770423 0.13295583 0.14606616 0.078666545
0001c0 73 7a 85 3d 8e ea 7d 3d 51 7e 90 3d d3 94 eb 3d
       0.06517496 0.061991267 0.07055343 0.11502995
0001d0 04 04 e5 3d 2c 07 9d bc a1 9b 71 3d 03 b5 b5 3d
       0.111824065 -0.019168459 0.05898631 0.08872416
0001e0 f3 e4 be bd 1a cb b6 bd 64 53 02 bc a9 00 e7 3c
       -0.09321012 -0.08925457 -0.007954452 0.028198557
0001f0 4b 49 bf 3d 32 6b a7 3d 22 d4 b2 3d 35 b8 88 bb
       0.093401514 0.08174743 0.087318674 -0.00417235
000200 65 1c a9 bc 70 37 e2 bd 3c bf 3f 3c 84 d8 c2 bc
       -0.020643422 -0.1104573 0.011703309 -0.023784883
000210 d7 88 02 be 79 f0 1c 3d bd 32 cc 3d 2d 6f 0a 3d
       -0.12747513 0.03831527 0.09970615 0.03379743
000220 ff 67 d7 bd cc 88 05 bd 1c ae 06 be 5d 3a 55 bd
       -0.105178826 -0.032601163 -0.13152355 -0.052057613
000230 93 be ad 3d 9d 39 f3 3d 58 f4 fc bd b2 c9 0a bc
       0.08483615 0.11876223 -0.12351292 -0.0084709395
000240 99 16 5d bd 12 be f4 3d 3e e1 d6 3d d8 69 04 be
       -0.05397663 0.119503155 0.1049218 -0.12931001
000250 d3 11 17 bd 52 92 25 ba dd fc f7 bd 21 d2 05 be
       -0.036882233 -0.0006316054 -0.12108777 -0.13068439
000260 69 01 60 bd fb 71 d6 3d 58 fa 22 3d ae 35 3b bd
       -0.054688845 0.10470959 0.039789528 -0.04570549
000270 12 8c cf bc 5c c6 05 3e c8 bd ec bd fe 23 82 3d
       -0.025335345 0.1306395 -0.115596354 0.06354521
000280 07 d2 17 bc f4 c1 02 be a2 52 d4 3d 59 88 90 bd
       -0.009266383 -0.127693 0.103673235 -0.07057256
000290 ed c5 b4 3d d2 19 0c 3a 16 ce d8 3c 4d e1 14 bd
       0.08826814 0.00053444237 0.026465457 -0.036347676
0002a0 5b c7 ea bd 98 ce 72 3d b0 50 01 bd a6 11 30 3d
       -0.11463805 0.059279054 -0.03157109 0.04298558
0002b0 77 c9 be 3d 8e d8 27 bd f8 8a 43 3c b0 38 80 3d
       0.0931577 -0.040978007 0.011934988 0.06260812
0002c0 38 59 c9 bc e1 3a 81 3d 89 49 b3 bd 8f cf ec 3d
       -0.024578676 0.063100584 -0.0875426 0.11563026
0002d0 d5 31 6d bd 59 71 18 bc 70 70 53 bd 21 6d 44 39
       -0.05790885 -0.009304368 -0.0516209 0.0001873267
0002e0 94 d6 9d 3d a0 da 05 ba 74 f9 4a bd 21 5e e4 3d
       0.07706943 -0.0005106125 -0.049554303 0.11150766
0002f0 ee dc e6 3d cd 72 82 bd a1 38 6d bd 1b 20 bd bd
       0.11272608 -0.06369553 -0.057915334 -0.09234639
000300 61 b6 50 3d 0a 82 24 3e 94 24 8e 3d 34 21 5b 3d
       0.05095518 0.16065231 0.069405705 0.05349846
000310 51 1d e2 bd b0 0d af 3d a0 48 d3 3d 91 e4 10 3d
       -0.11040748 0.085475326 0.103165865 0.035374228
000320 7e 61 59 bd 90 74 0c bc c6 f6 9f bd 53 75 33 3e
       -0.05307149 -0.008572713 -0.0781074 0.17525224
000330 90 46 37 bd 3a d5 1c 3e fa 3f ad bd 69 0f c3 3d
       -0.044745028 0.15315714 -0.08459468 0.09524424
000340 24 3f 6f bd ba 25 92 bd a6 b8 94 3d 1a ec 11 3e
       -0.058409825 -0.07136102 0.072617814 0.14250222
000350 96 ae 14 bd 74 8e 33 3d 12 53 80 bd c6 2a e4 3d
       -0.03629931 0.043837026 -0.062658444 0.11140971
000360 f4 f5 21 3e 1d dc dc 3b 01 be 17 3e d6 99 dc 3d
       0.1581648 0.0067401067 0.14818574 0.107715294
000370 c2 6c 5c 3d 03 6e 23 bd b2 e6 f2 3d 4a 76 e7 3c
       0.053814657 -0.039899837 0.11860408 0.028254647
000380 d5 a9 32 bc 21 32 a3 bd b5 e7 cc bd 60 61 18 3e
       -0.010904749 -0.07968546 -0.10005132 0.14880896
000390 6c 5c 3e bd d9 d2 57 bd 1f e0 b6 3d 14 80 c1 39
       -0.04647486 -0.052691314 0.089294665 0.00036907254
0003a0 d9 f2 9d bd df f7 14 3d 05 91 c6 3b d3 2f 98 3d
       -0.07712335 0.0363692 0.006059768 0.07430997
0003b0 a6 85 33 3e f3 48 78 ba 23 27 df 3d 8c d7 cc bc
       0.17531452 -0.00094713195 0.108961366 -0.025005125
0003c0 a2 13 0f bd ba 6c 75 3d 21 4e c2 3c b8 e9 6e 3d
       -0.034930833 0.059918143 0.023718895 0.05832836
0003d0 c0 34 7a 3d dd 45 ab bd 28 97 52 bb 8d 7f 0a 3e
       0.061085463 -0.08362935 -0.0032133553 0.1352522
0003e0 83 5e 27 3c b6 3e 0c 3e 64 e5 f3 3d e6 4e e5 bc
       0.010215404 0.13695797 0.11908987 -0.027991723
0003f0 60 8d 33 bd cf 72 6d 3d 78 0d f7 3b d5 dd 69 3b
       -0.043835998 0.057970818 0.0075394474 0.00356852

lstm.weight_ih_l1 f4 [256, 64]
000000 0a 68 bb 39 f4 71 6e bd 11 62 92 3d 4a 31 2d bd
       0.00035744935 -0.058214143 0.07147611 -0.042283334
000010 41 58 1d be 01 60 ab bd d1 80 79 bd ea 8e 50 3d
       -0.15365697 -0.08367921 -0.060913865 0.050917543
000020 41 75 30 be 15 8c 10 3d 57 da b7 bd 2e 94 e8 bc
       -0.17232229 0.035289843 -0.08977192 -0.02839097
000030 d4 b0 1e bd 77 c1 83 bb 1a 9e 7a 3d 82 4b 13 bc
       -0.038742855 -0.0040208655 0.061185934 -0.00899017
000040 c5 36 0d 3c 87 71 c5 3d b2 58 a8 3d 43 cb 6a 3c
       0.008619015 0.09640794 0.08220042 0.014330688
000050 32 d4 ca 39 7b af c4 bd e3 94 a2 bd e3 62 f7 3d
       0.0003868654 -0.09603783 -0.07938554 0.12079408
000060 e1 9d da bd 0d dc d9 bc b1 23 15 3e 9f e0 e9 bb
       -0.10674644 -0.026594186 0.14564396 -0.0071373726
000070 9b b6 e8 bd 53 77 24 3e 92 07 ac bd 88 e9 da 3d
       -0.11362954 0.16061144 -0.083998814 0.10689074
000080 43 92 0a 3d 5c 87 54 bd dd 1c 05 be 05 f5 6c bd
       0.033830892 -0.0518869 -0.12999292 -0.057850856
000090 7e 70 83 bd b7 3d c0 bd 7a c5 e8 bd f1 3c 3e 3d
       -0.064179406 -0.09386771 -0.11365791 0.046444837
0000a0 fc b1 a3 bd da cc 9a 3d 29 82 1a 3e 99 45 bd 3d
       -0.07992932 0.075586036 0.15088715 0.0924179
0000b0 06 fe f6 3d 19 bf 45 bd e5 fc 89 3d 79 19 12 3e
       0.1206017 -0.048277948 0.06737689 0.1426753
0000c0 67 f4 83 3c 01 77 00 3d 48 23 76 3d c4 28 dd b9
       0.016107751 0.03136349 0.06009224 -0.00042182778
0000d0 b5 d6 a8 3d af ef e4 3c 9e ff b6 bd 15 af c4 bd
       0.08244077 0.027946321 -0.08935474 -0.09603707
0000e0 d2 be 2d 3d 10 8c 03 be fb 2c 0b be 99 3c 29 3e
       0.04241831 -0.12846398 -0.13591377 0.16527022
0000f0 22 7f d1 3d 6c 98 64 bc 89 eb 68 3d 24 be d1 3b
       0.10229327 -0.013952356 0.05686525 0.0064008404
000100 e4 cf ea 3d 9e 38 a3 3d 05 09 92 3d fc 26 b7 bd
       0.11465433 0.07969783 0.071306266 -0.089429826
000110 01 4c 9e 3c a8 96 ff bd ee 6f 90 bd a9 d6 26 3d
       0.01932335 -0.12479907 -0.07052599 0.04073206
000120 c4 03 c8 bd 79 e6 97 3d 1d af 87 bd 06 fb 2a 3d
       -0.09766343 0.07417006 -0.06625197 0.0417433
000130 0a 7e fb 3d e8 c2 72 3c 14 53 cb 3d f8 c5 32 bd
       0.122798994 0.014816977 0.09927955 -0.04364583
000140 92 52 70 3d 58 fc 0c 3d 53 9d 96 3d fe 17 bd 3d
       0.058672495 0.03442034 0.07354226 0.09233092
000150 e6 e5 d3 bc c5 fa b7 3c cc b6 7f bd 55 9c 88 3d
       -0.02586646 0.022458443 -0.062430188 0.06670443
000160 d5 9d 20 3d 55 f7 28 bd c6 7d 0d bd 8d 17 85 3d
       0.03921302 -0.0412515 -0.034543775 0.064986326
000170 05 4e 14 3e fc 81 bb bd 15 c7 ce 3d 8e 4f d8 3d
       0.14482887 -0.09155652 0.10096566 0.10562049
000180 b7 06 ef bd dc e6 af 3c de b5 58 3b d8 3e 34 3d
       -0.11671203 0.021472387 0.0033067386 0.044005245
000190 a8 70 1b 3e 87 59 a2 3d 9a 98 50 bd 14 ce 1d be
       0.15179694 0.07927232 -0.050926782 -0.15410644
0001a0 90 f9 92 3d 0e 09 be 3b dc ea e3 3c 39 9f 11 3d
       0.071765065 0.0057994192 0.02782195 0.035552237
0001b0 37 59 ea 3b 44 70 5c 3d da 05 ce bc 5a 2f 77 3d
       0.0071517485 0.053818002 -0.025149275 0.060347892
0001c0 6f c0 72 3d 3f 25 84 bd c1 a9 47 3c 4d c9 7b 3c
       0.05926555 -0.06452417 0.012186469 0.015367818
0001d0 2a e9 04 be 88 ed 96 3d d4 47 0a be dc 88 43 3d
       -0.1297957 0.07369524 -0.13503963 0.04773794
0001e0 60 5a 6d bd df 4b b0 bd 0a 47 6b 3d a5 ae 81 bc
       -0.057947516 -0.08608221 0.057440795 -0.015830347
0001f0 bb 3d b1 bd 7b 9e 2e 3d 8b b3 88 bd 85 7a f3 bd
       -0.08654352 0.042631608 -0.0667487 -0.11888603
000200 8f 93 00 3e b2 7e a0 bd 2a 67 1c bd 2e a2 da bd
       0.12556289 -0.07836665 -0.038184322 -0.106754646
000210 5c 28 bf 3d 56 c6 4e 3c 8d 1c a3 bd a0 db b1 3d
       0.0933387 0.012620529 -0.0796443 0.08684468
000220 db e1 ab 3d 53 92 83 3d d2 52 14 bd 7d 94 1e be
       0.08392688 0.064243935 -0.036211796 -0.15486331
000230 a8 df 04 3c af 35 af 3d a7 79 fc bd e9 8b eb bd
       0.008109964 0.08555161 -0.12327891 -0.11501295
000240 26 b0 3a ba 6b ae 3b 3d ef c9 4b bd 59 15 8f bd
       -0.0007121585 0.045820635 -0.049753126 -0.069864936
000250 e0 2c ab bd 68 39 19 bc 84 3f ce 3d 70 ba c5 3d
       -0.083581686 -0.009352066 0.100707084 0.09654701
000260 d2 09 b5 3c 53 45 08 3d 6b c3 03 3e 49 f4 72 3d
       0.02209941 0.033269238 0.12867515 0.059315
000270 40 5b 33 bd fb 0e b1 bd d8 6d a3 3d 00 d2 f5 bd
       -0.043788195 -0.086454354 0.079799354 -0.12002945
000280 3f 83 0e bd 80 43 e5 3b dd ab 2c 3d 45 41 4f bd
       -0.034793135 0.006996572 0.04215609 -0.050599355
000290 b7 28 d9 bd 7c 10 c0 3c b0 4c 80 bc fa 5a d6 bd
       -0.10603469 0.02344536 -0.015661567 -0.10466571
0002a0 cb 1b d2 bd 33 6f 1a bd df fc 04 be d0 af 9c 3d
       -0.10259207 -0.037703704 -0.12987088 0.07650721
0002b0 d3 ee 8b bc d3 13 ef bd e8 3b 26 3d 23 b3 9d 3d
       -0.017081654 -0.11673703 0.040584475 0.07700183
0002c0 93 fd 1b 3d 12 c6 36 bd 9e a6 9d bd bc 46 99 3d
       0.038083624 -0.04462249 -0.07697795 0.07484195
0002d0 2b ff c8 3d c6 52 ff 3c 1a d0 2c bd 01 1f 1f bd
       0.098142944 0.0311674 -0.04219065 -0.038847927
0002e0 86 10 83 3d 64 a0 d0 3d 2a 58 9a 3d fd ce 05 3e
       0.06399636 0.10186842 0.07536347 0.13067241
0002f0 4c c9 b4 bd 10 3a 4c bc b8 b5 84 bb 01 b7 c9 3c
       -0.08827457 -0.012465015 -0.004049983 0.024623396
000300 29 c1 46 3c 3d f3 ca bd ac ef f5 3c e1 7c f5 3d
       0.012131014 -0.09909675 0.030021511 0.119867094
000310 b6 ff 97 3b 84 a4 87 3d 36 c8 39 3d 2e 11 ad 3d
       0.0046386374 0.06623176 0.04535695 0.084505424
000320 fa 46 36 bd 9a 0a 11 3e 1e c6 a0 bd b8 b9 11 3e
       -0.044501282 0.141642 -0.07850288 0.14231002
000330 b8 00 3d bc 37 11 c4 3d 34 8b fe 3b 24 9a 04 3d
       -0.011535816 0.09573596 0.007768059 0.032373562
000340 9c fe db 3d b2 10 47 bd 23 a9 33 bd 43 8b a4 3c
       0.10741922 -0.048599906 -0.043862473 0.020085936
000350 9f f2 c9 bd 16 44 95 bd ab 78 e9 3d 08 dc 70 bc
       -0.098607294 -0.07288377 0.11399969 -0.014700897
000360 a0 19 b9 bd 4f 83 ea 3d d1 cd 62 bb 0d 1f 81 3d
       -0.09038091 0.114508264 -0.003460754 0.063047506
000370 01 99 71 3c e7 6b 15 3e bc c0 56 3d 56 d5 8a 3c
       0.014745952 0.14591943 0.0524299 0.01694743
000380 0e 1b 85 bd c9 88 17 3e 8f 70 cf bd d2 ae b0 bb
       -0.06499301 0.14798273 -0.10128891 -0.005391934
000390 fa f6 2b bd 59 22 e7 3d 7a ed dc bd 6a bf 77 3d
       -0.041983582 0.11285848 -0.107874826 0.06048528
0003a0 56 0e 1a 3d f7 dd 86 3d a8 13 25 3e 27 36 6f bd
       0.037611328 0.06585305 0.1612078 -0.058401253
0003b0 a8 b0 01 3e 2e 24 c2 3d f2 1c 29 3d 65 fb 7e 3c
       0.12665045 0.09479557 0.04128737 0.015562867
0003c0 2a f8 d5 3d 47 79 19 bd e9 26 2b 3c 14 8e 8e 3b
       0.10447724 -0.037469175 0.010446289 0.004350433
0003d0 f5 7c 92 3d 3a b8 7b bd 08 b8 1c 3e 6d f1 5a bd
       0.0715274 -0.06145499 0.15304577 -0.053452898
0003e0 b2 b8 9f 3d 63 03 c2 3d cc b8 05 3e bd 92 01 be
       0.077989 0.09473302 0.13058776 -0.12653632
0003f0 31 75 42 3c cc 66 82 3d 42 f3 be 3d 2b 7c 8f 3d
       0.011868761 0.06367263 0.093237415 0.07006105

lstm.weight_hh_l1 f4 [256, 64]
000000 e0 4d ad bd 59 79 99 bc 68 6c 12 be 46 56 0d 3d
       -0.08462119 -0.01873462 -0.14299166 0.034506105
000010 46 b7 04 be 30 08 d5 bb 22 1c 35 bd 37 75 b2 3d
       -0.12960538 -0.00650122 -0.044216283 0.08713763
000020 de 3f 09 3e 08 34 3f bd fc f6 34 3d 21 41 15 3e
       0.1340327 -0.04668048 0.044180855 0.14575626
000030 1f db 24 bd 9b d9 b9 3d 46 86 89 3d 3b 6c cc 3d
       -0.040248033 0.09074708 0.06715064 0.09981581
000040 fe 95 44 3d 34 af 04 3c 1b 51 78 3d 80 c3 26 3d
       0.047994606 0.008098412 0.060624223 0.040713787
000050 7c 99 f2 3d b9 d1 e5 bd 56 ac a1 bd f5 d8 ff 3d
       0.11845681 -0.11221642 -0.078941986 0.12492553
000060 fb 05 0c bd 71 c7 e8 bc de 95 9d 3c b2 db 9e 3d
       -0.03418539 -0.028415414 0.019236501 0.07756747
000070 76 b4 18 3d 8f ac 29 3e 5c e9 85 bd 20 40 20 3c
       0.037281476 0.16569732 -0.065386504 0.009780914
000080 1d 9c d1 3c ba c8 27 bd 5c ab b7 bd 16 7f 52 bd
       0.025587136 -0.040962912 -0.08968231 -0.05139073
000090 ca 98 35 bd fd 5a 89 bc 66 67 01 3c ef b1 e2 3d
       -0.044335164 -0.01676702 0.007898187 0.110690944
0000a0 69 45 d5 bd 87 5c b0 3d ee 23 a5 bd 17 97 b6 3d
       -0.104136296 0.08611398 -0.08063494 0.08915537
0000b0 cb 83 bc 3a 29 21 97 bd d5 70 50 bc c4 0e 4f 3e
       0.0014382539 -0.07379372 -0.012722214 0.20220476
0000c0 d3 62 fa 3d 83 61 b7 bd a9 ca 07 be b2 bf 0c 3e
       0.122258805 -0.08954146 -0.13260902 0.13745001
0000d0 63 24 d5 3d 94 98 8a bd f1 5b a7 bc a6 4b 86 bd
       0.10407331 -0.06767383 -0.020429583 -0.065573975
0000e0 81 52 1a 3e 2b e1 03 3d 09 33 c8 3d e4 f2 0e be
       0.15070535 0.03219716 0.09775359 -0.13959843
0000f0 6c e8 09 3d 52 1a da 3d 2d 82 01 3d 94 52 8b 3d
       0.03366892 0.106495515 0.031618286 0.0680286
000100 d4 7f 24 bd 75 61 e2 3d 08 e6 04 be 51 95 65 3d
       -0.04016097 0.11053745 -0.12978375 0.056050602
000110 a7 c7 f2 3b 7b 42 20 bd 98 47 bf bd 1b ac b0 3d
       0.0074090543 -0.0391259 -0.09339827 0.086265765
000120 f9 49 d2 3c c6 84 d9 bd 8f 06 9a 3d 63 17 da 3d
       0.025670039 -0.10621028 0.07520782 0.10648992
000130 36 cc 62 3d ee f6 0b 3e a5 47 cf 3d d9 ae dc bd
       0.055370532 0.13668415 0.10121087 -0.10775537
000140 cf b8 1c 3d 1c e4 df 3d 3e 0d db 3c c7 1c c9 ba
       0.038262185 0.1093218 0.026739713 -0.0015343659
000150 a3 38 2e bc 47 86 da bd 84 9f 0e b9 a0 3f aa bd
       -0.01063362 -0.106701426 -0.000136016 -0.08312917
000160 24 36 b3 bd f3 a7 b8 bd 37 30 10 3d 02 8c 48 bd
       -0.08750561 -0.09016409 0.03520223 -0.048961647
000170 46 5b ec 3d a4 0e 0c 3e aa 01 b8 3c 90 e8 35 bc
       0.115408465 0.1367746 0.022461731 -0.0111028105
000180 b9 fc f3 3c ab 94 6f 3c 52 d2 51 bc 2c 7c dc bd
       0.029783593 0.014622848 -0.012806492 -0.107658714
000190 39 69 87 3c 87 0a c7 3d d8 5c 7c bc be aa 6a 3d
       0.016529666 0.09718805 -0.015402995 0.05729174
0001a0 65 82 b1 3d 58 9b d2 3c dd 70 03 be 55 1a 16 3e
       0.08667449 0.02570884 -0.12836023 0.14658482
0001b0 a6 73 9d bd a7 f0 fe 3d 3b c3 c0 bc 61 42 29 3d
       -0.07688074 0.124482445 -0.023530593 0.04132307
0001c0 b5 64 9b 3d de f9 b3 3d 23 e8 17 3d 0a 9b 07 3d
       0.07587568 0.08787893 0.037086617 0.03310684
0001d0 78 a4 85 bd 65 3b d4 bd 6e bc 80 bd d4 89 70 3d
       -0.065255105 -0.10362891 -0.0628594 0.058725193
0001e0 06 92 f9 3c d1 72 ea 3c 70 ed 20 bd 02 e8 21 be
       0.030465137 0.028619202 -0.039288938 -0.1581116
0001f0 d3 11 51 3d 8d 40 1c bc f1 c0 d2 bc dd 3a 11 3e
       0.05104239 -0.0095368745 -0.025726767 0.14182611
000200 bc 85 b6 bd 27 ff f5 3b 1b 71 aa 3c 7b 23 c0 3d
       -0.089122266 0.007507223 0.020805886 0.09381767
000210 18 e5 fe bd 27 47 b1 3c 92 6e 65 bd 27 7b 02 3e
       -0.1244604 0.021640373 -0.05601365 0.12742291
000220 7a 57 d8 3d e3 b6 f6 3d fa 89 ff 3d 66 8c 66 bd
       0.1056356 0.120466016 0.12477489 -0.056286238
000230 fa 84 0f ba b8 3e c2 3c 7f d9 ab bc eb c5 cd 3d
       -0.0005474832 0.023711547 -0.020977734 0.100475155
000240 28 26 9a bd a5 80 b2 bd 4a 1b cc bd 33 b7 eb 3d
       -0.07526809 -0.08715943 -0.099661425 0.11509552
000250 73 2b eb 3d b1 cf 52 bd fb 81 2f 3d 44 d5 19 3d
       0.11482897 -0.0514676 0.04284857 0.0375569
000260 2d e7 db 3d d6 27 54 bd 12 ad a6 3d 27 18 14 bd
       0.10737453 -0.051795803 0.08138479 -0.036155846
000270 a2 bc 99 3d c6 fc cf bd dd 82 29 3d 33 80 53 bd
       0.07506682 -0.101556346 0.041384567 -0.051635932
000280 d6 c5 b1 3d 4d 9b b5 bc bf a1 8d 3c d8 e8 23 3e
       0.08680312 -0.02216878 0.01728904 0.16006792
000290 2a 8b d9 3d 7b 0f 6c bd ac f5 d4 bd f8 ca ee 3d
       0.106222466 -0.05763195 -0.10398421 0.11659807
0002a0 35 19 9d 3d 2a bc ba 3d d1 c2 cc bc 44 c8 11 3e
       0.076708235 0.09117921 -0.02499524 0.14236552
0002b0 4e 0e 55 3c 34 9a 7c bc 7a 40 85 bb cb fc 8e 3c
       0.013003899 -0.015417624 -0.004066524 0.017454525
0002c0 6d 9c b5 bd 8c df 1e 3d 4d 4a 49 bc 66 88 ae 3c
       -0.088677265 0.03878741 -0.012285781 0.021305274
0002d0 6e de bb bd 38 46 a5 bd 61 52 58 3c 37 56 ba 3d
       -0.091732845 -0.08070034 0.013203234 0.090984754
0002e0 96 fa c1 3d b6 65 1d 3d df 9e c0 bd a8 d5 b5 3d
       0.094716236 0.038427077 -0.09405302 0.08878642
0002f0 ae cd 91 bd a3 ec 2d bd 24 6b 6f 3d 9b da 1f ba
       -0.071193084 -0.042462002 0.058451787 -0.00060979434
000300 2b 90 85 bd ee 3b 93 bd ce 6d 02 be 48 aa e2 bd
       -0.065216385 -0.07189165 -0.127372 -0.11067635
000310 4d 40 ee bd 96 db f7 bd 78 9e f4 bd 05 0a 88 bc
       -0.11633358 -0.121024296 -0.11944288 -0.01660634
000320 cd a3 3a 3c 15 34 bd 3d 95 c9 e7 bd b1 6f 4e bd
       0.011391592 0.092384495 -0.113177456 -0.050399486
000330 24 e0 dd bd e6 ca 48 bd f3 0b 67 bb 50 8a f5 bd
       -0.10833767 -0.049021624 -0.0035254925 -0.11989272
000340 f0 4f 28 3d 97 fd f2 bd 49 76 a0 bd ec 2a 92 bd
       0.04109186 -0.11864775 -0.07835061 -0.07137093
000350 fd bd b1 3d f6 f1 1f 3d 48 9b 9b bd 2e 5e 6b bd
       0.086788155 0.03904911 -0.07597977 -0.057462864
000360 c0 42 dd bd 24 d9 12 3d 8e e6 bd 3d a2 4b c4 3b
       -0.10803747 0.035851613 0.092724904 0.0059904614
000370 1d c6 01 be bc 7b 6a 3d 00 b3 30 bd fa 9e 25 bd
       -0.1267323 0.05724691 -0.043139458 -0.040434815
000380 e3 8e 95 3d 43 0a 6e 3d 12 3c 01 bd ad 7c c4 3b
       0.07302644 0.058115255 -0.03155143 0.005996308
000390 19 c3 b5 bd 2c f8 b0 bd 72 94 99 bd c9 1a e1 3d
       -0.088751025 -0.08641085 -0.07499017 0.10991437
0003a0 b8 72 d4 3b d5 bc 00 bd 4d 3a 6e 3d 93 85 7c bd
       0.006483402 -0.031430084 0.05816107 -0.061650824
0003b0 c1 6e 34 bd f7 44 c8 bd 48 0e c9 3c cc ed 8c 3d
       -0.044050936 -0.09778779 0.024542943 0.06881294
0003c0 fa d1 ae bc 7e ae f1 3d c4 57 a1 bd a3 c3 be 3c
       -0.021340359 0.1180086 -0.07878068 0.023286646
0003d0 c4 57 a7 bd 73 22 a7 bc 0b 0e d1 3c 61 a3 11 3d
       -0.08171037 -0.020402169 0.025519392 0.0355562
0003e0 c3 46 a6 bd 84 2c 79 3d 4d 98 a3 bd c0 35 e2 bd
       -0.081189655 0.06083347 -0.079880334 -0.11045408
0003f0 c5 1c ea bc fe 4d b0 3c f4 00 d9 bd 65 82 46 3c
       -0.028578172 0.021521565 -0.10595885 0.012116049

lstm.bias_ih_l1 f4 [256]
000000 25 b1 ac bc e2 ae b6 3c 9f cd ee 3d 45 45 aa bd
       -0.021080563 0.022300187 0.11660313 -0.08313993
000010 3f db 47 3c 3b 25 ac bc 1a 37 8b bd dc 87 a8 bb
       0.012198268 -0.021013847 -0.06797619 -0.005143149
000020 38 79 81 bb 7a b7 b1 3d e1 c2 f8 bd a8 6b 21 bd
       -0.003951218 0.086775735 -0.12146545 -0.03940931
000030 ae 20 a0 3d 20 fa 94 bc 1d 1e 19 3e fd ba f9 3d
       0.07818733 -0.018185675 0.14952894 0.12193868
000040 66 98 87 3b 34 2d ce 3d 88 12 13 3e b4 73 a4 bb
       0.0041380404 0.100672156 0.14362538 -0.0050186757
000050 b9 68 29 3e 03 2d 9d 3b 79 15 c1 3d 80 39 9d 3d
       0.16543855 0.0047966256 0.09427924 0.07676983
000060 84 7c ff 3d 12 7c 10 3e 3c c2 3e 3d 15 ee a6 bc
       0.12474921 0.14109829 0.046571955 -0.020377198
000070 ec b2 47 bd e1 0b 98 bd bc 6a 66 bd 0b b7 f0 bc
       -0.048754618 -0.07424141 -0.056254134 -0.029384157
000080 44 2f 47 3c c9 07 34 bd e1 d4 ac 3d 2c 65 17 3e
       0.012157265 -0.043952737 0.08439041 0.14784688
000090 cb ca 9f b9 7b ca 8c 3c f8 c5 07 3e ef 09 24 3e
       -0.00030477936 0.017186394 0.13259113 0.16019414
0000a0 80 d4 15 3e e5 32 06 be 40 c6 6c 3b 62 91 7a 3d
       0.14631844 -0.13105352 0.0036128908 0.061173804
0000b0 9e c8 ed 3d 15 e8 bd 3c b7 d8 cf 3d f4 a1 9e 3d
       0.1161053 0.023181954 0.10148757 0.07745734
0000c0 bb d8 06 3e 6e 6f b6 bd 2a b5 bb bd 1c 38 0e 3d
       0.13168614 -0.08907972 -0.09165414 0.03472148
0000d0 da 96 01 3e 97 18 31 bd 8a ea de 3d 61 d2 9c bc
       0.12655202 -0.04323634 0.108845785 -0.019143285
0000e0 fb aa 9d bb bd 3d c6 3d bb 3f 85 bd 2a d8 5b bc
       -0.004811642 0.096797444 -0.06506296 -0.013418237
0000f0 57 17 73 bd 80 01 0f 3d b6 51 8c 3d 4b c5 97 bd
       -0.05934843 0.03491354 0.068515226 -0.074106775
000100 29 20 19 3e 4a 10 f9 39 f7 06 b5 bd e0 f8 1c bd
       0.14953674 0.00047505117 -0.08839219 -0.038323283
000110 0b 34 fa 3c ab 59 b5 bd 47 3e 66 bc 7b eb d1 3d
       0.030542394 -0.088549934 -0.014052934 0.102499925
000120 9b 6d e2 bb 2b ab fc 3d d5 62 6f bc 7d ba 67 3c
       -0.0069100386 0.12337335 -0.014610966 0.014143583
000130 8d b1 34 3d ef 1f fb bb c2 2c 17 3b aa bb 06 3e
       0.044114638 -0.007663719 0.002306745 0.13157526
000140 b7 61 3f bd 18 21 f4 bb e3 17 62 bc fd d3 bc 3d
       -0.046724048 -0.007450234 -0.01379964 0.09220121
000150 c0 a5 96 3d ae fc 22 3d 24 73 bf bc 37 08 64 bd
       0.07355833 0.039791755 -0.023370333 -0.055671897
000160 5f f4 09 3e ad 7d 50 bc 42 a4 3f 3d a9 cd 50 3d
       0.13472126 -0.012725276 0.046787508 0.050977383
000170 0d d1 87 3d 1b b9 a7 3d 7a 98 73 3d 46 92 ea bc
       0.0663167 0.08189603 0.059471585 -0.028634202
000180 9d 8e a3 3b dc 62 af 3c c8 82 5e 3d 07 55 cc 3c
       0.004991366 0.021409445 0.05432394 0.024942888
000190 d7 fd 8f 3d aa 4f 93 3d e7 51 5d 3d b6 f9 34 bc
       0.07030838 0.07192929 0.054033186 -0.011045864
0001a0 b7 30 fb 3d 42 74 41 bd 9e d0 85 bd 81 bf 36 3d
       0.12265151 -0.047230013 -0.06533931 0.044616226
0001b0 ff df 50 3c 02 d1 ed bc d6 4e 8e 3d 53 db f8 3b
       0.012748717 -0.029030327 0.069486305 0.007594505
0001c0 83 04 d5 3d 02 e1 9b bd 1b 9e 59 bd cc d3 f2 bc
       0.10401251 -0.07611276 -0.053129297 -0.029642008
0001d0 a4 6e b1 bd 63 d9 54 3d dd 64 f1 bc 14 08 e0 3d
       -0.08663681 0.05196513 -0.02946704 0.10939041
0001e0 35 66 dc 3d be c6 cb bd 56 fb 48 bd 21 0e 92 3d
       0.10761682 -0.099500164 -0.049067818 0.07131601
0001f0 36 67 ae 3d a0 23 be 3d f1 5b 99 bd ae 53 3a 3d
       0.0851578 0.09284139 -0.074882396 0.04548996
000200 ef b6 cf 3d c1 6f d9 bc 1d b4 cd bd 87 7e e2 3d
       0.10142314 -0.026542546 -0.100441195 0.110592894
000210 d1 2a cc 3d 13 49 12 bd d5 50 1a bd 25 9d e9 3d
       0.09969104 -0.03571422 -0.037674744 0.11406926
000220 80 46 8d 3d ab 9a 88 bd 3e 6c 39 3d b4 57 ac bd
       0.068982124 -0.066701256 0.045269243 -0.084151655
000230 e1 2f 50 3c b3 e8 fd 3d 73 25 0a 3d 8c a3 b9 3d
       0.012706728 0.123978995 0.03372712 0.09064397
000240 bd 6e ff 3d cb d2 e7 bd 84 d5 9b bd d4 47 3b bc
       0.124722935 -0.113195024 -0.07609084 -0.011430699
000250 92 4c d6 3d 98 8f a0 3c 8c db 0a be f7 b3 d0 3c
       0.104638234 0.01959972 -0.13560313 0.025476439
000260 3a b6 0d 3e 25 29 07 be 53 f7 06 be c8 fa 67 bd
       0.13839045 -0.13199289 -0.13180284 -0.056635648
000270 cc 61 b5 3c e2 91 eb 3d 79 42 aa bc 83 09 7d 3c
       0.02214136 0.11502434 -0.02078365 0.015444162
000280 63 e5 e6 bc 15 07 fc bd 18 34 a5 3d 49 85 4b 3d
       -0.028185552 -0.12306038 0.08066577 0.049687658
000290 42 1c b6 3d 8e 60 2c 3d ae 26 a2 3d 7f 03 bc 3d
       0.088921085 0.04208427 0.07917534 0.09180354
0002a0 62 14 d4 bd 8b 31 87 3d d4 92 fd bc 35 49 aa 3d
       -0.1035545 0.066012464 -0.030953802 0.083147444
0002b0 a0 67 5a 3d d6 cb 80 3d 88 90 b6 3d ae c5 c9 3c
       0.05332148 0.062888786 0.08914286 0.024630394
0002c0 d0 9d f0 3d 42 ed 98 bd 26 53 65 bd db 73 d2 bc
       0.1174885 -0.07467128 -0.0559875 -0.02569001
0002d0 bf 62 51 bd 68 84 91 3b 2b 6d 41 bd 56 35 b2 bc
       -0.051119562 0.004440833 -0.04722325 -0.021753948
0002e0 98 22 e6 3d b2 bc b7 bd 1d 68 a6 3d 14 d0 bf bd
       0.11237067 -0.08971538 0.08125327 -0.0936586
0002f0 72 52 da bd f5 ac dd 3d 9b 71 57 3d 6a b3 fb 3b
       -0.106602564 0.108240046 0.052598577 0.0076813
000300 d0 01 24 3e 27 c6 d5 bb 00 01 c1 bc de a9 63 3d
       0.16016316 -0.0065238657 -0.023560047 0.05558192
000310 85 7a b0 3d 54 20 b9 3b dc 1b 1f bb 95 93 8b 3d
       0.08617119 0.0056496058 -0.002427808 0.068152584
000320 9e a1 ce 3d 3f 94 a4 bd 22 36 d7 bc 52 e1 a3 3d
       0.1008942 -0.08036088 -0.02627093 0.08001961
000330 f2 30 bc bd 65 9d 2a 3c 31 18 04 3e 14 b7 dc bd
       -0.09189023 0.010413502 0.12899853 -0.10777107
000340 d7 97 e4 3d 8b 53 63 bd 8e 5d 78 bd d7 e9 90 3d
       0.11161774 -0.055499595 -0.060636096 0.070758514
000350 c5 fd 69 bd 71 bd df 3d a7 7f d7 3d 62 a9 eb 3d
       -0.05712678 0.10924805 0.105223946 0.115069166
000360 38 6d 69 bd 24 73 05 3c eb 43 b2 bd 7a e6 0b 3e
       -0.056988925 0.008145127 -0.087043606 0.13662139
000370 1e fa a2 bd 39 96 8f 3d 55 fd 9d bd ab fd e0 bc
       -0.07957862 0.070110746 -0.07714335 -0.027464708
000380 23 c8 01 bd 95 8e 0a bd 88 b6 3c 3c 8b eb 1a 3e
       -0.031685006 -0.033827383 0.011518128 0.15128915
000390 3f d2 44 bd f3 f8 03 3e bd 1e 0f bd c0 f1 dd 3d
       -0.04805207 0.12887935 -0.034941424 0.10837126
0003a0 bb 3b 28 3e 95 50 ef 3c a7 00 10 3e 68 2c 9e bd
       0.16429035 0.02921323 0.14062749 -0.077233136
0003b0 a0 0c ce 3c ef 6b 0d 3e ec 0f bb 3c 2c e5 4a bb
       0.025152504 0.13810705 0.02283474 -0.003095935
0003c0 a6 40 33 3e 54 49 f8 3d d5 bf a0 bd 15 44 61 bc
       0.1750513 0.12123361 -0.07849089 -0.013749142
0003d0 d8 1a c4 3d fa 34 06 3e 7b 5d 06 3e 51 bd 9f 3d
       0.095754325 0.13106146 0.13121597 0.07799781
0003e0 9f 0a 76 3d b8 05 ba 3d 1c 78 c2 3c ba 9e b1 3d
       0.060068723 0.09083122 0.023738913 0.08672853
0003f0 0a cd 08 bd d2 8a 70 3d 34 eb da 3d 5f 1c b1 3d
       -0.033398665 0.05872614 0.10689393 0.086479895
