models/ETHUSDT_pytorch_mlp.pth (torch, 32790 bytes, 14 tensors)

model.0.weight f4 [64, 29]
000000 7f c4 f4 3d 78 ae 8f 3d 91 15 87 bd b8 60 b1 3d
       0.11951541 0.07015699 -0.0659591 0.08661026
000010 0f 73 90 bd 82 14 cf 3c 83 45 d5 bd 56 13 a2 3d
       -0.07053196 0.025278334 -0.10413649 0.07913844
000020 42 47 0f 3e 95 90 1e be 80 48 14 3e 26 6c aa bb
       0.13992026 -0.15484841 0.14480782 -0.0052008806
000030 99 00 d1 3d 07 db 4d 3d 44 07 2b 3e 2f 83 f6 bd
       0.10205192 0.05025771 0.1670199 -0.1203674
000040 1d e5 0a 3e 94 48 a3 3c bc ee c0 bd 70 03 cf 3d
       0.13563962 0.019932069 -0.09420535 0.101080775
000050 e8 28 03 be a3 6f 11 bd 88 de 90 bb 21 c1 03 3e
       -0.12808573 -0.035506856 -0.004421059 0.12866642
000060 6c cf 35 be 76 48 6f bc ff 39 81 bd 21 36 2f be
       -0.17754906 -0.014604678 -0.0630989 -0.17110492
000070 c6 38 af 3d d0 ce 41 be 06 e3 f1 3d da 86 27 be
       0.085557505 -0.18926549 0.118108794 -0.16360036
000080 25 09 c0 3d c3 84 f4 3c 0b 77 93 bd f9 0c d5 3d
       0.09376744 0.029848462 -0.0720044 0.10402865
000090 18 2b a2 3c 01 78 14 3e 40 28 4c 3c 44 32 8c bd
       0.01979594 0.14498903 0.012460768 -0.06845525
0000a0 81 07 31 3d c8 14 f9 bc f9 08 ad 3d 59 75 24 3e
       0.043220047 -0.030405417 0.08448977 0.1606039
0000b0 df 80 1e 3e 87 a2 9d bd 3b 2a e4 3d b6 59 19 3d
       0.15478848 -0.07697015 0.11140867 0.03743907
0000c0 a2 4d 89 3d 47 c7 eb bd 5c 36 47 be ff d5 aa bd
       0.067042604 -0.115126185 -0.1945433 -0.08341598
0000d0 75 ba 20 be 82 9e 15 3e 46 4e 2b 3d c0 ce b9 3d
       -0.15696128 0.14611247 0.041822694 0.090726376
0000e0 94 39 76 3d fe 20 32 3d 92 00 1c 3e 8a 9e 57 bd
       0.060113505 0.043488495 0.15234593 -0.05264143
0000f0 3d 48 99 3c 9e 57 42 bd f2 6e 81 3d 4a 0b 58 bd
       0.018711204 -0.04744684 0.06319989 -0.05274514
000100 ef b7 8b 3d 86 10 28 bd 3f 99 25 3e 78 84 d0 bd
       0.06822192 -0.041031383 0.1617174 -0.101815164
000110 ea d1 d1 bd 4f 07 f0 bd b3 97 2d 3e ac 4d 74 3d
       -0.10245116 -0.11720144 0.169524 0.059644386
000120 65 b4 4f 3e 94 a7 81 be 19 41 1f be 4f d3 ee bd
       0.20283659 -0.25323164 -0.15552177 -0.11661398
000130 a5 1d c5 bd bc 10 ae 3d 69 9b 87 3d 75 98 29 3e
       -0.09624795 0.084992856 0.06621439 0.16562064
000140 82 48 82 bd b9 f0 ca bd 47 58 c8 3d 00 3c 2f bd
       -0.06361486 -0.099091955 0.097824626 -0.04278183
000150 f1 38 d2 3d 4a 32 bc bc a6 c1 8a 3c a3 25 0a be
       0.10264767 -0.022973198 0.016938042 -0.1349092
000160 09 ae 6d bd ba 22 87 3d c2 7a 99 3d 8d 88 33 bd
       -0.0580273 0.065984204 0.07494117 -0.043831397
000170 b4 0f ed 3d d1 17 e9 3d e7 2b 17 be 65 26 be bd
       0.11575261 0.11381496 -0.14762841 -0.09284667
000180 62 7e 2f 3e 53 31 8d bd 93 d9 b5 bd 5a 2b 4b be
       0.17138055 -0.068941735 -0.088793896 -0.19840756
000190 f2 db 06 bd b3 13 d7 3d bc e4 f4 3c 25 19 32 be
       -0.0329246 0.10501804 0.029894225 -0.17392404
0001a0 b3 71 0e bd f6 f5 29 be fc b0 af bc f0 37 de bd
       -0.0347764 -0.16597733 -0.021446697 -0.10850513
0001b0 d4 24 33 be 7e 91 93 bd 79 1a 3c 3e 76 d5 43 3c
       -0.17494518 -0.07205485 0.18369474 0.0119527485
0001c0 bc c9 d3 3d bb b2 fc bd 4e 6a 04 be 85 3e 8b bd
       0.10341212 -0.12338778 -0.12931177 -0.06799034
0001d0 3e 2a 4f bb 06 e3 4e be 26 ce e5 bd f0 67 19 be
       -0.0031610872 -0.2020379 -0.1122096 -0.14981055
0001e0 f8 85 b5 bc a5 0f ad bd c2 f0 0d 3b f0 ba d2 bd
       -0.022158608 -0.084502496 0.0021658395 -0.10289562
0001f0 76 08 1b be 40 3a f7 bd 8e 0d 72 bd b5 2d ed bd
       -0.15139946 -0.12071657 -0.059094958 -0.115809835
000200 93 55 dc 3d 93 86 da bd 35 31 be 3d a8 5c 5a 3c
       0.107585095 -0.10670199 0.09286729 0.013327755
000210 1d 78 10 be c2 25 14 3e 07 0e 0f bd 6e e2 c6 bd
       -0.1410832 0.14467528 -0.034925487 -0.09711157
000220 7f c2 2c be aa a5 2d be ea 90 55 3c ec 03 5e bd
       -0.1687107 -0.16957727 0.0130350385 -0.05420296
000230 cb 53 cf 3d 01 1b 45 be a1 0a 9e 3d 4f e7 15 be
       0.10123404 -0.19248582 0.07716871 -0.14639018
000240 37 b1 7f 3c 67 50 8e 3d 53 f2 43 3d a2 f3 38 3e
       0.015606216 0.06948929 0.04783852 0.18061689
000250 01 15 f8 3d ca 52 e4 bd e6 d9 93 3d 03 00 5c bd
       0.12113381 -0.11148603 0.07219295 -0.05371095
000260 71 fa dc 3b 5d ce dc bd 53 92 4b 3e d8 e3 db bd
       0.006743722 -0.10781548 0.19880037 -0.10736817
000270 13 8f 03 3e 0b fb b2 3c 09 6b 81 3d 67 91 e2 bd
       0.12847547 0.021848222 0.063192435 -0.110628895
000280 e0 62 43 3e 57 a7 83 3d 05 fa 41 3d 17 8a 0f be
       0.19080687 0.06428402 0.047357578 -0.14017521
000290 10 a1 f9 3c 2d b5 19 bd b2 4b 71 bd 7b 9d 46 3e
       0.030472308 -0.0375263 -0.05891008 0.19396012
0002a0 2b a5 98 3d e3 87 b2 bd 65 d8 73 bd e5 ad 19 bb
       0.07453378 -0.087173246 -0.05953254 -0.0023449596
0002b0 85 bb ee 3d 96 af b1 bc 28 88 d3 bd a8 6d b3 bd
       0.1165686 -0.021690171 -0.10328704 -0.0876115
0002c0 f1 53 0b be 96 dd 2c 3d 76 17 15 3e 54 8d 35 be
       -0.1360624 0.04220351 0.14559731 -0.17729694
0002d0 34 41 17 3d d4 23 c6 3d 3b a9 0f 3d a2 21 8a bd
       0.036927417 0.096748024 0.0350735 -0.06744696
0002e0 ed 98 bf 3d 17 77 c1 3d 45 51 b7 3d d3 92 4d bc
       0.0935534 0.09446543 0.08951048 -0.012547213
0002f0 1a 43 4f bd 37 53 90 3d 7d 0e 07 bd ab 5b 63 bd
       -0.050601102 0.07047122 -0.0329728 -0.055507343
000300 b5 be f2 3d 48 73 25 3e e0 17 17 b7 e0 b1 43 bd
       0.11852781 0.16157258 -9.00586e-06 -0.047777057
000310 18 06 72 bc da 22 82 bc 33 6b 2b 3d 5a 90 0d 3d
       -0.014771961 -0.01588576 0.04185028 0.034561493
000320 87 2a 2c be 31 2d da bb 7d 85 2c 3e 68 33 a3 3d
       -0.16813098 -0.0066582193 0.16847797 0.07968789
000330 6a 80 ee bb 6a 3c d6 bd b1 a9 e4 bd 32 a9 20 be
       -0.0072784917 -0.10460742 -0.111651786 -0.15689543
000340 f4 34 49 bd 3d df 8c 3d 00 ec 00 3e 05 0f c2 3d
       -0.049122766 0.06878517 0.12590027 0.09475521
000350 01 a9 1e be ae 36 d3 bd f2 3f bc bc 9b 17 5a 3e
       -0.15494157 -0.10313164 -0.02297971 0.21298067
000360 27 b3 25 3d 63 5b 08 bd ed 26 9c 3d c9 e9 85 bd
       0.040454056 -0.03329028 0.07624612 -0.065387316
000370 f7 34 eb bd 5e 43 10 3e 2c ab e6 bd db 22 66 bd
       -0.114847116 0.14088199 -0.11263117 -0.056185585
000380 6f f1 36 be 49 01 d4 3d 83 3b 10 3e 6f a9 a1 3d
       -0.17865537 0.103518076 0.14085202 0.07893645
000390 fe d7 19 be 2e bc 34 be be 34 0f be 7c 7b 11 3e
       -0.150238 -0.1764991 -0.13984963 0.14207262
0003a0 94 f1 a0 3d 40 ad 29 3e 5c 96 b1 3d e3 27 67 3d
       0.07858577 0.16569996 0.08671257 0.056434523
0003b0 c0 05 82 3a 7c 2e 0e be bd 16 26 be 11 37 46 be
       0.0009919927 -0.1388492 -0.16219611 -0.19356944
0003c0 08 1c 9c 3d ba 3d ba bd d3 32 2c bd ba af ec bd
       0.07622534 -0.09093805 -0.042040657 -0.11556955
0003d0 b4 0a 20 3c 66 30 c1 bd 86 8a 9f bd b2 77 56 3d
       0.009768177 -0.094330594 -0.07790093 0.052360244
0003e0 37 93 a6 bd c8 3c b5 3d ac 8b af bd 49 08 3d be
       -0.08133548 0.08849484 -0.08571562 -0.18460192
0003f0 ac d4 8e bd e3 b1 be bd a5 85 9b bd 86 1e 42 be
       -0.06974158 -0.09311273 -0.0759385 -0.18956956

model.0.bias f4 [64]
000000 4d ae 0e be 08 33 3f be bc 7c 56 be 6a 34 e6 3d
       -0.13933678 -0.1867181 -0.2094602 0.11240466
000010 68 f6 37 3d 1a 6d 28 be f7 a1 ee 3d fc 06 20 3e
       0.044912726 -0.16447869 0.11651986 0.15627664
000020 75 14 f3 bd 2c c8 f1 3d 1b 32 2c 3c c8 bc a0 3c
       -0.11869136 0.11805758 0.010509993 0.019621268
000030 9f 07 41 3e 1c 12 50 3e 4c e5 a5 3b ac 7d 5a 3d
       0.18850563 0.20319408 0.0050627347 0.053342506
000040 d7 af f8 3c 5f 74 e0 bc 2a 87 16 be 82 a7 e5 3b
       0.030357284 -0.02739924 -0.14699998 0.007008494
000050 07 da fd bd 33 f6 fc 3c fe 63 6a bd d4 c5 db bd
       -0.12395101 0.030879116 -0.057224266 -0.10731092
000060 51 eb 33 be 91 7b d6 bd bb 04 c9 3d ec 61 e0 bb
       -0.17570235 -0.10472787 0.098153554 -0.0068476107
000070 df 5e b8 3d d9 cf c6 bd f6 75 15 bc b6 85 c5 bd
       0.0900247 -0.097076125 -0.009122362 -0.09644644
000080 f8 8a 8a 3d 69 f2 45 be f4 65 db 3d 23 34 d1 3d
       0.067647874 -0.19330753 0.107128054 0.102150224
000090 b1 91 01 be 55 66 08 be 99 33 80 bd 53 c0 cc bd
       -0.12653233 -0.13320287 -0.062598415 -0.099976204
0000a0 7f 9d b4 3c 78 bb 2a bd af 39 34 3e 36 89 11 be
       0.022047756 -0.04168269 0.1760013 -0.14212498
0000b0 b9 ed 8f 3d e2 83 4f be 30 af cc bd 88 66 5d 3b
       0.07027764 -0.20265153 -0.09994352 0.0033783037
0000c0 dc 90 ef 3d 94 a7 8c 3d e3 dd 17 be c5 86 17 3c
       0.116975516 0.068679005 -0.14830737 0.00924844
0000d0 42 b4 0d be 1f 28 ae 3b 1f 81 0d be d8 1b 94 3a
       -0.13838294 0.0053148414 -0.13818787 0.0011299802
0000e0 a3 10 97 3d d0 b5 1c be e0 55 4e be ae 4a 81 bc
       0.0737622 -0.15303731 -0.20149946 -0.01578268
0000f0 94 65 63 3d 28 ff a3 bd 6e e4 c0 3d b5 81 ff bd
       0.055516794 -0.080076516 0.094185695 -0.124759115

model.2.weight f4 [64]
000000 3a 8c 87 3f 87 e2 7f 3f f4 b7 7c 3f 32 ae 80 3f
       1.0589669 0.9995503 0.9871819 1.005316
000010 11 11 7b 3f 6d 83 7c 3f b1 b5 72 3f 5a 0a 77 3f
       0.98072916 0.9863804 0.9480849 0.9650017
000020 e3 49 81 3f ea c1 7b 3f a7 fe 82 3f 6c 0a 79 3f
       1.0100673 0.98342764 1.0233964 0.9728153
000030 fb 48 79 3f 86 51 77 3f 7d ae 86 3f e0 95 80 3f
       0.97376984 0.9660877 1.0522 1.0045738
000040 4d fa 7f 3f 73 bf 76 3f 0e 61 85 3f c9 ea 7b 3f
       0.99991304 0.9638588 1.0420244 0.9840513
000050 f5 55 7f 3f c5 2f 72 3f ce 25 71 3f 22 77 84 3f
       0.99740535 0.9460414 0.9419831 1.0348856
000060 98 87 82 3f 9e 3f 73 3f 40 03 83 3f 8a 4a 7c 3f
       1.019763 0.9501895 1.0235367 0.9855124
000070 b8 1b 77 3f a2 1a 7c 3f 63 55 7c 3f fb 48 79 3f
       0.9652667 0.9847814 0.9856779 0.97376984
000080 d8 39 75 3f 2c 1a 85 3f ab 9c 7e 3f 81 ec 81 3f
       0.9579139 1.0398612 0.99457806 1.01503
000090 e4 a9 7a 3f 70 2c 83 3f 8f 1f 77 3f e6 a0 74 3f
       0.9791548 1.0247936 0.9653253 0.9555801
0000a0 4e 38 7a 3f 0c 49 77 3f e5 68 80 3f 6d 8c 82 3f
       0.97742164 0.96595836 1.0032011 1.0199105
0000b0 2d 64 7a 3f 9a e6 81 3f 9a 85 80 3f 71 5b 80 3f
       0.97809106 1.0148499 1.0040772 1.0027906
0000c0 41 03 82 3f ad 78 83 3f 5f f8 7a 3f 8c 9d 77 3f
       1.0157243 1.0271202 0.98035234 0.9672477
0000d0 3e 77 7b 3f f7 79 80 3f 28 3c 89 3f 9b e8 82 3f
       0.98228824 1.0037221 1.0721483 1.0227236
0000e0 61 a5 7e 3f 52 c3 6f 3f a9 4d 88 3f 4f e9 83 3f
       0.994711 0.9365741 1.06487 1.0305575
0000f0 d4 2b 80 3f 86 6e 85 3f be 83 7e 3f 22 6d 89 3f
       1.0013375 1.0424354 0.9941977 1.073643

model.2.bias f4 [64]
000000 9b da 3b bd 74 19 bc 3c 59 ca 5d bd 42 7a d0 bc
       -0.045862775 0.022961356 -0.054148052 -0.025448922
000010 71 2c 26 3c 0c 1d ad 3c 3c 4f 14 3d 4c b8 1f bc
       0.010142432 0.021132015 0.036208376 -0.00974853
000020 a6 a6 eb bb 6b 7b 86 ba 53 a5 89 3c e4 e9 79 3c
       -0.007191497 -0.001026017 0.016802466 0.015253518
000030 4c f0 25 3c b6 66 87 3a 7f 8e 52 3c 94 db 6d bb
       0.010128092 0.0010330293 0.0128513565 -0.003629421
000040 69 e5 cf 3c 32 38 83 3c 4a 02 e6 3c 4c 22 1a 3d
       0.025377946 0.016018007 0.028077263 0.037630364
000050 4e 30 d2 3c 56 81 57 3d bc 3f 63 bd 2d 91 67 bc
       0.0256578 0.05261358 -0.055480704 -0.014133734
000060 c6 14 c4 bc 2a 96 81 bb 7e f9 12 bd 9f a4 9d 3c
       -0.023935687 -0.0039546685 -0.035882466 0.019243537
000070 a5 e2 3e bc 48 66 0b 3c 12 c5 4a bc fd 13 8c 3d
       -0.011650716 0.0085082725 -0.012376087 0.0683975
000080 7c 61 55 bc ad d4 4c bc 71 c9 87 b9 d2 8c b2 bc
       -0.01302373 -0.012501878 -0.00025899292 -0.021795664
000090 8d 13 95 3c 2c cc cc 3c 5a 2a f9 bc 58 1a 58 3c
       0.0181978 0.0249997 -0.030415703 0.013189875
0000a0 71 16 80 3c 55 86 a5 3b 7d d2 89 3d aa 15 05 bd
       0.0156357 0.005051414 0.067296006 -0.032491364
0000b0 38 29 81 bb b4 1b e6 3c 0e 67 51 bc 91 9d 8d bc
       -0.0039416812 0.028089382 -0.012780918 -0.017287048
0000c0 51 2d 11 3c 29 d6 38 bc 7b 81 b8 3c 4e 23 70 3c
       0.008860902 -0.0112815285 0.022522679 0.014656855
0000d0 9a 7c 2b ba ba 4e bc 3c d6 1f b7 bc d1 be 81 bc
       -0.00065416994 0.022986759 -0.022354048 -0.015838059
0000e0 0a 3a 9b 3c b9 c8 47 3d f9 e3 7c 3d 52 62 d4 bc
       0.018948574 0.04877541 0.06174085 -0.025925789
0000f0 67 28 0a bc 6f 99 3e 3d be f5 09 3b fd 99 bc 3b
       -0.008432484 0.046533044 0.0021051015 0.0057556615

model.2.running_mean f4 [64]
000000 cc fe 79 3d ca 35 18 3e 18 fb 30 3e d7 ed 98 3e
       0.06103401 0.14864269 0.17283285 0.29868957
000010 6b 93 ce 3e e5 9a d3 3d d2 44 33 3e 8f 06 7f 3e
       0.40346846 0.10332278 0.17506722 0.24904846
000020 43 4e 89 3e ed de d5 3e 5e c3 65 3e 71 ba fd 3e
       0.2681752 0.4177164 0.22437808 0.49556306
000030 fa 26 c8 3e 1f 16 ac 3e 5f 1c 82 3e d2 fb 7b 3e
       0.39092237 0.33610627 0.2541227 0.2460778
000040 c8 b5 b3 3e 15 61 3f 3e 31 53 23 3e 52 a8 ea 3e
       0.35099626 0.18689378 0.15949704 0.45831543
000050 b8 20 b6 3e bb be b1 3e 08 64 2c 3e 25 24 fa 3d
       0.35571837 0.34715828 0.16835034 0.12213925
000060 2f 78 4c 3e c2 dd db 3d 3d bf 5e 3e 43 e6 4d 3e
       0.19967721 0.10735656 0.21752639 0.20107369
000070 d6 32 87 3e f8 a5 bf 3d aa 04 8a 3e 99 57 97 3e
       0.26405972 0.09357828 0.26956683 0.2955902
000080 70 14 7c 3e 2c 95 d8 3d f0 0d 84 3e 77 a7 6c 3e
       0.24617171 0.10575327 0.25791883 0.23110758
000090 27 3a 2c 3e d0 a6 34 3e c2 93 8e 3e a0 6f c6 3d
       0.16819058 0.17641759 0.27847105 0.096892595
0000a0 e1 0a a9 3e 09 c8 14 3e 1f 71 82 3e 35 9e e8 3d
       0.33016112 0.14529432 0.2547693 0.113583006
0000b0 2b 5f 9e 3e 8f 05 e1 3d 66 91 fc 3d 0f 45 d1 3d
       0.30931982 0.10987388 0.1233242 0.1021825
0000c0 b8 c6 78 3e 04 1b 77 3e d3 c7 c5 3d 7e 3e 94 3e
       0.24294555 0.241314 0.09657254 0.28953928
0000d0 25 5f 6d 3e 04 3e 18 3e ef 3e 96 3d 38 45 26 3e
       0.23180826 0.14867407 0.073362224 0.16237342
0000e0 4e fe 27 3e ec f5 6f 3e 82 b3 07 3e fb a8 11 3e
       0.16405603 0.23433656 0.1325207 0.14224617
0000f0 65 18 5f 3e 9c 7d 3e 3e f1 0a ce 3e 16 e5 f4 3d
       0.2178665 0.18602604 0.40242723 0.11957757

model.2.running_var f4 [64]
000000 51 e8 33 3c 46 e1 c7 3d a7 7f aa 3d f4 1f 4f 3e
       0.0109806815 0.097597644 0.08325129 0.20227033
000010 18 03 e7 3e 83 07 a3 3d 9a 00 ea 3c 6d 6e 90 3d
       0.45119548 0.07960417 0.02856474 0.07052312
000020 a1 68 80 3e 13 4c e0 3e 89 c5 f8 3d 15 ca bd 3e
       0.25079826 0.4380804 0.12147052 0.3706824
000030 24 7f 5a 3e cf c7 23 3e 4c 76 b8 3d 8f 16 cd 3d
       0.21337563 0.1599419 0.09006938 0.10014068
000040 bc e6 32 3e 9f 3b 97 3d 64 29 8a 3d 17 bd c1 3e
       0.1747083 0.07384419 0.06746176 0.37839577
000050 d1 f3 14 3e f7 66 15 3e b6 10 6e 3d b5 87 f8 3c
       0.14546134 0.14590059 0.058121406 0.030338148
000060 09 9c 22 3e 5e 0a 1c 3d 3b 79 8e 3d a4 75 b5 3d
       0.15879835 0.038095824 0.069567166 0.08860329
000070 0b 60 ea 3d 87 46 b1 3d ad 02 03 3e 50 e4 86 3e
       0.114441 0.0865603 0.1279399 0.26346064
000080 3e 5b ce 3d 9b 80 00 3d 78 e1 d8 3d cd 48 83 3d
       0.10075997 0.031372648 0.1058988 0.0641037
000090 84 00 99 3d b2 b9 5e 3d 65 96 c8 3e fc 1f fc 3c
       0.074708015 0.05437631 0.39177242 0.03077697
0000a0 ff 51 9a 3e 90 61 88 3d e4 e7 a7 3d 1b bd 14 3d
       0.30140683 0.066592336 0.081985265 0.036313158
0000b0 b3 1b 78 3e 57 f2 2c 3d f2 e5 28 3d 15 a7 95 3c
       0.24229316 0.0422233 0.041234918 0.018268147
0000c0 37 2f 93 3d 50 6a d6 3d 45 13 36 3d e4 cd 10 3e
       0.0718674 0.10469496 0.04445197 0.14141041
0000d0 51 df 06 3e 62 44 2e 3d 56 19 9f 3c ce 81 3d 3d
       0.13171126 0.042545684 0.01942126 0.04626637
0000e0 7a 23 17 3d b5 97 29 3e 31 51 5c 3d 1d 4e f3 3c
       0.036899067 0.16561778 0.053788368 0.029700333
0000f0 04 15 b2 3d 7a 66 64 3d 12 98 29 3e 89 ac e9 3c
       0.08695415 0.05576179 0.16561916 0.028524654

model.4.weight f4 [64, 64]
000000 1d e4 bb bd 17 5c 86 bd fa eb 3a bd ea 07 57 bd
       -0.091743685 -0.065605335 -0.0456352 -0.05249778
000010 f3 be a6 3d d7 4e 30 bc d9 38 52 3d 19 26 e1 bc
       0.081418894 -0.010760984 0.051323745 -0.027483987
000020 60 70 a0 3d 21 13 bf 3d 05 44 ca bd e7 09 24 bd
       0.07833934 0.093298204 -0.09876255 -0.040048506
000030 64 7c c9 bd dd 15 99 3d 41 1b 0f be 16 b3 bb bd
       -0.09838179 0.07474873 -0.1397524 -0.09165017
000040 db bd ee 3d 8f bf c3 bd c3 b3 d7 3d 35 74 bd 3c
       0.11657306 -0.09558021 0.10532334 0.0231267
000050 23 9c d8 3d 5c 90 e2 bc a6 75 78 3d d9 df d1 bc
       0.10576656 -0.027656727 0.060659073 -0.025619434
000060 bd 68 03 3c 75 65 4d 3d 0e 51 d4 bd 17 1e b9 bd
       0.008020577 0.050145585 -0.103670225 -0.09038942
000070 d6 99 f0 3d 5b 5a ca bd b0 e2 88 bd bb 91 61 bb
       0.11748092 -0.09880515 -0.06683862 -0.0034419138
000080 8a 48 df bc bf a6 d4 bb 97 36 ac bd b0 95 4c 3d
       -0.027256269 -0.0064896042 -0.0840885 0.04994744
000090 cd f6 d0 bd 82 14 f8 bc 9d 12 78 3d 62 27 0a 3d
       -0.102033235 -0.030283216 0.060564626 0.033728965
0000a0 c0 65 03 3c eb b8 1a bc d7 09 88 bb 8c 90 a1 bd
       0.008019865 -0.009443502 -0.0041515636 -0.07888898
0000b0 c9 16 3e bd 6e 9f ed bd 67 97 b9 bd d7 c9 2a 3e
       -0.04640845 -0.116026744 -0.09062081 0.16678558
0000c0 63 fb 0d bd 44 42 a3 3c 54 5f 63 3d 4b d5 ca 3b
       -0.03466357 0.019929059 0.055510834 0.0061899773
0000d0 5e 40 76 bd dd 1c ae bd f2 4a 0e bd 08 14 ba 3c
       -0.06011998 -0.08501599 -0.034739442 0.02271463
0000e0 71 1c d2 bd cf 58 fb bc ec 41 3e 3d f1 7e 0d 3e
       -0.10259331 -0.030681996 0.046449587 0.13817956
0000f0 66 77 91 3c 13 c8 38 3d 95 9b ab 3d 34 da 96 3d
       0.017757129 0.04511268 0.08379284 0.07365838
000100 6b 0b 0e bc 5d 68 26 bd e5 3d 0b be a6 63 8c bd
       -0.008669714 -0.040626872 -0.1359783 -0.06854944
000110 ec c1 20 bd 80 c8 ea 3c 33 93 19 bd 01 0a 35 3c
       -0.03924744 0.028660059 -0.037493896 0.011049748
000120 b6 fd 8c 3d 99 58 91 bd 1f c3 9a bd 73 6e 9a bd
       0.06884329 -0.07096977 -0.07556748 -0.07540598
000130 25 e9 48 bd 9a 6b b5 3d e3 86 ca bd 6a 0a 58 bb
       -0.04905047 0.08858414 -0.09889009 -0.0032965192
000140 6e d3 23 3c 40 8e 89 bd f3 5a ce 3d 11 66 5a bd
       0.009999139 -0.06716585 0.10075941 -0.053319994
000150 56 6e 18 3c cd fe 8e bd 8f 9c c9 bc 0b a8 93 3a
       0.00930365 -0.06982193 -0.024610786 0.0011265291
000160 78 18 65 bc 11 fc 6e bd f7 16 07 3d c0 92 d8 bc
       -0.013982885 -0.058345858 0.032980885 -0.026437163
000170 36 45 8c bd 44 48 d2 bd 24 36 1b bd 55 8a 02 be
       -0.068491384 -0.1026769 -0.03789343 -0.12748082
000180 de 16 b9 3d 16 16 42 bd 9a 13 73 bd dd 96 11 3d
       0.09037565 -0.047384344 -0.059344865 0.035544265
000190 a8 10 b7 3c e7 b8 60 bd e2 b5 a9 3d 90 3d 90 bd
       0.02234681 -0.054863837 0.082866445 -0.07042992
0001a0 2f 65 a1 3c 1d 2f a4 bc 55 3e c0 bd 3f 2e 80 bd
       0.019701568 -0.020041997 -0.09386889 -0.06258821
0001b0 ab bf 2a 3c e6 d8 0a 3d 0a 6a b4 3d 50 ff 9b 3d
       0.010421674 0.033898257 0.08809288 0.07617056
0001c0 d5 c5 97 bd 7d c4 59 bd 26 f9 64 bd bc 85 c4 bd
       -0.0741078 -0.0531659 -0.05590167 -0.0959582
0001d0 55 81 88 bc a9 27 b6 bd 86 b7 26 3d b4 82 c4 3d
       -0.016663233 -0.08894283 0.040702365 0.09595242
0001e0 ee eb 69 bc 8c d4 d7 bd 26 18 3a bd db 3c c7 bc
       -0.014277441 -0.10538587 -0.045433186 -0.02432101
0001f0 5e 7d 21 3d 4c be b2 3c 55 73 94 3c 6a 9b 04 3e
       0.0394262 0.021819256 0.0181214 0.12949911
000200 bb 91 8f 3c 66 cd 10 3d ea 47 23 bd 78 d9 64 3b
       0.017525544 0.035352133 -0.039863504 0.003491966
000210 67 02 9e 3d 84 05 e3 bd 2c 00 d2 bc 8f e3 98 3c
       0.07715302 -0.110850364 -0.025634848 0.018663196
000220 d4 6c 98 3d 25 79 31 3d 91 c3 4c bc 54 f3 29 bd
       0.07442632 0.043328423 -0.012497799 -0.04149182
000230 09 d0 12 3c a4 9e 81 bc 17 1b af 3c c9 fe 0e bd
       0.008960732 -0.015822716 0.021375222 -0.03491095
000240 b1 31 ab 3d 97 98 91 3c aa 45 03 3e 18 58 a8 bd
       0.08359087 0.017772956 0.12819543 -0.082199275
000250 8a 90 1f 3d 7f b7 7c 3d 1c 18 c8 bc 84 de 45 3d
       0.038956203 0.061698433 -0.024425559 0.04830791
000260 ac a4 bc bd e4 93 c4 3d 0b 69 96 3d 11 ac 71 3d
       -0.09211096 0.095985204 0.07344254 0.059001986
000270 5d 67 d8 3c a7 b6 01 3d a7 13 af 3d 6c ea a4 3d
       0.026416475 0.03166833 0.0854867 0.08052525
000280 7b e3 cc bd 6b a3 0e 3e 5a ff 6a bd b7 f2 92 bc
       -0.10004326 0.13929527 -0.05737243 -0.017938001
000290 63 3b bd 3c 74 ac 00 3e ed 25 8f bd 2b b5 40 bd
       0.023099607 0.12565786 -0.06989656 -0.047047775
0002a0 22 48 a3 3d 20 f6 c8 bd 22 d8 72 3d 82 0c f9 bc
       0.079727426 -0.098125696 0.05928815 -0.030401472
0002b0 dc c0 13 3d 16 54 8f 3d c9 ca a4 bd 7a 56 38 bd
       0.036072597 0.0699846 -0.08046491 -0.045004345
0002c0 53 80 66 3d 0c 1f c2 3c 54 a4 d8 3b 9e cb 85 bd
       0.056274723 0.023696445 0.0066113863 -0.065329775
0002d0 e7 8f 05 3e c0 56 a4 3c 81 c3 09 3d 02 dd f7 bc
       0.13043176 0.020060897 0.033633713 -0.030256752
0002e0 c4 47 30 bd 32 50 d1 3c 8b 0a 18 3d 36 01 12 3e
       -0.04303719 0.025550935 0.03711943 0.14258274
0002f0 81 43 6b bd 4d 35 43 bb 94 71 54 3d 7e 74 a8 3c
       -0.057437424 -0.0029786408 0.05186613 0.02056336
000300 46 5c 6f bd 1a a2 97 3c 5b 2e 1c 3d 22 c4 45 bb
       -0.05843761 0.018509913 0.038130146 -0.0030176719
000310 2a 38 92 3d 65 b5 ac 3d 9f 3e 1d 3d 59 81 7a 3c
       0.07139619 0.08433036 0.0383898 0.015289628
000320 fa 9b ce 3c 97 f1 6a bc 3d c4 e0 3d 07 aa c1 3d
       0.02522086 -0.014339826 0.109749295 0.09456258
000330 a2 4e 25 3d a1 a3 4b bc 90 6c ec 3d 5f c2 bd bd
       0.040358193 -0.012429149 0.11544144 -0.09265589
000340 36 ab ff 3d 1e c6 3a 3d 07 6c c6 3d 36 1e 86 bd
       0.12483828 0.045599096 0.09688573 -0.06548731
000350 39 ec d7 bd 10 1f 88 3d 32 67 34 bd 8d 00 f7 3c
       -0.10543103 0.0664655 -0.044043727 0.03015163
000360 e0 eb 84 3d fc f3 b1 bd 7d 04 c9 3c 25 a3 a1 bc
       0.06490302 -0.086891145 0.024538273 -0.019731114
000370 c0 29 93 3d 9a 28 84 bd 9d ab a1 3d c9 69 9f 3d
       0.071856976 -0.06453057 0.07894061 0.07783849
000380 3c 3c eb 3c b6 30 24 3e 50 af 00 bd 01 de 17 be
       0.028715245 0.16034207 -0.03141719 -0.14830782
000390 41 a9 b0 3d 29 b5 e0 3c 7a 43 a9 bc 69 90 05 be
       0.086260326 0.027430134 -0.020662058 -0.1304337
0003a0 68 3b 0c bd 07 b9 db bd 76 4e b3 3d 57 9e eb 3d
       -0.03423634 -0.107286505 0.087551996 0.1150481
0003b0 38 24 a9 3d c6 4e c8 3d f3 f1 bf bd 6a fa 23 bd
       0.08258861 0.0978065 -0.0937232 -0.040033735
0003c0 c8 2f 9c bd c0 c0 68 bd 93 60 ab 3d 0f 12 ea 3c
       -0.07626301 -0.056824446 0.083680294 0.028573064
0003d0 0d ca de 3d b0 d7 d5 3c 78 b5 f3 bd d7 3e 16 bd
       0.10878382 0.026103824 -0.11899847 -0.036681022
0003e0 99 7e b3 3d 76 a3 7b 3d 7d 44 7e 3d 5d 17 8b bd
       0.08764381 0.061435185 0.062077034 -0.067915656
0003f0 b4 83 e6 bd 76 a0 79 bd 82 2a 47 3d 4e 53 2c bd
       -0.11255589 -0.060944043 0.048624523 -0.042071633

model.4.bias f4 [64]
000000 8e df 82 3b de 25 d3 bc 04 53 a9 bd bd b4 d8 3d
       0.003993935 -0.025774892 -0.08267787 0.10581348
000010 78 43 1b bc fc 34 11 be b1 56 56 3d 56 0d 44 be
       -0.009476535 -0.14180368 0.05232877 -0.19145712
000020 6b 1c 47 3d 86 85 d3 bd 7a a4 38 bd b7 92 ba bc
       0.048611086 -0.10328202 -0.045078732 -0.022775037
000030 ca 20 04 be b3 4b 29 bd c0 9b a7 38 8c 3d 20 bd
       -0.12903133 -0.041331958 7.992191e-05 -0.039121196
000040 3d d7 1b 3d ae 83 38 3d e3 b3 90 3d aa b2 0d be
       0.038047064 0.045047455 0.07065561 -0.13837686
000050 ba c8 10 bc e9 66 e7 bd 20 ed 41 b8 b0 f1 d3 bd
       -0.008836919 -0.112989254 -4.6235626e-05 -0.103488326
000060 a0 72 c7 bd e7 87 6c bc fe 83 6a 3d 35 49 c8 bd
       -0.0973866 -0.0144366985 0.057254784 -0.09779588
000070 d3 57 00 bd cc d0 ce bc 24 4e 40 be eb 5b 57 3c
       -0.031333756 -0.025246046 -0.18779808 0.013144474
000080 97 b2 b7 b9 4f 49 a0 bb a2 0c a5 3d 85 97 8b 3d
       -0.0003503754 -0.0048915516 0.0805905 0.068160094
000090 2c cb 4c 3d 30 ae e9 b7 13 ba 4f bd a8 04 a4 3c
       0.049998447 -2.7856877e-05 -0.050714564 0.020021752
0000a0 65 99 98 3d b1 96 35 3d 50 fd 1b 3d 96 29 fb 3c
       0.07451133 0.044333164 0.038083375 0.030659478
0000b0 82 33 02 3e ab 2c f3 3d 03 3e 05 be 72 b2 f3 bd
       0.12714961 0.11873754 -0.13011937 -0.1189927
0000c0 6d 5e 98 bd 64 5c 05 3e 88 5c c8 3d 8d 44 e1 3c
       -0.07439885 0.13023525 0.09783274 0.027498508
0000d0 b8 63 00 be 56 52 85 bd 2f 5f 80 3d ea ad 0e 3e
       -0.1253804 -0.06509845 0.06268155 0.1393353
0000e0 6d 05 0d 3d 94 27 25 be dd ce b7 3d 3e ae 02 3e
       0.034429003 -0.16128379 0.08975003 0.1276178
0000f0 c8 0c 4d bd e0 8a c1 bd 53 b5 ee bb 10 fa 30 be
       -0.050061017 -0.094503164 -0.007284799 -0.17282891

model.6.weight f4 [64]
000000 9a f9 7f 3f 8d c7 85 3f 64 b2 89 3f 74 e2 7e 3f
       0.99990237 1.0451523 1.0757565 0.9956429
000010 91 85 88 3f 6f 25 80 3f 06 31 86 3f c6 9f 81 3f
       1.0665761 1.0011424 1.0483711 1.0126884
000020 7e 98 82 3f a0 ca 77 3f eb 02 82 3f d9 f5 75 3f
       1.0202787 0.96793556 1.015714 0.9607826
000030 3f fd 81 3f cb b0 85 3f 9a cb 8d 3f a9 82 80 3f
       1.015541 1.0444578 1.1077759 1.0039874
000040 4f 83 78 3f 79 93 82 3f 40 e6 7b 3f 99 5a 84 3f
       0.9707536 1.0201255 0.9839821 1.0340148
000050 03 39 77 3f d3 15 8a 3f 9d eb 87 3f 0c 94 7a 3f
       0.9657137 1.078791 1.0618778 0.9788215
000060 b5 49 82 3f 27 8f 84 3f b9 5b 7e 3f 25 6e 89 3f
       1.0178744 1.0356187 0.9935871 1.0736738
000070 9d 90 87 3f 0b 73 7a 3f 71 c8 89 3f 41 ab 80 3f
       1.0591007 0.9783179 1.0764295 1.0052263
000080 28 13 80 3f 3e e4 89 3f 9e e9 84 3f 58 d9 7b 3f
       1.0005846 1.0772779 1.0383794 0.98378515
000090 2f 4d 85 3f 38 4f 80 3f e1 4c 80 3f 1c b1 8c 3f
       1.041418 1.0024176 1.0023462 1.099155
0000a0 f2 72 81 3f 55 02 80 3f 53 c9 82 3f 74 80 7d 3f
       1.0113204 1.0000712 1.0217689 0.9902413
0000b0 d6 fa 84 3f e3 89 7c 3f 58 c4 7f 3f be f6 82 3f
       1.0389049 0.986479 0.9990897 1.023155
0000c0 84 39 86 3f e8 5c 8a 3f cd d0 80 3f 19 ba 79 3f
       1.0486302 1.0809603 1.0063721 0.9754959
0000d0 9e 57 78 3f cd ac 86 3f 08 41 7d 3f 77 ae 84 3f
       0.97008693 1.0521485 0.98927355 1.0365742
0000e0 1a 2f 82 3f f0 7c 85 3f 64 4d 82 3f c0 84 7f 3f
       1.0170624 1.0428753 1.0179868 0.99811935
0000f0 34 d9 7d 3f 77 24 86 3f 19 3d 7e 3f 15 59 88 3f
       0.9915955 1.0479878 0.9931198 1.0652186

model.6.bias f4 [64]
000000 8d ed b6 3d 85 90 f5 bd ca 84 eb bc c8 af f6 bd
       0.08932028 -0.119904555 -0.028749842 -0.12045246
000010 68 5d be 3b 9e 71 d0 bc 96 00 0d be 8b e4 03 be
       0.0058094747 -0.025444802 -0.13769755 -0.12880151
000020 f8 04 0d 3e 07 60 05 be 9a 58 f5 3c 8f 50 e6 bd
       0.13771427 -0.13024913 0.029949475 -0.11245834
000030 96 d0 06 be cb e3 c7 bd 98 36 b1 bd 54 60 09 be
       -0.13165507 -0.09760245 -0.08652991 -0.13415653
000040 56 5f f1 3d 2c 54 d1 3c 5d 2d e2 3d 20 02 e2 bd
       0.11785762 0.025552832 0.110438086 -0.110355616
000050 3e 50 8f bd ad c2 03 be 5a e0 96 3d 0f bf d6 3d
       -0.06997727 -0.12867232 0.073670104 0.1048566
000060 f8 5d 4d bc 92 3e f2 bd 61 e1 05 3e 77 86 bd bd
       -0.012534611 -0.118283406 0.13074256 -0.09254163
000070 46 bb a6 bd 27 13 e4 bd 68 14 16 be 1c f4 ed bc
       -0.08141188 -0.111364655 -0.14656222 -0.029047064
000080 53 43 04 3e 5c 4f 83 bd 62 e8 59 bd c9 96 05 be
       0.12916307 -0.06411621 -0.053200133 -0.13045801
000090 f6 cd 12 bc e7 75 02 3e 64 06 06 3e f9 b7 19 3d
       -0.008960238 0.12740289 0.13088375 0.037528966
0000a0 f5 3d 3c 3d eb 8c 06 be 3a fb c6 bd 9f e2 79 3d
       0.045957524 -0.13139693 -0.097158864 0.06100714
0000b0 d6 2f 3e 3d 81 9e 28 be ea f8 06 3e 1d 62 f6 bd
       0.04643234 -0.16466714 0.1318089 -0.120304324
0000c0 5e 0c 09 3b 75 bc dc 3d a2 dd e0 3d 75 a4 c7 bd
       0.0020911912 0.10778133 0.10979773 -0.097481646
0000d0 a5 06 c6 3d 18 bb ed bd 51 5d 0b be e5 4f e9 bd
       0.09669236 -0.11607951 -0.13609816 -0.11392192
0000e0 5d b9 bd bd 10 1f 11 be d2 0e f6 bd bc 6a 16 be
       -0.09263871 -0.14172006 -0.120145455 -0.14689153
0000f0 85 8f e1 3d 3e d2 95 bd d2 08 8c 3d d9 44 e4 bd
       0.11013702 -0.07315491 0.0683762 -0.11145944

model.6.running_mean f4 [64]
000000 8b 9a 9f 3e 19 38 5a 3e 7b 85 88 3e f7 28 bd 3e
       0.31172594 0.21310462 0.26664338 0.36945316
000010 90 69 a3 3e 21 f6 a8 3e 86 2c ba 3e 01 cb 8e 3e
       0.31916475 0.3300028 0.36362094 0.27889255
000020 60 1a a0 3e 95 4d 49 3e 21 05 6c 3e 58 76 86 3e
       0.31270123 0.19658501 0.23048832 0.26262164
000030 df 35 9c 3e 72 35 ac 3e be af 97 3e 12 d1 69 3e
       0.3050985 0.33634526 0.29626268 0.2283366
000040 0e d6 96 3e bf 45 a3 3e ad 72 bf 3e 54 68 6c 3e
       0.29460186 0.3188915 0.37392178 0.23086673
000050 92 ec 8e 3e 62 01 6d 3e c5 a7 85 3e fb c2 9a 3e
       0.27914864 0.23145059 0.2610456 0.30226883
000060 2d d6 ac 3e 2d bc d5 3e d2 95 a6 3e e5 b7 a2 3e
       0.33757153 0.4174513 0.3253618 0.31780925
000070 e6 49 97 3e 3f b0 7c 3e a4 56 76 3e 3c 0e 84 3e
       0.29548568 0.24676608 0.24056488 0.2579211
000080 e5 ca 88 3e b4 54 80 3e a7 17 ce 3e d4 b7 db 3e
       0.26717296 0.25064623 0.4025242 0.42913687
000090 f4 d1 e3 3e f4 1e a6 3e 41 24 86 3e 02 3c b8 3e
       0.4449612 0.3244549 0.26199535 0.35983282
0000a0 58 5a a6 3e ec b6 91 3e ef 23 b6 3e 5e a0 99 3e
       0.32490802 0.2845987 0.3557429 0.30005163
0000b0 bb db f5 3e 78 65 ac 3e 16 63 6f 3e cf a2 76 3e
       0.48019204 0.33671165 0.23377642 0.24085544
0000c0 65 b3 7f 3e c0 73 a5 3e 80 36 bd 3e 87 d2 d4 3e
       0.24970777 0.32314873 0.36955643 0.4156687
0000d0 5c 20 67 3e 81 5a 90 3e 9b 95 f5 3e 95 11 c1 3e
       0.22570938 0.2819405 0.47965702 0.37708727
0000e0 96 fa c2 3e 2d 7b 4f 3e 0e 1e c5 3e 57 85 d2 3e
       0.38081807 0.20261832 0.38499492 0.41117355
0000f0 51 ce a5 3e 3a 80 a4 3e 3c a0 8e 3e dd aa 87 3e
       0.3238397 0.3212908 0.27856624 0.26497546

model.6.running_var f4 [64]
000000 75 f2 80 3e 0e 51 f8 3d 8c f0 5b 3e 4e d7 84 3e
       0.2518498 0.12124835 0.2147848 0.25945514
000010 ee 18 60 3e cb 46 7c 3e 00 c2 a9 3e bb ef 42 3e
       0.2188451 0.2463638 0.33155823 0.19036762
000020 a5 2e 38 3e 9b 16 18 3e 75 c1 08 3e 79 7e 2b 3e
       0.17986543 0.14852373 0.13355048 0.16747464
000030 f5 a1 b2 3e e9 66 6f 3e 3f ae 6d 3e 7a 41 e8 3d
       0.34889188 0.23379101 0.23211001 0.11340614
000040 0c fb 4a 3e 9c ec 78 3e 7c 19 62 3e ef 67 35 3e
       0.1982233 0.2430901 0.22080034 0.17715429
000050 c5 65 4a 3e 03 bb fe 3d 14 4a 1b 3e d5 75 80 3e
       0.19765384 0.124380134 0.15164977 0.250899
000060 37 57 c1 3e 53 59 e3 3e a3 15 3b 3e 24 0b 7c 3e
       0.37761852 0.44404086 0.18269973 0.24613625
000070 b8 ba 75 3e 1e 46 6f 3e b3 c0 4b 3e de 2a 0f 3e
       0.23997009 0.23366591 0.19897728 0.13981196
000080 3c 1c 49 3e 16 19 15 3e 89 3e 90 3e e0 f7 c7 3e
       0.19639677 0.14560351 0.2817271 0.390563
000090 f1 97 c1 3e 77 32 80 3e ab 04 17 3e 8b fe 81 3e
       0.37811235 0.25038502 0.14747874 0.25389513
0000a0 cb f3 5d 3e f7 c9 60 3e 17 4f ad 3e 14 b8 84 3e
       0.21675031 0.21952043 0.33849403 0.2592169
0000b0 c9 ca cd 3e 42 66 3f 3e 2e 42 2d 3e 2c df 3b 3e
       0.40193775 0.18691352 0.16919777 0.18346852
0000c0 35 48 3d 3e 8e df 25 3e 88 6c 89 3e d9 e0 bf 3e
       0.18484576 0.1619856 0.26840615 0.37476233
0000d0 8f 69 17 3e 4b 63 54 3e 2c a4 f2 3e 59 d4 88 3e
       0.14786361 0.20741002 0.47390878 0.26724508
0000e0 6f 17 79 3e 16 36 24 3e 57 51 73 3e 28 92 c6 3e
       0.24325345 0.16036257 0.23761497 0.38783383
0000f0 f1 ec 52 3e 4c cb 8c 3e 44 92 4b 3e f6 a0 44 3e
       0.20598198 0.27498853 0.19880015 0.19202027

model.8.weight f4 [3, 64]
000000 a2 c3 d7 3d d1 64 93 bc 28 e4 fb 3c 87 dd a8 bc
       0.10535361 -0.017992409 0.030748442 -0.020613445
000010 43 8a 40 be 3e ee 15 3d e4 78 4e bc 51 16 08 be
       -0.18802743 0.03660416 -0.012602065 -0.13289763
000020 e0 13 dd 3d 2e d8 47 3d 6b 37 d5 bc 9a 8d e4 bd
       0.107948065 0.04879015 -0.026027402 -0.11159821
000030 9a 68 d9 bd d7 31 b0 bd 4a 17 21 bd 53 e4 f0 bd
       -0.10615654 -0.08603256 -0.03932885 -0.117622994
000040 52 bf 53 3d 19 e5 f4 3d 26 ed 30 3d 2c a7 2e be
       0.05169613 0.119577594 0.043194912 -0.17055959
000050 a9 a1 13 3d 38 58 07 be 99 ce 5b bd 8f de 20 bd
       0.036042843 -0.13217247 -0.053663824 -0.03927475
000060 3f cd 6c 3d 90 88 86 3c 4a 67 bc 3c 2f 93 d6 3d
       0.057812925 0.01642254 0.02299847 0.10477292
000070 ea 06 19 be ad 07 fd bc 94 5f f5 3d 46 c4 c9 3d
       -0.14944044 -0.03088745 0.11981121 0.09851889
000080 f2 80 fb 3b 5d 49 a8 bd 13 5b c9 3d c5 95 b8 bd
       0.0076752836 -0.08217118 0.09831824 -0.09012941
000090 56 ff 4d bb c1 80 de 3d 52 fb b4 ba dd d4 af bd
       -0.003143271 0.108644016 -0.001380781 -0.08585522
0000a0 db b3 dc bd db 18 ae bd 43 8e 76 3d 9e 52 c5 bd
       -0.10776492 -0.085008346 0.060194265 -0.096348986
0000b0 7a 25 5b bc e8 b5 9b bd 7e 86 74 3d c2 78 30 3d
       -0.013375634 -0.07603055 0.059698574 0.043083914
0000c0 aa 69 36 be 39 5a ed 3d 3f 4c 00 bd d3 9d 2c bd
       -0.17813745 0.11589474 -0.031322714 -0.0421427
0000d0 70 d1 8b 3d c4 2b 67 bd ee 83 da bd 2b 3c 9b 3c
       0.068270564 -0.056438223 -0.10669695 0.018949589
0000e0 6e 8c b8 bd 01 e1 a5 bd 3b 65 11 be 85 c8 2c bd
       -0.0901116 -0.08099557 -0.14198773 -0.042183418
0000f0 7d 27 d0 3d 31 9b 1c be 4d dd b6 bd 57 cb 9e bd
       0.10163782 -0.15293576 -0.089289285 -0.07753628
000100 28 f7 54 bd c8 27 77 3d 2b e2 4b bc 3c 3d b3 3d
       -0.05199352 0.060340673 -0.012444059 0.08751914
000110 c5 27 be bd 61 ad d6 bb 24 a4 b1 3d 2c 67 12 3d
       -0.09284929 -0.00655143 0.086738855 0.035742924
000120 2c 8e 95 bd 39 47 cc 3d 6e da a8 bd f2 37 b0 3d
       -0.07302508 0.09974522 -0.08244787 0.08604421
000130 63 32 63 3d 14 d7 7b 3d d3 bc 0b 3e 62 88 3a 3d
       0.055467974 0.06148441 0.1364625 0.04554022
000140 9d cc 08 3d 10 d3 15 3c 74 22 bd bd 82 32 d9 3c
       0.03339826 0.0091445595 -0.09235087 0.026513342
000150 19 c3 04 3d 61 2a 70 3d e0 36 2a 3c 9f ee a0 bd
       0.032412622 0.058634166 0.01038906 -0.07858013
000160 8f ad aa 3c 19 d2 3d 3d 3e 00 d8 bd d7 dc fb 3d
       0.020834712 0.046342943 -0.10546921 0.12297981
000170 7a 77 ad 3c ed b6 6c 3d de ff 25 3e 2a 94 39 3d
       0.021175135 0.05779164 0.16210887 0.045307316
000180 13 b3 c5 bd 2c f4 1d 3d 3f 55 80 3d 70 14 82 3d
       -0.09653296 0.03856294 0.062662594 0.063515544
000190 2a 38 6b bd d0 40 1f bc 8a 4e db bd 5e 97 a0 bc
       -0.05742661 -0.009720042 -0.107083395 -0.019603427
0001a0 01 6f c1 bd 9e 3e ad 3d 15 9f ef 3d 67 72 e3 bd
       -0.094450004 0.08459209 0.11700264 -0.11105805
0001b0 fd 82 3e bd ea f3 14 bd 12 e7 d1 bd 96 ae fd 3d
       -0.04651164 -0.036365427 -0.10249151 0.12386815
0001c0 20 90 86 bd e9 58 cd bd 08 b8 df bd a3 ea 33 3c
       -0.065704584 -0.10026724 -0.10923773 0.010981235
0001d0 79 aa 97 bd 61 35 84 bd 66 c2 0e 3e 2e 4f bf 3d
       -0.07405562 -0.06455494 0.13941345 0.09341274
0001e0 96 c2 aa 3d 7c 41 10 3e 63 41 a1 3c b1 02 12 3d
       0.083378956 0.1408748 0.0196845 0.035647098
0001f0 b7 6b b3 bd 3e 31 b2 3c 0b eb c3 bd 97 a4 03 3c
       -0.08760779 0.021751996 -0.09566315 0.008034847
000200 25 6e 04 be da 3e e6 bd f8 d4 0f be 27 7d ed bd
       -0.12932642 -0.11242457 -0.14046085 -0.115961365
000210 a1 9b 01 bd 79 1a 8d bd fc aa 00 be e4 da a7 bd
       -0.03164256 -0.06889815 -0.12565225 -0.08196047
000220 27 cd e7 3d 54 c4 f9 3c 64 bb 15 be b2 b3 c9 bd
       0.113184266 0.030489124 -0.14622265 -0.09848727
000230 dc 23 52 bd a1 57 c4 3d 7b ec 23 3e 10 1f 2b bd
       -0.05130373 0.095870264 0.16008179 -0.04177767
000240 5f 69 a4 3d e7 53 dd bd dd 89 66 bd 49 74 20 3d
       0.080279104 -0.10807019 -0.05628382 0.0391734
000250 e3 b8 cc bd b6 6d 7d 3d 6e c6 d1 3d 22 23 ae 3d
       -0.09996202 0.061872207 0.102429256 0.08502795
000260 21 80 f8 bd 2c fa c1 bd 90 83 6c 3b e6 a2 82 bd
       -0.12133814 -0.094715446 0.003608916 -0.06378727
000270 5f 25 4f 3d 15 98 83 bd f1 3a 14 3d 23 9f f0 bd
       0.05057275 -0.06425492 0.036189023 -0.11749103
000280 9c c1 ce bc 22 60 f7 3d 47 65 8a bd 33 af a5 bd
       -0.025238805 0.12078883 -0.06757598 -0.08090057
000290 02 d2 23 be 9f b9 c9 3d 81 77 c9 3c 34 32 10 3e
       -0.1599808 0.098498575 0.024593117 0.14081651
0002a0 ad 0c 08 3d 18 dd d6 bd d0 3b bb bd 24 27 ab 3d
       0.033215214 -0.10491389 -0.09142268 0.08357075
0002b0 b9 0f ca bd 52 15 61 bd 75 94 68 3d 6c 36 c7 bd
       -0.0986628 -0.054951973 0.056782205 -0.09727177
0002c0 0c 91 5c 3d 07 09 df bd cc 15 71 3d 0b e7 62 bc
       0.053849265 -0.10890394 0.058858678 -0.01384903
0002d0 13 36 ac bd 19 df 10 be e4 0c c2 3c 79 c8 9c bd
       -0.08408751 -0.14147605 0.023687787 -0.076554246
0002e0 5c 09 77 3d fa dc 12 bc ab 3f 07 bc c5 85 d5 bc
       0.06031166 -0.008963818 -0.008254926 -0.026064763
0002f0 e4 ea 8a bd 11 ad d7 3d 32 99 c4 3d fe cd 2f 3d
       -0.06783083 0.10531057 0.09599532 0.04292106

model.8.bias f4 [3]
000000 6f ab fa 3c 77 38 44 bd 24 45 32 3e
       0.030599324 -0.04790541 0.17409188
