models/SOLUSDT_pytorch_mlp.pth (torch, 32790 bytes, 14 tensors)

model.0.weight f4 [64, 29]
00000000: 202b 033e b149 243e b207 6bbd cf22 353e
00000010: 38db 6fbd 14e0 bb3c 1d83 d0bd 3b6e f53d
00000020: e906 173e 958f 1abe f8b9 1a3e d106 0e3d
00000030: d9d3 0b3e b419 ca39 6e2f 853d 2c17 91bc
00000040: d6e7 253e a9b6 3d3d 8de5 8abd 96b0 943d
00000050: 0079 aebd c1ea 07bd 1126 a1bd e29b e63d
00000060: 1cab 1ebe 5402 b6bd ac50 6dbd 0f39 febd
00000070: 0d04 693c d343 4cbe 75f4 0d3e defb 31be
00000080: 140f ea3d 0222 6c3c c809 9fbd cbc7 cb3d
00000090: 3b4d dc3b 18e4 073e af6d 713b c0dc 97bd
000000a0: 1013 1b3d 3926 17bd 64d1 783d d95e 1e3e
000000b0: 3162 c43d 7643 98bd 3988 e93d aa15 243d
000000c0: f174 9f3d e589 cdbd eed8 4bbe 1a21 c0bd
000000d0: 82bc 23be aca2 0f3e faac 003d d703 be3d
000000e0: ae26 a53d da4f 863c f824 1a3e d2bc 43be
000000f0: 956b 8a3c 1b6b 3ebe 12c5 833d f92d 6cbd
00000100: a9e7 7b3d e3ff eabc 8668 243e 01ba d3bd
00000110: 7a3a d4bd fbe3 ccbd a489 473e 88d2 713d
00000120: a26a 303e 73d0 15be 6777 3ebe 169f 16be
00000130: 3ec4 01be af6d 193d a44f 333d 6cb6 223e
00000140: 0fcf c4bd 36db fcbd d4f9 d43d cc22 9abd
00000150: da40 e93d 9d73 04bd 7ac4 173e 3e20 fdbd
00000160: ed97 c3bd d24d 9e3d b873 193d 18c8 cfbc
00000170: 75c2 023e 0142 0f3e 8808 d1bd 2c24 a1bd
00000180: 6dd6 403e ed69 38bd 619e 3cbd 8674 27be
00000190: 4246 dfbd 2856 063d a7b0 ae3c f025 2abe
000001a0: 6144 ddbc 1302 22be ad14 3cbe e479 88bd
000001b0: bf6e 18be 9721 2bbe ce84 413e 6f9c 713d
000001c0: c882 083c 0c5e 33be fbef 1ebe ff62 48bd
000001d0: 404a b63c 3adb 1abe 40c2 b1bd 51c0 cabd
000001e0: 9b44 743c 1169 53bd cd78 553c 5ca1 a1bd
000001f0: 2b8e f6bd 4d4d c0bd d09e 28bd 623c eabd
00000200: 4d77 173e 46a2 2fbd 4cd4 273e 2d17 cd3c
00000210: 8fd8 31be b289 e53d df48 8abd bb01 0abe
00000220: 1ba0 35be e485 22be ba46 983b 0850 24bd
00000230: 7e6a f13d 4db3 4dbe c0ed a33d 745e 1fbe
00000240: b064 16bd 2895 003d 7cb2 833d c2f0 113e
00000250: 30e7 0c3e 1af3 21be f78f 083d d668 c2bd
00000260: 0dab 35bd 1410 19be 1e11 213e 90c3 19be
00000270: 0b9a a53d 85e2 b73d 9939 8b3d 1485 c2bd
00000280: 737e 3c3e f2e7 603d d099 1b3d 1a22 19be
00000290: a479 983d bce1 d939 b10e cdbd 71d4 313e
000002a0: 11fe 1a3d b578 0ebe c17c a3bd e267 df3c
000002b0: 087f c83d 8d24 8cbc c671 debd ba08 79bd
000002c0: bbc8 10be 1458 8d3d 57c3 0e3e 72d7 36be
000002d0: 627c 1d3d 6b58 bb3d 94f2 f33c 06c7 8fbd
000002e0: aeb3 bd3d bf34 bb3d d07f ab3d 930d f3bc
000002f0: bebc 37bd 18a5 963c 8234 d6bc 2262 47bd
00000300: b75d 003e a3fb 2c3e bd92 64bc b276 3dbd
00000310: e0ae acbc af7b a2bc 52b7 353d 1266 e73c
00000320: dece 25be fe37 9ebd d1b8 2c3e de9b 813d
00000330: 2215 f3bb f3d3 f7bd fdf2 e4bd 7969 2abe
00000340: 34e9 5abd 4c2a a53d a2d7 f53d 0fe3 ac3d
00000350: d261 23be 3067 cbbd 81b0 59bc 9e11 303e
00000360: ccd8 053c df93 3fbd cda9 c93c bf7d b6bd
00000370: 48e6 0dbe 17ef ef3d 7354 03be a85a 85bd
00000380: e4cb 2abe 6dbf 443e db61 363e 4f6e 723d
00000390: d86b 7cbd 5a84 4cbe 1cf1 e2bd 7012 043e
000003a0: ecf6 bb3d 70f5 003e b49b cc3d 3e91 883c
000003b0: 6f11 563c 3ab5 f5bd ea96 10be 8fbe 3cbe
000003c0: a095 b33d 8c00 97bd 2d62 95bc 7462 cfbd
000003d0: aee7 cebc 6802 f9bd 1ed6 c8bd f526 c83c
000003e0: 47c7 70bd 7f68 e33d f35f 81bd 1472 37be
000003f0: 633e 83bd 40b2 93bd a298 bfbd 0d03 2dbe
0.1280942 0.16043736 -0.057380386 0.1768906 -0.058558673 0.022933997 -0.10181258 0.119839154
0.1474873 -0.15093835 0.15110004 0.03467447 0.13655032 0.00038547593 0.06503187 -0.017711245
0.1620172 0.046316776 -0.067820646 0.072602436 -0.08519173 -0.033182863 -0.07868589 0.11260201
-0.1549496 -0.08887163 -0.057938263 -0.12413227 0.014222157 -0.19947748 0.13862784 -0.17381236
0.11428657 0.014412405 -0.077655375 0.09950217 0.006723074 0.13270605 0.0036839058 -0.074151516
0.037859976 -0.036901686 0.060746565 0.15465869 0.09589041 -0.07434742 0.114029355 0.040059723
0.07785977 -0.10036067 -0.19906971 -0.093813136 -0.15989879 0.14026898 0.031414963 0.09278076
0.08064018 0.016395498 0.15053165 -0.19114998 0.016897002 -0.18595545 0.064340726 -0.05766103
0.061500225 -0.02868647 0.16055498 -0.10338212 -0.10362716 -0.10004421 0.194861 0.05903867
0.17228177 -0.14630298 -0.18600236 -0.14709124 -0.12672517 0.037458118 0.043777123 0.15889901
-0.09609806 -0.12346499 0.103992134 -0.07526168 0.113893226 -0.03233682 0.14821044 -0.12359665
-0.09550462 0.07729687 0.037463874 -0.025363967 0.12769492 0.13990022 -0.10206705 -0.07868227
0.18831797 -0.045022894 -0.04604948 -0.16353044 -0.109020725 0.03279701 0.021324469 -0.16616035
-0.027010145 -0.15821104 -0.18367262 -0.06663874 -0.14885996 -0.16712032 0.18898317 0.058987077
0.008331962 -0.17516345 -0.15521233 -0.048922535 0.022252202 -0.15122691 -0.08679628 -0.09899963
0.014908935 -0.05161387 0.013029289 -0.07892105 -0.12038835 -0.09389744 -0.04116708 -0.11437298
0.14791603 -0.042879365 0.16389579 0.025035465 -0.17367767 0.11207904 -0.0675218 -0.13477223
-0.17736857 -0.15871388 0.004647103 -0.040115386 0.1178789 -0.20087929 0.080043316 -0.15563375
-0.036717117 0.031392246 0.064305276 0.14251998 0.13760066 -0.15815392 0.03334042 -0.09492652
-0.04435258 -0.1494754 0.15729186 -0.15016007 0.08086022 0.08978752 0.06798095 -0.09498039
0.18407612 0.0549087 0.037988484 -0.14954415 0.07445076 0.0004155765 -0.10012568 0.17366196
0.037839953 -0.13913234 -0.07982779 0.027271215 0.09789854 -0.017107273 -0.10861544 -0.060799338
-0.14139073 0.06901565 0.13941704 -0.17855623 0.0384487 0.09147724 0.029778756 -0.070203826
0.09262787 0.0914092 0.08373988 -0.029669559 -0.044857733 0.01838927 -0.026148085 -0.04867757
0.1253575 0.16892867 -0.013951001 -0.046255775 -0.02107948 -0.019834368 0.04436428 0.028246913
-0.16192195 -0.077255234 0.16867377 0.063285574 -0.0074182907 -0.12100973 -0.11179159 -0.16641797
-0.053445056 0.08064708 0.12004019 0.084417455 -0.15955284 -0.09931791 -0.013286711 0.1719422
0.008169364 -0.04677188 0.0246171 -0.08910703 -0.13857377 0.11715525 -0.12825184 -0.06511432
-0.1667934 0.19213648 0.17810766 0.05918723 -0.061626285 -0.19972363 -0.11081144 0.12897658
0.09177956 0.12593627 0.099906355 0.01667082 0.01306568 -0.11997457 -0.14120069 -0.18432067
0.08768773 -0.07373151 -0.01823529 -0.101262 -0.025256958 -0.12158662 -0.098064646 0.024432639
-0.058783796 0.111039154 -0.06317129 -0.17914611 -0.06408384 -0.07211733 -0.09355284 -0.16895695

model.0.bias f4 [64]
00000000: f87c e8bd 0f0b 3dbe 3d43 e3bd cb51 c33d
00000010: e4b0 0d3d 94fb 06be 345d c23d c260 273e
00000020: 8920 52be a7c3 033e ce1f 323d 7e50 61bd
00000030: 4ff6 183e f8ea 333e 7aad 9a3d 9a1e fb3d
00000040: 0e9c b93d 7d8e d83a ed95 44be 132b 00bd
00000050: fdbe 06be be7e 423c ecff 6b3d 3596 8cbb
00000060: 92f8 21be ad1e e2bd e180 e43d 5f50 e03d
00000070: 9f7f 373d 0a9b c0bd 5a7d 51bd 536e 14bd
00000080: b65c f53d 0682 a5bd 6dee ab3d 2c50 103e
00000090: 0d1c 6abe ec55 1cbd 6585 78bc df65 a8bd
000000a0: 8fcb c13d ae98 823c daa7 243e c94c 08be
000000b0: 7d09 c73d a685 f8bd a63b 9fbd e902 993c
000000c0: 87f3 013e d6dc b83d 4682 1dbe 72b9 6fbc
000000d0: 6467 09be d618 e9bb d78f 47be a307 d6bd
000000e0: a5fe de3d 142b 22be bd0b 3fbe b29d 403d
000000f0: 09f5 193c e0f8 76bd 3f93 2c3e e713 05be
-0.11351961 -0.1846125 -0.11096809 0.09537085 0.034592524 -0.13181907 0.09490433 0.16345504
-0.20520224 0.12867604 0.043487363 -0.055008404 0.1493771 0.17570102 0.07552619 0.12261696
0.09062968 0.0016521957 -0.19197817 -0.03129108 -0.13158794 0.011871038 0.057617113 -0.004290367
-0.15817478 -0.11041007 0.11157394 0.109528296 0.044799443 -0.09404571 -0.051144935 -0.036238026
0.11980574 -0.08081441 0.083950855 0.14093083 -0.22862263 -0.03816788 -0.0151685225 -0.08222555
0.09462654 0.015941944 0.16079655 -0.13310541 0.097186066 -0.121348664 -0.07775049 0.018678145
0.12690555 0.09026496 -0.15381727 -0.014631616 -0.13418347 -0.0071135564 -0.19488464 -0.10450675
0.10888413 -0.15836746 -0.18656822 0.04702539 0.0093968 -0.06029594 0.16853045 -0.12995873

model.2.weight f4 [64]
00000000: f419 7e3f a566 843f e325 833f b83b 7e3f
00000010: a5ce 7f3f 9a90 763f 4d00 783f 319c 7d3f
00000020: 470a 803f ef85 7f3f ffbe 7e3f 1cdc 813f
00000030: 6c63 823f dd3e 823f 3341 813f cbd6 7c3f
00000040: a7c9 763f c1a9 853f 848d 793f 8e47 763f
00000050: 71e8 773f 9f17 803f 4552 733f e7d9 863f
00000060: 3d2f 823f e86d 843f 7b2a 853f 8780 763f
00000070: 9f6f 7f3f 7444 7b3f 99f4 743f 0b51 833f
00000080: 49e7 763f 6e07 733f f787 803f 6dfc 823f
00000090: dd0d 803f 8864 843f 9433 7b3f 244a 8c3f
000000a0: 3828 7b3f 774f 803f a1d3 803f 1cec 7a3f
000000b0: 8d73 833f 8899 7f3f 5eec 7c3f e28a 863f
000000c0: c20d 803f 2438 7f3f bff7 7e3f 46d6 813f
000000d0: e3f1 7c3f 12ca 7c3f f2d0 753f b1a7 7f3f
000000e0: 623f 7d3f 9dc4 773f ec64 753f 6eea 813f
000000f0: 545c 7e3f 6fd5 833f 78b2 7e3f 8d01 803f
0.9925835 1.0343825 1.0245937 0.99309874 0.9992469 0.96314394 0.9687546 0.99066454
1.0003136 0.9981374 0.99510187 1.0145297 1.0186591 1.0175434 1.0098022 0.9876525
0.9640145 1.044243 0.9748156 0.96202934 0.9683905 1.0007209 0.9504741 1.0535249
1.0170666 1.0346041 1.0403589 0.9628987 0.99779695 0.98151326 0.95685726 1.0259107
0.96446663 0.9493321 1.0041493 1.0233284 1.0004231 1.034318 0.98125577 1.0960126
0.98108244 1.0024251 1.0064584 0.98016524 1.0269638 0.99843645 0.9879817 1.0511134
1.0004199 0.9969504 0.9959678 1.0143516 0.9880659 0.98745835 0.9602195 0.9986525
0.9892484 0.96784383 0.9585712 1.0149667 0.9935963 1.029951 0.9949107 1.0000473

model.2.bias f4 [64]
00000000: 0069 263b 798a 6a3c c435 023d 72a7 813a
00000010: 53a2 a2bc fabe b33c 71f3 d0bc b02c 71bc
00000020: 73a5 403b f3c5 8b3c b161 e73c c4f2 243d
00000030: 7fab 25bc 0a20 3bba 2367 e43c f966 b0bc
00000040: 385a 043d fa4a 463c 9d03 143c c1c1 f43a
00000050: 5d32 073b be2a 3f3c e4c3 39bc c775 aabc
00000060: cb38 1dbd 36b1 2dbb f916 8f3b e4b4 eaba
00000070: 4405 91bc aee6 7f3b 9438 ac3c a2da 7f3a
00000080: fb7b c3bb b590 ef3c 0e28 b3bc 25c2 0cbc
00000090: 57ea b53c 5a2a 66bb 6fa8 983b f68b 80bc
000000a0: ac48 91bb 0078 3fbc eb37 9b3c 38a7 1dbb
000000b0: bf73 d03c a9e5 0e3c a337 f8bb edab 49bd
000000c0: 7fde 4abc 25e3 ffbb 8746 123c 1bd8 263c
000000d0: 1df3 a9bc 2f2a 59bc 6ed4 3cbc 386c 8b3c
000000e0: 86da 4a3c d3b8 bd3c 087a cb3a db60 f13c
000000f0: b11a 4f3a f9db a1ba 7483 483c 3584 07bc
0.0025392175 0.014315241 0.031789556 0.0009891822 -0.019852793 0.02194165 -0.025506707 -0.014720127
0.002939549 0.017062163 0.028244825 0.04027058 -0.010111689 -0.0007138258 0.02788121 -0.021533476
0.0323126 0.012102837 0.009034065 0.0018673466 0.0020629384 0.011667905 -0.011338208 -0.020808114
-0.03838424 -0.002650333 0.004366752 -0.0017906693 -0.017702706 0.0039047408 0.021023072 0.0009760057
-0.0059657074 0.029243806 -0.021869686 -0.00859121 0.022206469 -0.0035120458 0.0046587507 -0.015691739
-0.004433712 -0.011686325 0.018947562 -0.002405597 0.025445817 0.008721747 -0.007574992 -0.049236227
-0.012382149 -0.00780906 0.008927948 0.0101833595 -0.020745808 -0.013254686 -0.011525257 0.017019376
0.012381202 0.02315942 0.0015524039 0.02946513 0.00079004007 -0.0012348882 0.012238372 -0.008271267

model.2.running_mean f4 [64]
00000000: bcde ba3d bcbf bb3d d7f4 653e f8cb b53e
00000010: c787 bf3e 49c2 143e a2dc 343e 481e 943e
00000020: 50ba 3d3e 5dbb e13e 02a4 333e 538e 253e
00000030: 31b2 803e 5fd9 883e 70cc 843e 747b 703e
00000040: 2169 e93e 428c c93d d67a 493e fec0 c33e
00000050: 00cd 5e3e 895a 7e3e f756 863e 9bab e03d
00000060: 4a26 0d3e 3bc1 8c3d a96c 823e 5b16 883e
00000070: ac58 7c3e bad1 013e d9a8 183e 189e 493e
00000080: 1d0b af3e 9003 4d3e 4ac6 693e 2642 7c3e
00000090: 4012 953d 95e6 113e c16e 793e e016 b13d
000000a0: bf1c 313e 7460 dd3d 7b10 743e 8e9b 4a3e
000000b0: 7fd7 b03e 5c14 f33d fcb0 e53d 177b a73d
000000c0: 7a4f 4f3e 456e 893e ecfa 803d 48b2 273e
000000d0: 5804 8e3e fc12 8f3e 36d0 313d 1ac6 603d
000000e0: 8045 643e 9c0b a03d 75d4 1e3d 7ce5 043e
000000f0: 1081 713e a999 3c3e 2466 8f3e 6e1a 8b3d
0.091245145 0.0916743 0.2245668 0.35507178 0.37408277 0.14527239 0.1766229 0.28929353
0.18528104 0.4408826 0.17543033 0.16167574 0.2513595 0.2672834 0.25937223 0.23484594
0.4558802 0.09841205 0.19675764 0.3823318 0.21757889 0.24839224 0.26238224 0.10970231
0.13784137 0.06872793 0.25473526 0.26579556 0.246432 0.1267766 0.1490816 0.19689214
0.34188166 0.2002089 0.22829548 0.24634609 0.072788715 0.14248116 0.24358656 0.08646941
0.17296122 0.108094126 0.23834412 0.19785902 0.3453941 0.118691176 0.11215398 0.081777744
0.20245162 0.2684194 0.062978595 0.16376603 0.2773769 0.2794417 0.043411456 0.054876424
0.22292137 0.07814714 0.038776834 0.12978166 0.2358439 0.18417992 0.28007615 0.067921504

model.2.running_var f4 [64]
00000000: fd34 833d 33e2 213d c914 183e 4eec 543e
00000010: 05b1 003e 5fd5 ad3d 9106 e73c 214e 933d
00000020: adf2 303d 62f6 3f3e e22f 913d 124a 1b3d
00000030: 1a84 c53d 3b08 de3d 35c3 963d 25e5 ea3d
00000040: 03ff c23e 9276 373c a56c d33d 6382 a13e
00000050: 57e6 ff3d 49fc a83d 325c 8f3d bcb6 213d
00000060: 1042 2d3e 284b 553d acbd 5a3d b076 c53d
00000070: 83e9 0c3e 4065 2e3e db10 b33d 2095 0e3e
00000080: 11eb e43d 8326 1a3e 5857 883d eb60 2b3d
00000090: 2cc2 c73c 0ad7 193d 1a27 ce3d 5775 9e3c
000000a0: b62f 073e da6a 233d 32f5 6d3d 0162 0d3e
000000b0: b179 553e b40a 313d d9ec f13c 2824 403c
000000c0: 95cc 173d 0c42 8a3d d65d 683d 3eb5 713d
000000d0: 5c94 493e 6a36 203e 68ba c93c 9bf0 0e3c
000000e0: d9ab 103d 46e7 063d 8c6d 8b3c 4c73 db3c
000000f0: 6f18 063e 0d42 5b3d 2593 253d fd5b c03c
0.06406591 0.03952236 0.14851679 0.20793268 0.12567528 0.08487963 0.028201373 0.07192636
0.043200184 0.18746331 0.07089211 0.037912436 0.09644337 0.108414136 0.073614515 0.11469487
0.38085184 0.011197703 0.10323457 0.3154479 0.12495106 0.082512446 0.07000007 0.03948091
0.16919732 0.052073628 0.05340354 0.096417785 0.13760953 0.17030811 0.08743449 0.13924074
0.11177648 0.15053754 0.066572845 0.041840475 0.02438458 0.037558593 0.10066052 0.019343061
0.13201794 0.039896823 0.058095165 0.13806917 0.20847203 0.043223098 0.029531883 0.01172737
0.03706034 0.06750879 0.056730114 0.059010737 0.19685501 0.15645757 0.024625018 0.008724357
0.035320137 0.032935403 0.01702001 0.026788376 0.13095258 0.053529788 0.04042353 0.023481363

model.4.weight f4 [64, 64]
00000000: 0004 75bd 1da6 cfbd bf6f 0dbc e8ed f4bc
00000010: af4e a23d 6ccd 31bd 5032 c6ba 3c4f 85bd
00000020: 3938 a33d aaed b53d 6a23 0abe c090 6dbd
00000030: 3cfd 00be fff6 873d 32e1 e9bd dc7f 9dbd
00000040: 4ae0 ce3d 1049 3abe cfc2 9f3d a57b 803c
00000050: c1da b33d 2096 70bd ac54 973d 17e6 f93c
00000060: 5f07 a1bb beaa d23d 693b 2abe 365c 91bd
00000070: 5873 043e 7c3a 7ebd 4b61 6ebd 5f94 f7bc
00000080: 018a fabc 22e9 f4ba ec33 c9bd 1502 e53c
00000090: 8a86 e6bd 05e9 fbbb e5ec 913c a5bc aa3d
000000a0: 84e1 2d3d c584 553d 64ae 89bc a024 af3b
000000b0: 8282 87bd b396 cebd 7784 b1bd a90e 063e
000000c0: 473b eabc e944 053d 3432 713d e08d c8bb
000000d0: f0b7 3cbd 8e28 78bd 9567 16bd e777 543d
000000e0: d80c a1bd 4be9 ebbc 5bc1 0d3c 9586 023e
000000f0: ec64 0f3d 781c fd3c 94ff 293d b000 203c
00000100: 4e0d 263d 4dd5 17bd bc74 a6bd e6b1 48bc
00000110: 1c18 e9bb 7ef2 14bc d0d7 93bc 79a4 f73c
00000120: a85d a23d 0a49 1ebd 8a18 cdbd c1e3 81bd
00000130: 44ad a4bd 1a43 823d 2bdd b6bd beab a4bc
00000140: 41ff 3fbb ba25 69bd 1999 933d 2dd4 2dbc
00000150: 1a34 c53c eca1 83bd fe41 dcba b4e6 4a3d
00000160: dcc1 77bb a309 acbd 8183 523d 8173 6ebc
00000170: 95bd 1ebd 8860 92bd 5953 0ebd b2a2 01be
00000180: 5afc c93d 4437 94bd 177b febc 3527 993c
00000190: c52e a83d 131d 5d3c cb36 a03d 2fb8 0bbe
000001a0: 0230 063d 81db 0a3d 710a 9abd 2a46 64bd
000001b0: 4e24 bb3c 4448 673d f480 843d 45d5 863d
000001c0: 37b5 b3bd aa11 82bd 4997 80bc 7a8f efbd
000001d0: 2f3f 1bbd 4f50 bebd 2e51 0e3d 7d28 c83d
000001e0: 2fc9 6ebc 9cf5 d6bd 716c ddbd 84ef abbd
000001f0: 09a9 853d bca6 553c d4a2 523d ee50 f63d
00000200: 123c 9f3d e417 313b 1d89 2bbc 92b4 2d3d
00000210: c91f 953d f690 17be d87d dfbd 9e87 243c
00000220: 2ce6 b43c 6dbf 613d a887 34bd 8b8c 13be
00000230: 5097 49bd c2af 95bb 46d4 6ebc 3bc7 64bd
00000240: 996c 5d3d 8107 52bd f4fd 9a3d 232e 92bd
00000250: 66bf 023d 3773 8f3b 18c8 87bd ad7d a93d
00000260: 69c1 02be fe79 ba3d 5df5 dd3c 0803 033c
00000270: 31c1 6c3d 6169 6b3c 191d 623d fd72 1e3d
00000280: 4082 a0bd da12 7b3d 7c6a 44bd 1b78 00bc
00000290: 6974 283c f9e6 d53d 35d5 cebd bb36 95bc
000002a0: 1716 a53d 7668 74bc 5adc be3d c19d 103c
000002b0: d2cf 04bc 87b9 743d f2fd b5bd 2e73 0bbd
000002c0: d2a4 833d 7191 623d 0465 20bd 700f fdbd
000002d0: 5359 ca3d 92f6 98bb 8a12 24bd c68a cbbd
000002e0: 5cbf f6bc e18d 953c c3b8 52bd 81fe d13d
000002f0: 3b2a 14bc 2c3a aabc cfea 6e3d 244c 47bd
00000300: 31a1 39bd ef7e 1b3d faa9 d33d 7eb6 313d
00000310: d35f ce3d be76 6a3d 3afe a83c 1212 443d
00000320: c831 ed3c 0415 ac3c df44 d33d 448e d53d
00000330: fa57 863c efd1 95bc 846a af3d ea47 afbd
00000340: 10ee ce3d b7eb b53d a709 b53d 0b54 083c
00000350: fb38 a8bd 560b c23d fc52 38bd 20dc 513d
00000360: cb7c 453d 9a2c 22be f4b1 d83c 79aa 5abd
00000370: fdc2 b43d b133 7fbd 3a5a 813d affd be3d
00000380: f44c 5a3d c10f e83d bb06 0e3d 99ab ecbd
00000390: ab22 b33d ba60 143d 2ac3 a5bc dd08 50be
000003a0: 95db 25bd 2fd4 8bbd 44ff dd3d cd0f 613d
000003b0: 43eb a53d 8595 db3d 5dbe a8bd 0dc2 94bd
000003c0: 3870 8abd a410 3cbd dfc6 9c3d 9c99 a33b
000003d0: dccf b83d 5ffa 8cbb 7cd9 cdbd 9984 d6bc
000003e0: e8df 763d 05f4 913d 6701 3a3c 5a8d 93bd
000003f0: 0f2c e9bd b1c4 79bd 75bd c33d e30d 02bd
-0.059818268 -0.101391055 -0.008632599 -0.029898599 0.07925164 -0.043408796 -0.0015121195 -0.065092534
0.07969708 0.088832214 -0.13490072 -0.057999372 -0.12596601 0.06638908 -0.11419906 -0.07690403
0.101013735 -0.18191934 0.07800829 0.015683958 0.08781958 -0.05873692 0.07389197 0.030505223
-0.004914209 0.10286473 -0.16624226 -0.07097666 0.12934625 -0.062067494 -0.058198255 -0.030222116
-0.030583384 -0.0018685202 -0.098243564 0.027955094 -0.1125613 -0.00768769 0.017813155 0.08336762
0.042451397 0.052128572 -0.016806789 0.005344942 -0.06616689 -0.10087337 -0.08667844 0.1309153
-0.028592719 0.03253642 0.058885768 -0.0061204284 -0.046073854 -0.06058555 -0.036719877 0.05187216
-0.07863778 -0.028797766 0.008652057 0.12746651 0.035008356 0.030897364 0.041503504 0.009765789
0.040540032 -0.037068654 -0.08127734 -0.012249446 -0.0071134698 -0.009091018 -0.018047243 0.030229794
0.0792802 -0.038643874 -0.10014446 -0.06342269 -0.0804086 0.06360455 -0.08928903 -0.020101424
-0.002929643 -0.056920744 0.072069354 -0.010609669 0.024072696 -0.064273685 -0.0016804335 0.049536422
-0.0037804758 -0.084002756 0.051394943 -0.014553905 -0.03875502 -0.07147318 -0.034747455 -0.1265972
0.09862585 -0.072371036 -0.031064553 0.018695453 0.082120456 0.013495701 0.07822951 -0.13644479
0.032760628 0.03390074 -0.07521523 -0.055730976 0.02284446 0.056465402 0.06469908 0.06583647
-0.08774798 -0.063510254 -0.015697138 -0.11697288 -0.037902053 -0.092926614 0.034745388 0.097733475
-0.014574333 -0.10496065 -0.10811699 -0.08395293 0.065263815 0.013040241 0.051424816 0.12027155
0.077751294 0.0027022297 -0.010469702 0.042408533 0.07281453 -0.14801392 -0.10912675 0.010042099
0.02208241 0.0551142 -0.044074684 -0.14409082 -0.04921657 -0.004568071 -0.014576977 -0.055854063
0.054058645 -0.051276688 0.07567969 -0.07137706 0.031920813 0.0043777484 -0.06629962 0.08275924
-0.12769093 0.091052994 0.027094537 0.007996328 0.05780143 0.014368386 0.05520353 0.03868388
-0.07837343 0.061297275 -0.047953114 -0.007841135 0.010281661 0.10444445 -0.1009926 -0.018214574
0.08060854 -0.014917484 0.093193725 0.008826674 -0.008106189 0.059747245 -0.08886327 -0.03404539
0.06427921 0.055314485 -0.039158836 -0.1235646 0.098803185 -0.0046680653 -0.040056743 -0.09938578
-0.030120544 0.01825613 -0.051445734 0.10253621 -0.009043272 -0.020779692 0.0583294 -0.048656598
-0.04531974 0.03796285 0.10335155 0.04338693 0.10076871 0.057242148 0.020629037 0.047868796
0.028954402 0.021006115 0.103158705 0.10427526 0.016399372 -0.01828858 0.08565238 -0.085586384
0.101040006 0.0888285 0.08839732 0.008320819 -0.08213993 0.094748184 -0.045001015 0.05123532
0.048214715 -0.15837327 0.026452042 -0.05338523 0.088262536 -0.062305156 0.063160375 0.0932573
0.053296044 0.1133113 0.034674387 -0.11556167 0.08746847 0.03622506 -0.020234663 -0.20315881
-0.040492613 -0.0682758 0.10839704 0.05494671 0.08101513 0.10721878 -0.08239434 -0.07263575
-0.06759685 -0.045914307 0.07655119 0.004992677 0.09024021 -0.0043023075 -0.100512475 -0.026186274
0.060272127 0.07126621 0.011352873 -0.07204695 -0.11385357 -0.060978595 0.095576204 -0.031751525

model.4.bias f4 [64]
00000000: c755 bbbb 0290 843d 4a5a 9cbd d313 0b3e
00000010: 3fb5 a8bc c16d 2dbe 863c fb3c 66eb ccbd
00000020: cc7e 9b3c 210a f2bd ede7 f6bc a841 96bd
00000030: c952 f2bd bb1c 90bc d6b8 643c 9699 cebd
00000040: 47ca 623c 9656 573d 1562 733c 5710 00be
00000050: 8000 50bc 0f69 67bd 100c 2c3b 960b e3bd
00000060: 93db dbbd 3e4e f0bc 1d84 523d 5caf 96bd
00000070: a2cc 6fbb f251 9abc d7a1 76bd 3cc2 03bd
00000080: 77de 51bb 8771 8b3c 547e 4c3d c432 403d
00000090: 8559 ee3c a9bc ed3b 07ee a9bd ebc4 973d
000000a0: 2456 123e 42ea 9a3d 0c61 953d c810 a03c
000000b0: 1027 a03d 9550 ad3d 53e9 c7bd 0052 0cbe
000000c0: 8255 54bd dc30 b93d a0ae d33d bd66 f83c
000000d0: d9a4 d7bd f77a 87bd f658 a73d fba6 873d
000000e0: 9638 673d 13e7 aebd 8b1b c93d e638 173e
000000f0: 6501 52bd 4056 8bbd 80dc a73d 6f41 b5bd
-0.0057170126 0.0647278 -0.07634409 0.13581781 -0.020594237 -0.16936399 0.030668508 -0.10005836
0.01898136 -0.11818338 -0.030139888 -0.07336742 -0.11832196 -0.017591825 0.013960084 -0.10087888
0.013842172 0.05257281 0.014854928 -0.12506233 -0.012695432 -0.056496676 0.0026252307 -0.11086194
-0.1073524 -0.029334184 0.051395524 -0.07357666 -0.0036590477 -0.018837903 -0.060212936 -0.03216766
-0.0032023469 0.017021907 0.049925163 0.046923414 0.02909542 0.007255156 -0.08297353 0.07410606
0.14290673 0.075642124 0.07293901 0.019539252 0.078199506 0.084626354 -0.097613 -0.13703156
-0.05183936 0.09042522 0.103360415 0.030322427 -0.10529489 -0.066152506 0.08171265 0.06623646
0.05645045 -0.08540168 0.098197065 0.14767799 -0.05127086 -0.0680356 0.08196354 -0.08850371

model.6.weight f4 [64]
00000000: f62e 833f 89fa 833f 3a76 883f 91f9 833f
00000010: 5ca6 7a3f b467 7f3f c93f 833f 7b4f 823f
00000020: e277 823f 7eb5 843f cf95 853f ebbd 7f3f
00000030: 560b 803f 1adb 823f 4c06 833f ed86 7e3f
00000040: 975c 813f 1427 7f3f 47ef 853f 5713 843f
00000050: a992 813f 87bf 833f b730 873f 94bc 7a3f
00000060: 4fd0 7e3f 1a75 843f 649b 803f 4fb1 833f
00000070: a57d 863f 4ac0 823f 18df 8b3f 82fc 7c3f
00000080: d845 863f 8a4b 7e3f 18e6 833f bc27 843f
00000090: d667 823f b84d 7a3f 38e0 7b3f 3b3d 7c3f
000000a0: 6b2b 823f 9aed 803f 42e1 803f e465 7f3f
000000b0: 48eb 833f f228 8d3f 33a1 833f 902c 7e3f
000000c0: 7ddf 7e3f 13b6 843f 00c2 813f 3ec2 873f
000000d0: 686a 853f 3377 883f 4a6c 883f a804 843f
000000e0: 2f93 843f 1d95 833f 90d8 843f 3ba3 803f
000000f0: a2fe 823f 59d8 863f 328f 853f e0bc 893f
1.0248706 1.0310832 1.066108 1.0310537 0.97910094 0.99767613 1.0253841 1.0180506
1.0192835 1.0367887 1.0436343 0.99899167 1.000346 1.0223114 1.0236297 0.9942463
1.0106381 0.99669003 1.0463647 1.0318402 1.0122882 1.0292825 1.0561742 0.97944
0.99536604 1.0348237 1.0047421 1.0288485 1.0507094 1.0214932 1.0927458 0.98822796
1.0490065 0.99334013 1.0304594 1.0324626 1.0187938 0.9777484 0.98389006 0.9853093
1.01695 1.007251 1.0068743 0.9976485 1.0306177 1.102812 1.0283569 0.99286747
0.99559766 1.0368065 1.0137329 1.0606153 1.0423098 1.0661377 1.0658047 1.0313921
1.0357417 1.0279881 1.037859 1.0049814 1.0233958 1.0534774 1.0434325 1.0760765

model.6.bias f4 [64]
00000000: 9cd1 7bbd 7d35 6a3d ddc1 55bc 4c73 583d
00000010: f77e a1bc a3ae 203c 27f3 603d 7748 663d
00000020: e19b 3fbd 127a 8a3d 6779 d9bb e6c0 653d
00000030: de9c 723d 65b7 543d 5332 063c 418b 573d
00000040: 2bfc 1cbd 0645 f6bc cbd2 6fbd 97d3 873d
00000050: 9da2 0d3d 5e35 903d cd98 9dbd b7ad 1bbd
00000060: f442 0dbc 9753 503d 008a 6fbd 0804 5a3d
00000070: 2cae 2c3d 90b1 803c da68 ef3c 84ed 7c3c
00000080: 4ede 8ebd 48fe 7e3c f280 cf3c 5609 8d3d
00000090: 7630 903c 98ac 65bd e387 35bd 09e9 f8bc
000000a0: 6336 d4bc b94b 683d 1f97 2b3d 4fc7 83bc
000000b0: f50f 8cbd 2a0e a33d fecb 34bd ccb2 1a3d
000000c0: b105 26bc aba5 62bd a2f7 38bd b81f 1e3d
000000d0: a983 56bd 8a19 c33c 8379 643d e162 6a3d
000000e0: 9574 843d 5ed8 823d 272c 7e3d f07a 753d
000000f0: fb1d 73bd 138e 063d 0cfe 80bb dcf3 7a3d
-0.061479196 0.057179917 -0.013046709 0.05284433 -0.019713862 0.009807262 0.05491939 0.05622145
-0.046779517 0.06761564 -0.0066367867 0.056092165 0.05923163 0.05193271 0.008190709 0.052623037
-0.038326424 -0.03006221 -0.058550637 0.066321544 0.03457891 0.07041429 -0.0769516 -0.038007464
-0.00862192 0.050860967 -0.058481216 0.0532265 0.04215829 0.015709668 0.029224802 0.0154374875
-0.06975995 0.015563555 0.02533004 0.06886546 0.017601233 -0.0560728 -0.044319045 -0.030384557
-0.02590484 0.05671284 0.041892167 -0.016086249 -0.06838981 0.07961686 -0.044139855 0.03776817
-0.010133193 -0.055333775 -0.045158036 0.038604468 -0.052371655 0.023815889 0.055779945 0.057223205
0.06467549 0.06388925 0.062053826 0.059931695 -0.059354763 0.032850336 -0.0039365347 0.06126772

model.6.running_mean f4 [64]
00000000: e0c9 853e abad 7d3e b5e6 963e 246a b33e
00000010: 1b43 593e 7196 8b3e 475f 8e3e f03b 983e
00000020: 6633 a43e 00b9 4f3e 14c0 763e ee96 883e
00000030: 48ec 5c3e 3672 143f 871b 983e 60de 6d3e
00000040: ec74 803e 076c ab3e e4f5 9f3e 4c3b 563e
00000050: 177a a53e e0d4 7c3e b750 833e f8dd 823e
00000060: ebd3 673e 70bb c03e e8e3 8a3e 0284 863e
00000070: 6f2e ac3e 779e 883e f0f4 b73e 6d3e 3e3e
00000080: a374 7e3e 94b1 9b3e 85ff 8f3e 4a6b f33e
00000090: 910f 953e 1cac 853e b2d3 813e 5477 c13e
000000a0: c744 c33e e24b b13e c0f2 c23e 564e 983e
000000b0: 39c8 a03e b889 e83e 5e07 673e d190 ae3e
000000c0: d1e5 ac3e d368 833e f5b1 da3e 989a 9c3e
000000d0: 1d7f 5d3e 834a 8d3e 8c19 c33e 7749 a33e
000000e0: a070 c53e f0d5 6f3e e51f 983e 0041 a03e
000000f0: 700f 823e acab 953e a8f2 ce3e 2896 863e
0.2613058 0.2477328 0.2947289 0.35041916 0.21217005 0.27263215 0.27807066 0.2973323
0.32070464 0.20285416 0.2409671 0.2667765 0.21574509 0.5798677 0.29708502 0.2322936
0.25089204 0.33480856 0.31242287 0.20921057 0.3231971 0.2469058 0.25647518 0.25559974
0.22639434 0.37643003 0.27127004 0.2627259 0.33629176 0.266834 0.3592906 0.18578501
0.24849181 0.3040892 0.28124633 0.47542793 0.2911344 0.26107872 0.25356823 0.37786353
0.3813841 0.34628206 0.3807583 0.29747266 0.31402758 0.4541757 0.22561404 0.3409486
0.33769086 0.25665912 0.42713895 0.30586696 0.21630521 0.2759591 0.38105428 0.31891987
0.3856249 0.23421454 0.29711834 0.3129959 0.25402403 0.29232538 0.40419507 0.26286435

model.6.running_var f4 [64]
00000000: 6227 603e e865 ca3d fe7c 973e 7dbe 6c3e
00000010: 85cf f13d 33ed 1b3e 704f 233e 04cd 303e
00000020: 1dfd 413e 413e 053e 9e3a 0d3e 70a5 4a3e
00000030: 98ba 203e d66a e93e 3f66 703e bb09 453e
00000040: 00a8 e63d 31e7 413e ef98 583e e31a 373e
00000050: 63ed 973e 4e2a 2f3e 6856 093e 3583 ab3e
00000060: 331c 4d3e 557d a83e 13ad 373e 249c 823e
00000070: e948 4f3e 1bc2 7a3e 7328 9f3e dc9e f83d
00000080: ac67 2d3e ee2c 4a3e d0ca 093e 7504 da3e
00000090: 2c33 723e 685b 2f3e 1185 493e eb63 9f3e
000000a0: 2841 6b3e 3634 5f3e 05d6 b63e aef8 603e
000000b0: 9f11 6a3e dcd1 bf3e fabf f83d 6e6a c23e
000000c0: bd5c 993e 039c 0e3e 8f16 ad3e 83f0 403e
000000d0: d2f2 233e 5190 8f3e 3d08 483e 9030 263e
000000e0: bcd0 853e 1510 223e 28f6 613e d865 5e3e
000000f0: f685 393e f56a 6f3e 1911 813e b916 5c3e
0.21890023 0.09882718 0.2958755 0.2311954 0.11807159 0.15227203 0.15948272 0.17265707
0.18944211 0.13012029 0.13791892 0.19789672 0.1569618 0.45589322 0.23476504 0.19241993
0.11262512 0.18935849 0.2115209 0.1788135 0.296733 0.17105982 0.13411868 0.3349854
0.20030288 0.3290812 0.17937116 0.2550975 0.20242657 0.24488108 0.31085548 0.12139675
0.16934079 0.19743702 0.13456273 0.42581525 0.23652333 0.17124712 0.19679667 0.3113092
0.22974074 0.2179726 0.3571016 0.21969864 0.22858284 0.37464797 0.121459916 0.37971824
0.29953566 0.13926701 0.33806273 0.18841748 0.16010597 0.28039792 0.19534393 0.16229463
0.26135814 0.15826447 0.22066557 0.21718538 0.18117508 0.23380645 0.25208357 0.21493043

model.8.weight f4 [3, 64]
00000000: beee 063e f6a1 25bd a427 253d 0d07 bdbd
00000010: 9fe5 dcbd 0ca1 ec3b d7d7 07bd b23e 8fbd
00000020: 07b0 803d 1e9d ab3c 83a9 f9bc 3ad2 15be
00000030: c823 babd e97c 89bd f210 243d ba7a e5bd
00000040: a93a f13c 3edc d83d f48e 913d 10af 17be
00000050: 76b5 cebc 0e55 8fbd 8e9a bc3d e5b1 4ebb
00000060: e212 453d 5399 153c 4048 883c 9938 5d3d
00000070: a69d 0abe bcba 293d baf6 0e3e 7a76 863d
00000080: 35bc 243d a617 e8bb 7701 a43d 8fc2 19be
00000090: f555 3cbd 6801 e03d 6b8c 67bb 6740 453c
000000a0: 31c6 88bd 884b b3bd 3781 4c3d f97d ffbd
000000b0: bee1 83bb 3c97 d3bd 264d 4a3d 60a0 593d
000000c0: 4f3a d2bd e9fb 963d d501 92bc 53a1 dbbd
000000d0: dac2 083e 9a26 67bd 1730 3abe 8f35 c6bb
000000e0: 142b d2bd 79b9 84bd e211 14be 4c12 adbc
000000f0: 9f80 fd3d be81 1dbe aa3b 21be eb4c a3bd
00000100: 27f6 d3bd 4b54 663d 7771 f3bc 5605 fd3d
00000110: 3a55 edbd 04a3 c43c a17d 983d b05e 023d
00000120: cb06 3ebd d976 1a3e 32f1 84bd 8c1a ee3d
00000130: 9540 033d f6ed 743d 1c3b 903d 0854 f23b
00000140: 164a 9c3c 04d5 e5bb df76 1dbe 41cd af3d
00000150: b467 003e b447 993d 5af2 6abd 44bc c3bd
00000160: 915e 373c db78 453d 71dd d9bd 1c59 fc3d
00000170: caf2 a0bc ca93 003d 0e49 123e d58b 7a3d
00000180: d367 d5bd ba49 8a3c b5b1 993d 54c0 b53d
00000190: 28d0 10bd 6739 153d 175b 9cbd a3ab 68bc
000001a0: a2f2 02be 52e4 a43d 6d31 e63d 663a c9bd
000001b0: 6b67 a1bd e4d2 d03c d0a4 efbd 9a84 bb3d
000001c0: 4918 e7bd 7afd 6fbd 7d5e ebbd 9c20 283c
000001d0: bcd0 f1bd 7e1a 93bd 858f 1b3e efde b93d
000001e0: bf8f bb3d a0a2 f23d 006f 553d 7565 e53c
000001f0: 8359 e3bd 8b28 e73b 6c2d afbd 8acb bf3c
00000200: bb24 bcbd 561d babd 926e 04be 3d2b 96bd
00000210: ecc9 cbbd 221f 8bbd 48ad bbbd fda2 0abe
00000220: 0915 113e e9d0 573a 2d09 34be a888 d4bd
00000230: 97d4 2bbd 6c6c 8e3d f08a 0c3e 488a 8bbc
00000240: f027 de3d 64fa 9cbd f565 1dbc 03b8 2abd
00000250: ba55 efbd ca08 15bc 918a 9b3c 72d7 593d
00000260: d9c0 cabd 4617 aabd 16fc 833c a591 a8bc
00000270: 5c4a 813d 0c31 eabd 4b48 bf3c 6cbd d4bd
00000280: a813 28bd 695e 9d3d abcb 78bd c658 6bbd
00000290: 9507 12be 9795 833d 2bd4 203b fb67 3c3d
000002a0: b76c 023d 466c ccbd 8c5b 8ebd 2855 b53d
000002b0: 2dee 90bd 2238 01be d0c3 ad3d fdfa 84bd
000002c0: b300 963c 92d9 d1bd 9a93 5e3d 1b56 3a3d
000002d0: 81d3 ebbd 8ca7 15be 29bf 8f3d 77b6 84bd
000002e0: 2def 4b3d e100 9dbc 75be 3fbd 59a8 13bd
000002f0: 6719 83bd 0219 e43d d9b2 0a3e f56c 443c
0.1317701 -0.04043766 0.040321007 -0.092298605 -0.10785984 0.0072213467 -0.033164825 -0.0699438
0.062835746 0.020948943 -0.030476337 -0.14630976 -0.09088856 -0.06713278 0.040055223 -0.11205049
0.029446917 0.10588883 0.07107344 -0.14812875 -0.025233012 -0.06998645 0.092091665 -0.003153914
0.04811371 0.009130794 0.016636014 0.054009054 -0.135367 0.04143785 0.13961306 0.06565566
0.04021855 -0.0070828972 0.08008092 -0.15015624 -0.045980413 0.10937768 -0.0035331498 0.0120392805
-0.06678427 -0.08754641 0.049927916 -0.12475199 -0.0040247133 -0.1033158 0.04938998 0.05313146
-0.10265028 0.07372267 -0.01782314 -0.107241295 0.1335558 -0.056433298 -0.18182407 -0.006048865
-0.10262123 -0.064806886 -0.14459947 -0.021126889 0.12378048 -0.15381524 -0.15745416 -0.07973655
-0.10349684 0.05623273 -0.02971719 0.123545334 -0.11588521 0.024003513 0.07445837 0.031828582
-0.046393197 0.150844 -0.06491317 0.11626157 0.032044012 0.05979725 0.07042524 0.007395271
0.019078296 -0.007013919 -0.15377377 0.08584071 0.1253956 0.074843794 -0.05736003 -0.09557393
0.01119198 0.04821096 -0.1063794 0.12321684 -0.01964702 0.031390943 0.1428568 0.06116851
-0.104201935 0.016880859 0.07504598 0.08874574 -0.035354763 0.036431696 -0.076345615 -0.014201078
-0.1278787 0.08051361 0.11239896 -0.09825592 -0.078810535 0.025491185 -0.11701357 0.09156151
-0.11283929 -0.058591343 -0.114926316 0.010261681 -0.11807391 -0.07182787 0.15191467 0.09075724
0.09158277 0.118474245 0.05210781 0.02800248 -0.111010574 0.0070543936 -0.085535854 0.023412485
-0.09186693 -0.09087627 -0.12932804 -0.07332466 -0.09950623 -0.067930475 -0.0916391 -0.13538738
0.1416818 0.0008232729 -0.17581625 -0.103776276 -0.04195079 0.069542736 0.13724875 -0.017033711
0.10847461 -0.07664946 -0.009606828 -0.041679394 -0.11686273 -0.009096334 0.018986972 0.05318398
-0.09900064 -0.0830522 0.016111415 -0.020577261 0.06313011 -0.11435136 0.023349902 -0.10387692
-0.04103437 0.07684023 -0.060741108 -0.057457708 -0.14260705 0.064250164 0.0024540524 0.0459976
0.03184196 -0.09981589 -0.06951055 0.08854133 -0.070766784 -0.12619069 0.08484614 -0.06493185
0.01831088 -0.10246576 0.054339983 0.045492273 -0.115149505 -0.14614695 0.07018883 -0.06480115
0.049788643 -0.019165458 -0.046812493 -0.03604922 -0.064013295 0.11137582 0.13544787 0.011988868

model.8.bias f4 [3]
00000000: c08e 12be e8e6 1e3e 7745 9a3d
-0.14312267 0.15517771 0.075327806
