models/SOLUSDT_lstm.pth (torch, 234878 bytes, 10 tensors)

lstm.weight_ih_l0 f4 [256, 29]
00000000: ea8a 043e 5d3f 003e 113c 963b b896 0b3e
00000010: 50b5 e23b ed5a 683d 642a e7bc 812a d23d
00000020: 8bcb 113e 22de 72bd 9bbc 123e 2743 673d
00000030: 042f 8d3d 7bbf 103d 8629 b03d 915b e4bc
00000040: 56ae 233e b5db a73d 4f21 a83b 0c8f 133d
00000050: 7577 17bd 5e49 933c 9097 edbb e9bd 013e
00000060: e903 abbd 7825 67bc ca69 12bd c671 68bd
00000070: 66ac f43b 92fb babd 1475 d43d c899 97bd
00000080: 82e6 b23d 05be 5f3d a47a 9bba a5ff e23d
00000090: 17b5 363d 7eeb 093e 5497 4a3d a80d acbb
000000a0: 8501 763d 0441 01ba 476b b43d b70c 273e
000000b0: c25d 6f3d 5410 60bb 4db1 fc3d ccb7 963d
000000c0: 0fae 8c3d 8f8c cebd f79c b8bd db52 c2bd
000000d0: 165f a4bd 0944 143e fb81 2dbc 0fcb 3b3d
000000e0: 6e58 22bd f068 3dbc df17 1d3e 96c3 95bd
000000f0: 22f5 813d 529a 8ebd 66bb bc3d bcf4 a93b
00000100: 653e 983d 315e 073b 6239 213e 5909 c3bc
00000110: 0cbb fabc 7ba9 1fbd 56cf 313e a277 b13d
00000120: 9acb 173e a6b4 1fbd 1e24 06be a0a5 d6bd
00000130: fc91 babd d28f be3d b661 be3d 4842 0f3e
00000140: 76d0 16bc 1391 eebc 2a80 4b3d f2fb 9d3b
00000150: b38c 0e3e d4ba c13c 833b 183d f031 aebd
00000160: afef 84bd a483 4d3d 667f c93c f7ef 80bc
00000170: 5089 b13d 4468 c13d 42f7 9ebd 9eaf 54bd
00000180: 4fc2 023e 68bc f7bc 5405 12bd 2b43 1bbe
00000190: 248d 49bd c5e1 4b3d dca7 b63b 9d86 efbd
000001a0: 4fc1 bebc 0190 e4bd 8181 0cbe 707d 79bd
000001b0: 9cad ccbd e286 bebd 8c28 023e 070d 093d
000001c0: a57c cd3c 35a5 2ebe b2f8 d2bd 56b6 84bd
000001d0: 2507 553c 41ca 07be 7969 77bd 5894 c7bd
000001e0: 86d9 73bb 4a84 45bd 7ca9 7dbc 221c e0bd
000001f0: a8ec b8bd 573d 9ebd 6ccd 4ebd c059 ecbd
00000200: b457 ee3d f7a0 d53b 60dc 103e d7a8 d03c
00000210: 6d5c fabd 0b95 8f3d 1a08 50bd efaa b9bd
00000220: 7511 16be 923c 06be 9f2c 043d c2a8 0cbd
00000230: 7615 303d 5c41 d9bd 8640 aa3d 9380 c6bd
00000240: d815 263c 1c97 37bc bb4e c63d 8240 823d
00000250: 1ead 153e f13d 0cbe 6686 3bbb 677f a3bd
00000260: 22fa a7bc 1640 06be d167 a23d 8d0e f5bd
00000270: 35c6 5c3d 566f ef3c 2054 9bbc 98b6 0abe
00000280: d0fc da3d 1d7c 5b3d 80d0 2c3d 3d20 acbd
00000290: 498a 613d 408e fdbc 4daa aabd 831a 833d
000002a0: 14c2 cbbb 3b01 a9bd 375a dabd 37a6 0ebb
000002b0: fee7 d63d d246 82bd 4688 b0bd b362 48bd
000002c0: 60b7 ddbd 818a 1d3d 7d0f ac3d 68e1 02be
000002d0: dfc9 8f3c 66b6 4e3d 10f1 0a3c 80cb 67bd
000002e0: 014f 5c3d 1db3 5e3d c89a 593d 12b5 b6bc
000002f0: 54b8 f4bc c53e 9b3b 6335 8abb 5bd6 9ebc
00000300: 4537 c83d cc4c 983d af31 2dbd 3ba7 21bd
00000310: 609d 48bd e239 0bbd 777c 053d 6d29 81bc
00000320: fbff f7bd dfce 9ebd 66c6 323d e111 233c
00000330: 7602 233c acaf e9bd b106 77bd 8d46 15be
00000340: 0141 8dbd ab04 b83c 8ae1 8a3d f0fd b83c
00000350: 298b 0fbe 7513 cabd 8948 ffbc 09a2 cd3d
00000360: a15e 20bd 1f48 aebd c81c bc3c 9005 11bd
00000370: dfb4 8cbd 91d7 d33d f568 a1bd 65d4 5bbd
00000380: 128f 13be 8974 2e3d c78d 873d 8558 263d
00000390: 534d 03be 6b0b 03be 92a4 a9bd fa83 893d
000003a0: 7637 a33d d59a c53d 966b ae3d 9be2 bb3c
000003b0: 1ab1 af3c 5876 8abd f983 a8bd 4044 e1bd
000003c0: cd63 973d c011 16bd 443c d4ba 12d6 64bd
000003d0: 22d5 3dbc 2ef7 5bbd 9d87 29bd 27e9 5a3c
000003e0: 4a39 6cbd ae06 683d c74e 78bd d873 f7bd
000003f0: 13e8 8bbd f68d 12bd 2f75 08bd 263a c5bd
0.12943617 0.12524171 0.004584797 0.13631713 0.006918587 0.05672734 -0.028218456 0.10262013
0.14237802 -0.059293874 0.1432976 0.056460526 0.06893733 0.03533886 0.0860167 -0.027875694
0.15984473 0.08196203 0.005130924 0.036025092 -0.036979157 0.01797932 -0.0072507337 0.12670101
-0.08350355 -0.014108054 -0.03574542 -0.056749128 0.0074668406 -0.091300145 0.103738934 -0.07402378
0.08735372 0.054624576 -0.0011862111 0.110839166 0.044606294 0.1346874 0.049460724 -0.0052506514
0.060060043 -0.00049306476 0.08809524 0.16313444 0.058439024 -0.003418942 0.12338505 0.07359275
0.068691365 -0.10085403 -0.09014314 -0.0948846 -0.08025949 0.14479078 -0.010590072 0.04584795
-0.039635114 -0.011560664 0.15341137 -0.07312696 0.063455835 -0.06963028 0.09215431 0.0051866453
0.07433776 0.0020655508 0.15744546 -0.023808168 -0.030606769 -0.03897999 0.17364249 0.08665396
0.14823762 -0.03899064 -0.13099715 -0.10480809 -0.091098756 0.09304775 0.09295981 0.13990128
-0.009204974 -0.029121911 0.049682774 0.004821294 0.1392086 0.023648657 0.03716613 -0.085056186
-0.064910285 0.05017437 0.024596881 -0.015739424 0.086687684 0.09443715 -0.077620044 -0.051925294
0.12769435 -0.030241206 -0.035649613 -0.15162341 -0.049206868 0.049775857 0.0055742096 -0.11695597
-0.023285536 -0.11160279 -0.13721277 -0.060910642 -0.09994051 -0.093030706 0.1271078 0.03345969
0.02508385 -0.17055209 -0.10301341 -0.0648009 0.013002192 -0.13260747 -0.06040332 -0.09745091
-0.0037208511 -0.048221864 -0.015482303 -0.10942866 -0.090295136 -0.077265434 -0.050488874 -0.11540556
0.11637822 0.0065194326 0.14146566 0.025471134 -0.1222466 0.070108496 -0.050788976 -0.09065806
-0.14655097 -0.13109043 0.032269116 -0.034340627 0.042989217 -0.106081694 0.08313088 -0.09692492
0.010137044 -0.011205461 0.096829854 0.0635996 0.1461682 -0.13695504 -0.0028614043 -0.079832844
-0.020505015 -0.13110384 0.07929958 -0.11965666 0.053899962 0.029227894 -0.018961012 -0.13546216
0.106927514 0.05358516 0.04219103 -0.084045865 0.05506352 -0.03095162 -0.083332635 0.06401541
-0.0062182043 -0.08252188 -0.10661738 -0.0021766552 0.10493468 -0.06361164 -0.08619742 -0.048922252
-0.10825992 0.038462166 0.08401392 -0.12781298 0.017552314 0.050466917 0.008480325 -0.056590557
0.05378628 0.054370034 0.053126127 -0.022303138 -0.02987305 0.0047377073 -0.00421779 -0.019389322
0.09776167 0.07436523 -0.04228371 -0.039466124 -0.04897821 -0.03399075 0.032589402 -0.015766824
-0.12109371 -0.07754301 0.04364624 0.009952993 0.009949317 -0.1141046 -0.060309116 -0.14577694
-0.06897164 0.022463163 0.067812994 0.022582024 -0.14017929 -0.098669924 -0.031162517 0.100406714
-0.039152745 -0.0850985 0.022962943 -0.035405695 -0.06870436 0.103438504 -0.07881347 -0.053669352
-0.14410046 0.042591605 0.06618839 0.040611763 -0.12822466 -0.12797324 -0.082833424 0.06714626
0.07969563 0.096486725 0.08516614 0.022935202 0.021446753 -0.067608535 -0.08228297 -0.10999346
0.07392082 -0.03663802 -0.0016192277 -0.055868216 -0.011586459 -0.053702526 -0.041389097 0.013361252
-0.057671823 0.056646995 -0.060622003 -0.12082642 -0.06831374 -0.035779916 -0.03331488 -0.096302316

lstm.weight_hh_l0 f4 [256, 64]
00000000: 4412 e43d ff45 a23d 56ca 6ebd e678 3dbd
00000010: e59a 083d db16 263c 3351 e13d b51b 8cbd
00000020: b564 8dbd 638c d93b 2822 c0bd a9c4 e6bd
00000030: aa3a 8ebb cd24 183d 4c33 163d 9ef9 fa3b
00000040: 4ffd c23d 680e 0a3e bf89 243d 0dc8 ac3c
00000050: 88f7 b7b9 fc29 8ebd f4de a7bc 2175 83bd
00000060: 79b2 4dbd 7915 f83d 52c1 353d dea4 323d
00000070: 8642 e33d 7903 b2bd 5f61 d43c a919 aebc
00000080: 3b6b 793d 6abc bc3d 0fa4 203b 0a72 db3d
00000090: 4212 3fbb 6a70 dcbc cc24 003e 7376 ee3d
000000a0: 647d 2bbd 3b4d fb3d f0da 01bd a084 dfbc
000000b0: abf3 98bd a9bd 4dbd 14b1 493d 79cc 87bd
000000c0: ab37 c73c e628 753d 9d37 74bd 3f44 da3d
000000d0: a642 ef3d 2f3a 073e 8993 133e 98ee 4abd
000000e0: d4de 493b fef6 8ebc e4a2 c7bd e3be 3fba
000000f0: 1df9 803d 3a36 12be 81cb 2abd 63fd a03d
00000100: 92e0 f03d 5ff1 30bd 4bf2 d4bb a128 9ebd
00000110: 1173 933d 7441 893c 3e33 b9bc 375e 36bd
00000120: 98eb 01be a7ba f9bd 9cbc a3bc 194b babd
00000130: 0b1b 16bc d7f2 013e 6856 443c 20b6 cc3d
00000140: 3d59 22bd 511d 9c3d 99a2 ad3d c676 973a
00000150: bb80 073d 40fc 4f3d ebf9 c33d b29b 353d
00000160: 4540 9abd 2978 bc3d c527 473c 0f32 b23d
00000170: 2868 ecbd 554c f83d 74c7 b03d ab46 3abc
00000180: 99e4 173d 55a0 9bbd ed97 94bd 71da 44bd
00000190: 9529 e2bd 9190 0a3e 0af3 4e3d a280 983c
000001a0: a0bd d5bd 245d 53bd 957d 6d3c 2fbc efbd
000001b0: 7099 42bc d8b8 883d c236 2fbe 5747 3a3d
000001c0: b125 d8bd 58dc 34bd 536f 823d 560c 0f3e
000001d0: 40ed 693d 565a 233e 477c babd b676 42bc
000001e0: 90de aebd 3d25 5e3d 3d4e 9dbc 8878 f33d
000001f0: e4d5 26bd f45b 0c3d c331 e6bc 708f 7bbd
00000200: 5a3b e2bc 4ee6 7dbd e302 1dbe 96e9 963d
00000210: a1c2 dabc bec6 25bd 4b59 853d b156 28bd
00000220: 4f8e 403b 009a 503d b399 abbc 93a2 41bc
00000230: 5526 ae3d 5260 8dbd 66f4 1e3d 627a 3abe
00000240: 136d d0bd d313 273c d581 da3d d29e b2bc
00000250: 918b 27bc 891d 48bb 4bd0 0e3d bd7c 203d
00000260: e744 babd 54fc 0bbc 5754 d3bd 4c5b d83c
00000270: a00f 093e 294a 113e f706 83bd 4f0d 0cbc
00000280: c892 173b b283 9c3d d5fc c2bc bda8 c6bd
00000290: b492 90bc 6c5c de3d a8fe 733d 1e15 44bd
000002a0: a3f6 c3bd 5c2e 63bd e90e 4abb 9624 333d
000002b0: 6e0c b0bc 6842 39bd c957 0a3d 77b9 7c3b
000002c0: 87ff 233e 9f47 b93d b70b b6bc 4476 01be
000002d0: d574 813d d9b6 ec3b 51c8 043e 8a51 34bd
000002e0: 707e c83c db5a 77bd 92a1 ecbc b05a efbd
000002f0: ca6a 213c 82e5 44bc fd6b a33d d4fe c23d
00000300: ef0b fb3d 31d0 843c d4e1 fe3b b0a8 b43d
00000310: 0edd b0bd 3cb6 19be 16be 84bd da2e 613d
00000320: 364e 033e 7f06 77bd acd7 febd c2e7 f5bd
00000330: 347e bf3d f41c 32bd eab1 903d c95e f13c
00000340: 5948 b73d c031 b73d 2901 4b3d 930f 813d
00000350: d7bf 0cbe 3307 dc3c 01f6 86bd ac12 1ebd
00000360: 0e07 9c3d 5d90 c5bd 5f81 f23d f2cc 853d
00000370: 29ff 88bd b877 15bc db58 a4bd 92f4 ae3d
00000380: c1d3 6ebb 8189 123e 865d 013d 0d8a 8a3c
00000390: ad66 0d3d 2dd6 253d 53d1 21bd 28a6 933d
000003a0: ef3b 8ebd 792f 923d ce21 5b3a 93b9 c23d
000003b0: 957f a4bb 4489 593d bed2 0f3e 0ffb c93c
000003c0: 4daf d63d 6b0f fcbd 8b62 a2bc e738 b3bd
000003d0: b7e1 0e3d 154b fc3c 7b31 6f3d b645 15bd
000003e0: 7009 293d 6f9e 5bbd fd3b 20bd a6f6 6b3d
000003f0: acc1 07be 1626 513c 4628 f4bd 50b3 143d
0.111362964 0.07923507 -0.05829843 -0.046257876 0.033350844 0.010137285 0.11001816 -0.06841222
-0.06903974 0.00663905 -0.09381515 -0.11267979 -0.0043404894 0.03714447 0.036670014 0.007659151
0.09520971 0.13482058 0.040170427 0.021091485 -0.00035088905 -0.06941602 -0.020492055 -0.06418825
-0.050219033 0.121134706 0.044373818 0.04361426 0.11096673 -0.086920686 0.025925336 -0.02125247
0.06089328 0.09215625 0.002451185 0.107151106 -0.002915517 -0.026909072 0.12514037 0.11643686
-0.04186763 0.1227059 -0.031702936 -0.02728492 -0.07468351 -0.050229702 0.04924114 -0.06630797
0.024318537 0.059853457 -0.05962335 0.10657548 0.11682634 0.13205789 0.14411749 -0.049543947
0.0030802982 -0.01745176 -0.09747866 -0.0007314516 0.062975146 -0.14278498 -0.041697983 0.0786083
0.117615834 -0.04319894 -0.00649861 -0.07722593 0.071996816 0.016754843 -0.022607442 -0.044523444
-0.12687528 -0.12193804 -0.019987397 -0.09096355 -0.009161721 0.12690292 0.0119834915 0.09995675
-0.039635886 0.07622779 0.08478279 0.0011555783 0.03308175 0.050777674 0.095691524 0.044337936
-0.0753179 0.09202606 0.012155478 0.08700954 -0.11543304 0.12123934 0.08631793 -0.011369388
0.037083242 -0.0759894 -0.0725554 -0.048059884 -0.110430874 0.1353171 0.05052475 0.018616024
-0.10436559 -0.051602498 0.014495273 -0.11705815 -0.011877403 0.06675881 -0.17110732 0.04547819
-0.10554064 -0.04415545 0.0636889 0.1396955 0.057111025 0.15952429 -0.09105735 -0.011869123
-0.08538544 0.054234732 -0.019202346 0.11888224 -0.040731326 0.03426738 -0.0280999 -0.06141609
-0.027616192 -0.061987214 -0.15333132 0.07368772 -0.026704134 -0.04047274 0.06511172 -0.0410983
0.0029381698 0.050928116 -0.020947313 -0.011818546 0.08503405 -0.06903137 0.038807295 -0.18210748
-0.10177054 0.010197598 0.10669295 -0.021804247 -0.010226146 -0.0030535182 0.034866612 0.03918146
-0.09095173 -0.008544046 -0.10318821 0.026410721 0.13384867 0.14188446 -0.06397813 -0.008548095
0.002312826 0.076423064 -0.0238022 -0.09700153 -0.017648079 0.10857472 0.05956903 -0.0478717
-0.095685266 -0.055464134 -0.003083164 0.043736063 -0.021490302 -0.045229346 0.033775125 0.0038562694
0.16015445 0.09046864 -0.022222383 -0.12642771 0.06321112 0.0072239456 0.1296704 -0.044023074
0.024474353 -0.06038938 -0.028885636 -0.11687219 0.009852121 -0.01201761 0.079795815 0.09521261
0.122581355 0.016212555 0.0077783857 0.08821237 -0.08635913 -0.15010923 -0.064815685 0.05497632
0.12822804 -0.06030893 -0.1244348 -0.12007095 0.09350243 -0.043484643 0.070651844 0.029464142
0.08949346 0.08945036 0.049561653 0.06301799 -0.13745056 0.026858902 -0.0658989 -0.038592026
0.07618533 -0.09646676 0.11841082 0.06533231 -0.06689293 -0.009122781 -0.0802476 0.08542742
-0.0036442133 0.14310266 0.03158333 0.01691153 0.034521747 0.040487457 -0.039506268 0.07209426
-0.06945025 0.07137961 0.00083592243 0.09508052 -0.005020092 0.053109422 0.14045236 0.024655847
0.10482655 -0.12307628 -0.01982238 -0.08751088 0.034883227 0.03079752 0.058396798 -0.036443435
0.041268766 -0.05361789 -0.03911971 0.05760827 -0.13257474 0.012765428 -0.11921744 0.03630382

lstm.bias_ih_l0 f4 [256]
00000000: 1c7e 773d f4c2 a1bd f827 8e3d b168 de3d
00000010: 113e ba3c 3c79 78bd 8264 8abc 6e5a 01bd
00000020: f308 cebd 89ac a8bd 521e 153e 056a 5abd
00000030: 5fb9 80bd 8b2a 5ebd 1b1e b7ba 9d5f e83d
00000040: 3e60 c6bd 0ecb c6bc d57c ea3c 54ed 933d
00000050: 131d a7bc 659f 5ebc 8e2c 54bd 47f2 df3b
00000060: 4a3a cb3d c98d acbc 85ca cc3b 4f36 cebc
00000070: cf83 713d 6dfe 72bd a234 773d 57e7 f0bd
00000080: 6881 2d3d d473 a33d c26c 9abd ab32 bb3b
00000090: b0cf 83bd cfed 89bc 32f0 973d 5290 e7bc
000000a0: be69 b93d ff43 b63d 0daf f73d e10c aabc
000000b0: 08f9 80bd 93a3 ac3d 4a7f 8d3b c675 12bd
000000c0: 09b6 29bd 44be 123e 051e 23bd 8ef1 6f3d
000000d0: ee3d 363d d881 02bd 8d72 c23d dab3 993d
000000e0: a844 ef3d b17c 763d 99ba 793d 9d98 b53d
000000f0: b9ef 71bc 1831 96bd 3055 0a3d 75c8 b93c
00000100: 58ed e03d c56e 143d 123a e63c 2181 7bbc
00000110: 8660 ae3d 0aeb 283e ccf1 173e 2d28 b63c
00000120: a5b1 55bd 3d63 a0bd 0f32 98bd d51c 97bd
00000130: cf87 e8bc 0035 be3d ab9c e6bd cc15 263b
00000140: 1193 9a3d fb7c aa3d d025 343d 3eca c53a
00000150: 45d0 343d 5930 89bd d95c a33d f7d4 d73d
00000160: a24c 163d 7447 073e eef2 da3d 8057 60bd
00000170: 0a0e a3bc c7f3 b1bd f6d5 783d 773c c1bd
00000180: eaeb d73c 064e a4bd 00db bc3d 13f9 83bd
00000190: c0b6 d5bd ef1e 2cbd e5f0 503d d601 ccbc
000001a0: 841f 213d ed67 293d 75a7 76bd 0eb7 9c3c
000001b0: 6871 fd3d 21ef 7cbd 5078 123e 5838 6a3d
000001c0: b3d4 c33d 2936 1a3c 276e 1f3e 49ef 8cbd
000001d0: fb8d 82bc 4220 f23d 9f41 cbbc 544d da3d
000001e0: 6a08 babc 38ec b8bd 580d 113e f27a 133e
000001f0: 7c56 9f3d e82e bdbd d5c2 713d 45d8 adbc
00000200: 6268 0f3e 9301 873c f86f bdbc 7cba 04be
00000210: 23fb e3bc cb4f de3d 305a f6bd 9f50 a23c
00000220: cc95 afbd d100 adbc 85bf 54bd e086 a4bc
00000230: fbe1 bdbc dc13 12bc 2567 11bd 9e79 2e3d
00000240: 709a e539 68ae b0bd 4da7 9c3d 38f8 0b3e
00000250: 88a7 453d fc2c 663d 5044 62bb 40ec cf3d
00000260: 6bdc 8ebd 4360 493d bbd3 d53d 7a95 23bd
00000270: 703e 90bd 8e06 853d d2ff dcbc adab b43d
00000280: b73d 19bd 6c68 d13d 6881 d73d dcba 653d
00000290: 15ad 013d 0e1f a8bc 9275 bd3d 83df a8ba
000002a0: 754f 41bd f354 f53d cff7 03bd d118 ac3d
000002b0: 96ec 943d ac9a 37bd 1fe2 c43d 00cd 58bc
000002c0: 8082 873d adc5 9ebd ed09 493d 698d cd3d
000002d0: bfa4 4fbd 61be 153e ba13 a9bd 90e7 583d
000002e0: f244 2a3d b82c 493c b673 393d 45fd e53c
000002f0: d76d 2bbd 3bd3 f0bd 77ad f6bd fa17 09bc
00000300: d139 ab3c f694 763c d4c8 143d dc2b 9cbd
00000310: 8891 06be c131 9c3c 8677 b2bd 3ce9 c73d
00000320: 7851 22bd 3c50 15bd 8c90 853d 18ec 6e3d
00000330: 415c ae3d e704 193c 8576 923d 1788 7b3d
00000340: fd5c 0d3e 11ee 9c3d b94e c53d 7ae7 3c3d
00000350: 5bc4 d13d cb22 563c 5252 45bd c0c4 0ebd
00000360: 608c bd3d d23f 113d e01a 1c3e 08ee 0e3e
00000370: 49d9 0d3e f973 683b b109 c13d 866c 023d
00000380: 8f7a 243d 6d0a 883d b74f 41bd 5e1d 123e
00000390: 2f89 543d aaf3 433c de6c 88bd 84d4 debc
000003a0: c6f1 0f3c b745 6a3d 9058 803d 1fcf 163e
000003b0: 135b 0f3e 342f 863c ee4c 8a3c 88df f53d
000003c0: f2cb e23c 6d39 723d f511 113d 2794 053e
000003d0: f9d9 f93d 2418 a93d e581 9a3d 0442 01bc
000003e0: febf a03d 5e8b 73bd 44e7 49bd d586 b63d
000003f0: 8b66 6d3d d1f2 73bd cbb0 ad3d 0457 973d
0.060423 -0.078985125 0.06941217 0.10859812 0.022734674 -0.060662493 -0.016893629 -0.03158038
-0.10060301 -0.082360335 0.14562348 -0.053323764 -0.06285357 -0.05423979 -0.0013970764 0.11346362
-0.096863255 -0.024266746 0.028623978 0.07223001 -0.020399606 -0.013587807 -0.051800303 0.0068343016
0.09923227 -0.021063702 0.006249728 -0.02517238 0.058963593 -0.05932467 0.06035293 -0.117628746
0.04235974 0.07981077 -0.07540275 0.005712827 -0.064360976 -0.016837029 0.074188605 -0.02826706
0.09053372 0.08899688 0.12093935 -0.020758094 -0.06297499 0.08429637 0.0043181526 -0.03575685
-0.041433368 0.14330393 -0.03982355 0.058579974 0.044492655 -0.03186211 0.09494505 0.07505007
0.11683017 0.06017751 0.06096897 0.08866999 -0.014766627 -0.07333583 0.033772647 0.022678593
0.1098277 0.03623845 0.028103862 -0.015350611 0.08514504 0.1649591 0.14838332 0.022235954
-0.05217137 -0.07831428 -0.07431423 -0.07378546 -0.028385071 0.09287453 -0.11260351 0.0025342582
0.07547582 0.083246194 0.043981373 0.001509018 0.044143934 -0.06698675 0.07976694 0.10538667
0.036694176 0.13210851 0.106908664 -0.054770947 -0.019904155 -0.08689075 0.060750924 -0.09435361
0.02635761 -0.08022694 0.092214584 -0.064439915 -0.104352474 -0.042021688 0.051010985 -0.02490322
0.039336696 0.041358877 -0.060218293 0.019130256 0.12375146 -0.06175149 0.14303708 0.05718264
0.095620535 0.009412327 0.15569364 -0.068815775 -0.015936842 0.11822559 -0.024811564 0.106592804
-0.02270909 -0.0902943 0.14165246 0.14402369 0.077801675 -0.09237462 0.059023697 -0.02122129
0.14004663 0.016480243 -0.02312468 -0.12961763 -0.027829712 0.10855063 -0.12028921 0.019813834
-0.08573493 -0.021118553 -0.05194046 -0.020083845 -0.023179045 -0.008915868 -0.035498757 0.042596452
0.0004379335 -0.08627015 0.076490976 0.13668907 0.048255473 0.056195244 -0.003452558 0.10152483
-0.06975635 0.049164068 0.10440775 -0.039937474 -0.07043159 0.06495391 -0.026977453 0.08821807
-0.03741237 0.10224995 0.10522729 0.056086406 0.031659205 -0.02052262 0.092509404 -0.0012883994
-0.047194917 0.119790934 -0.03221875 0.08403171 0.07271688 -0.04482524 0.09613442 -0.01323247
0.06616688 -0.077525474 0.04908173 0.100367375 -0.050694223 0.14623405 -0.08255716 0.05295521
0.041569658 0.012278728 0.045276366 0.02807487 -0.0418528 -0.11759039 -0.120448045 -0.008367533
0.020901592 0.0150501635 0.036324337 -0.07625553 -0.13141453 0.019066693 -0.087142035 0.09761283
-0.039628476 -0.03645347 0.06521711 0.058330625 0.0851369 0.009339548 0.07151512 0.061409082
0.13805003 0.07662595 0.09634156 0.04611919 0.1024253 0.013069819 -0.04817421 -0.034855604
0.0925529 0.035461254 0.15244627 0.13957989 0.13852419 0.0035469516 0.094256766 0.031841777
0.040155943 0.066426136 -0.047195163 0.14269015 0.05188864 0.0119599495 -0.0666139 -0.027200945
0.008785671 0.05719539 0.06266892 0.14727448 0.13999586 0.01637993 0.016882386 0.12005526
0.02768514 0.059136797 0.035417516 0.13044797 0.12199778 0.082565576 0.07544307 -0.0078892745
0.078491196 -0.059459083 -0.049292818 0.08912436 0.05795912 -0.05955774 0.08480986 0.07389644

lstm.bias_hh_l0 f4 [256]
00000000: c483 c93d 1a2b f3bc 481d dabc 4a6b 863c
00000010: 75cf d9bc 8639 7e3d 698b 83bd ced1 003e
00000020: 92f3 0a3e bf2e 00bd f789 233e b5c1 6d3d
00000030: 8fcb 4a3d 9c5a 14bc e16f ff3d 88e0 0e3c
00000040: 297e 643d 6607 023d bc03 8b3d 752b a5bc
00000050: f099 0bbd 44cd d03d cd87 c9bd 6fd1 3abd
00000060: ce80 1b3e 80f7 dbbc 409c 4a3c 706f 62bd
00000070: 5bc6 b0bb 0ae9 dfbc eaaf ab3d b13c 973d
00000080: 2e4b e13d dd4c 09bb bbc2 053e 3f78 903d
00000090: 0321 b3bd 9dfc 81bd fc59 06ba 5a78 1b3e
000000a0: 3463 963c 42b3 5cbd cdf8 a63d cabf c4bd
000000b0: 1303 123e 80d4 f83a e995 263d ca59 02bd
000000c0: 01a9 103d 263b 033d 092a 1f3e 3543 0f3e
000000d0: eb84 953d 744a 403a c148 bd3c 3abb 9fbd
000000e0: ec18 d73d aad2 81bb 3ae3 c3bd 484e 373c
000000f0: 742f 81bd 08ad 97bd 9690 4f3d e5c1 a53c
00000100: 173a 15bd 723e 9abd 5525 823d b244 603d
00000110: 6091 843d 8a68 f33d 45cb 65bd ca12 be3d
00000120: b5f8 d7bd c7d2 b1bd 74b3 c93d bea2 0f3e
00000130: e860 8c3d e30c 2cbc 2603 6bbd 2d59 253e
00000140: e8f0 6bbd 9449 0c3e 02c5 13bd 98cd afbd
00000150: 308d 203d b3be 3e3d a89a afbd ec23 fbbb
00000160: 461d 1c3c 28e1 0b3d 5c10 e5bc b24d 353e
00000170: 23e9 7ebd 7310 c43d 242d 4e3d c01c 10bd
00000180: 5c73 4d3d 40c5 acbd 6ff6 70bd a5f4 b33d
00000190: 221a 68bd 8337 8c3d b0f0 debd 9d83 4e3d
000001a0: 9e28 00be aa72 c43d d97d fc3d 451f c93d
000001b0: 4bb6 9a3d 7783 ca3d a344 143e 7c09 ba3d
000001c0: 9375 aa3d a368 933d 68b3 b73d dbfb dd3d
000001d0: f08e 083e 5df9 403b 20e5 863d 44ea 8d3d
000001e0: af03 a5bd 0e24 8abd a038 30bc a79d 763d
000001f0: 60fa d83d ace7 9d3d b0e6 bf3d dc58 9bbc
00000200: 5f03 64bc 796c 09be ec07 65bc 7576 07bd
00000210: 67dd 93bd 9ba6 9c3d 1b58 563d 518c 353d
00000220: 2053 98bd 84f0 22bd a6a9 06be e8df c2bc
00000230: d4ac 283d c27c 003e 5b11 babd 5cd6 30bd
00000240: 8c8d a0bd a47e 873d 1c66 063e f0d4 c6bd
00000250: 3117 97bd 0e25 ac3b b334 bebd 92a7 debd
00000260: b783 c7bd 8517 a13d 95f4 803c bc94 adbd
00000270: ad4b adbc 5c12 113e 5350 03be 8e62 853d
00000280: 4236 513c d2cc d8bd 1fa6 003e 13c5 86bd
00000290: f18f da3d 381f 063d c758 023d 01e1 9b3a
000002a0: db4e d7bd 0b00 ae3d 73b4 37bd 1d32 973d
000002b0: 4baf 0c3e 206c 08bd 76c8 e63c 5260 253d
000002c0: 2b9c 1fbd 56be 7e3d 177b 94bd a760 983d
000002d0: 85b5 28bd d2c1 d83c c0fe 42bd 2c12 e43c
000002e0: b7e9 b73d 779d 153d 5a5e 2dbd d39f e33d
000002f0: ae5b 023e 8d04 8abd df5c d5bd 91c3 c0bd
00000300: e2bd 2c3d 96b4 163e 8cbd a13d 1c12 9b3d
00000310: 6abd 08be 2187 eb3d e409 b73d b201 78bb
00000320: 2c8e a0bd 6431 d93b a5c0 6abd ff91 173e
00000330: 5149 64bd 110e ef3d 698d c3bd 1dcb e43d
00000340: 5e10 b7bc e31a 63bd e545 ad3d bc58 213e
00000350: cb73 3dbc 3c70 153d d0eb 8ebd 35b0 f23d
00000360: e51b 063e c093 0bbc 57ad 193e 64c4 063e
00000370: 43e4 3f3d dcaf 11bd 0591 ce3d 6e49 b03c
00000380: 6b4a 21bd b7c7 bebd 2620 bebd 09ea 1e3e
00000390: d732 76bd 22f0 5dbd 6811 d83d 26d2 ce3b
000003a0: f869 96bd df4b 743d 599a 7abb ab1a 953d
000003b0: 0673 2a3e 6a6a 25bc ac74 e43d 18fd 86bc
000003c0: 2fa2 83bc 8b9c 9d3d 1856 633c 4224 6d3d
000003d0: 34c8 a63d 5174 95bd f8a9 6d38 40ef f23d
000003e0: 0e54 1a3d 99b8 163e 3003 023e 7552 543c
000003f0: 4ed9 ddbc 0048 823d a105 603c db6c 1f3b
0.098395854 -0.029683638 -0.02662529 0.016408581 -0.026588181 0.062066577 -0.06423075 0.12580034
0.13569477 -0.03129458 0.15970598 0.05804606 0.049510535 -0.009054806 0.12472511 0.008720525
0.05578438 0.031745337 0.06787822 -0.020162323 -0.034082353 0.10195401 -0.09840355 -0.045609888
0.15185854 -0.026851416 0.012366354 -0.055282056 -0.0053947396 -0.027332801 0.08383162 0.07384623
0.110006675 -0.0020950355 0.13062565 0.07054185 -0.08746531 -0.0634701 -0.0005125103 0.15182629
0.01835785 -0.05388189 0.08152924 -0.09606893 0.14258985 0.0018984228 0.04067031 -0.03182391
0.035317425 0.03203883 0.15543379 0.13990481 0.07300743 0.0007335313 0.02310598 -0.077993825
0.105028 -0.0039618807 -0.095648244 0.011188097 -0.06307879 -0.0740605 0.050674997 0.020234058
-0.036432352 -0.07531442 0.06354777 0.054753013 0.064730406 0.118851736 -0.056102056 0.092809275
-0.10545484 -0.08682781 0.09848681 0.14026925 0.06854421 -0.010501119 -0.05737605 0.16147299
-0.057602793 0.13699943 -0.036076553 -0.08584136 0.039197147 0.046568584 -0.0857442 -0.0076641943
0.009528464 0.034150273 -0.027961902 0.1770542 -0.062234055 0.0957345 0.05033602 -0.035183668
0.050158843 -0.0843606 -0.058828767 0.087868966 -0.056665547 0.068465255 -0.10885751 0.050418485
-0.12515494 0.09592183 0.12328691 0.09820417 0.07554301 0.09888356 0.14479308 0.0908384
0.08323207 0.07197692 0.08969766 0.10839053 0.13335776 0.0029445507 0.06586671 0.06929448
-0.08057343 -0.06745158 -0.010755688 0.060208943 0.1059463 0.077102035 0.09370172 -0.01896327
-0.013916819 -0.13420285 -0.0139789395 -0.033071954 -0.072199635 0.07648965 0.052330118 0.04432327
-0.0743773 -0.039780155 -0.13150653 -0.023788407 0.041180447 0.12547591 -0.090853415 -0.04317318
-0.07839498 0.06615952 0.13124889 -0.09708583 -0.0737747 0.0052534407 -0.09287395 -0.10871805
-0.097419195 0.07865814 0.015741626 -0.084756345 -0.02115425 0.1416716 -0.1282361 0.065129384
0.012769284 -0.105859414 0.1256337 -0.06580558 0.10671986 0.032744616 0.031822946 0.0011892618
-0.10513087 0.08496102 -0.044849824 0.07382605 0.13738744 -0.03330624 0.02817176 0.04037506
-0.038967293 0.062193237 -0.0725004 0.0744031 -0.041188736 0.026459608 -0.04760623 0.027840696
0.089801244 0.036527123 -0.04232631 0.111144684 0.12730286 -0.06739149 -0.104181044 -0.09412301
0.042173274 0.14717326 0.07897481 0.075718135 -0.13353506 0.11500383 0.08937433 -0.0037842807
-0.07839617 0.0066282023 -0.057312626 0.14801787 -0.055733982 0.11672605 -0.09548456 0.11171553
-0.022346672 -0.055445563 0.08460597 0.15756506 -0.011563252 0.03648399 -0.069785714 0.11850015
0.13096578 -0.008519113 0.1500753 0.13160855 0.046848547 -0.035568103 0.10086254 0.021519389
-0.03937761 -0.09315436 -0.092834756 0.15518965 -0.06010708 -0.054184087 0.10550195 0.0063116727
-0.07344431 0.05964267 -0.003823897 0.07280477 0.1664544 -0.010096172 0.11155066 -0.016478106
-0.016068546 0.07695874 0.013875507 0.057895906 0.081436545 -0.07297576 5.66635e-05 0.118620396
0.037677817 0.14718856 0.12696528 0.012959112 -0.027081158 0.06361389 0.013673217 0.0024326358

lstm.weight_ih_l1 f4 [256, 64]
00000000: fe47 be3c 5139 65bd 1e28 f13c a200 d5bd
00000010: 78f5 ddbd 3edf 03be c19a 55bd 0678 2fbc
00000020: 2e1a f0bd 870e 023d bfc3 37bd 99f1 a0bc
00000030: f00e e03b 8138 49bd f7b8 cf3c 5172 b63c
00000040: f989 823d 33f9 e93d 515d e33c 5504 f73c
00000050: 8757 133b eb36 95bd c355 90bd 0eef 063e
00000060: e0a4 d1bd cffb 11bd dc0e 133e 7159 383d
00000070: c323 0cbe 5ce0 1e3e ba54 83bd a65b 8a3d
00000080: c6ee 213d cd25 31bd 896f fbbd 632c 7ebd
00000090: 1b9c 8bbd 046d 77bd 299e eebd 148e 0d3d
000000a0: 1f64 a1bd 2afe 923d 8ecf df3d 6586 9d3d
000000b0: 0c73 b73d d1db dfbc c6bd 8d3d e490 e33d
000000c0: 5e90 beb8 0961 4b3d 3b7e 473d e61c 2a3d
000000d0: affb 9a3d 35cb 753d a4e0 1dbd 2b10 c0bd
000000e0: 5ca4 f13c 4450 fdbd d106 29be 3282 093e
000000f0: a138 833d 147d 5fbd 76ee 8b3d b4f0 093d
00000100: f702 243e 68fd f53c 5b1b e63b 0941 29be
00000110: 99ce 033d b73b e9bd f8ea 54bd e41c 2c3d
00000120: b461 4ebd 2029 e33d 9255 15bb 299b af3c
00000130: 0a63 113e d0ca 3d3d 53c3 563d 5fa2 e9bc
00000140: 4e28 d23d c21f b03d eda7 b93d d1c6 0d3e
00000150: edbd e63b dda8 123d 75e2 69bd 6df4 923d
00000160: 64be c5bc c17e 27bd bc9e 09bd 8172 dc3d
00000170: 346a a63d a97b babd f308 173d 6da5 c93d
00000180: b4cb f6bd 57ed 323d 01d2 f23c ee37 483d
00000190: 9f1e ec3d e9cb b23d 84cb cfbc f98f e0bd
000001a0: b17b 9c3d 9767 0b3d 578c 873d 90f3 233d
000001b0: 2c4a 603d 30d7 223d ed09 23bd 57dc bf3c
000001c0: c9bf 093d 52ce 9bbd aed5 2f3c 294c 3b3d
000001d0: 2386 22be cfb9 dc3d 2127 8ebd 4e29 1c3d
000001e0: e16e f7bc ac28 99bd ee56 713c 26d8 1d3d
000001f0: de62 f7bd a31f 083c cf47 84bd 281c d5bd
00000200: 6438 073e 4432 64bd f951 93bd 16b1 00be
00000210: 593f 9b3d 56df 70bd 8eaf 76bd 0b6b 2f3d
00000220: 903d 913d f4db d73c c6fd 0abd cae4 19be
00000230: be8b b839 c087 883d f4f2 0fbe db94 71bd
00000240: b1c2 b3bc c348 5d3d 8cd2 ccbd 46cf d1bd
00000250: 3f6e e9bd ec88 40bd a177 213e 9e7d f53d
00000260: b929 5c3d 7794 8cbc 7f73 1a3e af37 b23d
00000270: 3a12 79bd 258d 54bd f032 0d3e 53bd cdbd
00000280: a71b 9ebd c834 3d3d 5399 a9bb f823 b4bd
00000290: 906b 90bd 0e63 b53b 071b 7bbd f3d0 cbbd
000002a0: b80d 88bd 9d3b 50bd 723d 22be e7c9 9d3d
000002b0: bf02 da3b ddb9 26be 796a 663d 7c24 b63d
000002c0: 6c80 56bc be25 8fbd f439 afbd f1f3 a23d
000002d0: b84b be3d 738f 5c3d 2e2f aebc 45bf cdbb
000002e0: c477 b03c 3647 853d 5ebc 473d c19a df3d
000002f0: 6cd8 debd e9ad 2ebc 9707 e6ba 7982 2e3c
00000300: 1e24 6a3d 62ed 83bd d6ce 1d3d 0529 803d
00000310: 092c ef3a fda2 153d f003 a23d 679d 503c
00000320: e5a9 b8bc 9b4e ec3d 0053 89bd 6722 843d
00000330: 105a c63b 59a0 0d3e c5a5 1abd 61fb 663d
00000340: 0955 e03d f2a6 38bb 939d d3bd 73c0 273d
00000350: be76 88bd 204f 88bd 795f 2a3e 42a5 583d
00000360: a417 a2bd 7572 103e df00 373d 3d51 b63d
00000370: 2778 88bc fac1 013e e8dc ac3d f206 81bc
00000380: 9c83 f1bd 2407 b03d 6bde cbbd a580 53bd
00000390: a7a2 863c ba03 323e 4ea6 9cbd 99bb 89bb
000003a0: cf07 b23b d29b e53d 299b e43d be9d 92bd
000003b0: 234f 093e f3eb 623d a486 393c aea7 47bd
000003c0: 00e9 9a3d e462 8cbd 5af1 30bd cca4 283d
000003d0: d7a9 943c 1ae8 673c 0685 153e 03d3 49bd
000003e0: 26b2 c83d 929c 8a3c 3b38 3b3d e2f2 a9bd
000003f0: 153b 6fbc 2025 453b 2143 803d 8863 d73d
0.023227688 -0.055962864 0.029438075 -0.10400511 -0.10837835 -0.12878129 -0.052149538 -0.010709768
-0.117237434 0.031752136 -0.044864412 -0.019646453 0.006837718 -0.049126152 0.025356753 0.022271307
0.063739724 0.11424484 0.027754458 0.030153433 0.002248259 -0.072858654 -0.07047608 0.1317713
-0.102365255 -0.035640534 0.14361137 0.045007173 -0.13685517 0.15515274 -0.06412645 0.06755762
0.039534353 -0.04324894 -0.12277133 -0.06205405 -0.06816884 -0.0604067 -0.116512604 0.034559324
-0.07880425 0.07177384 0.1092826 0.07691649 0.0895749 -0.027326496 0.06920962 0.1111162
-9.0867965e-05 0.049653087 0.048704367 0.041531466 0.07567536 0.060008246 -0.038544312 -0.09378084
0.029497318 -0.12368825 -0.16506507 0.13428572 0.064072855 -0.054562643 0.06832592 0.033676818
0.16016756 0.03002806 0.007022304 -0.16528715 0.03217945 -0.11388343 -0.051981896 0.04201974
-0.050386146 0.11091828 -0.00227866 0.02143629 0.14197937 0.046335995 0.05243237 -0.028519807
0.10261594 0.08599807 0.090652324 0.13845374 0.007041684 0.03580557 -0.057100732 0.07175527
-0.024138637 -0.040892366 -0.033598647 0.107640274 0.081257254 -0.091056176 0.03687377 0.098460056
-0.12050572 0.043683376 0.029641153 0.048881464 0.11529278 0.08730299 -0.025365598 -0.109649606
0.0764078 0.034034338 0.066185646 0.0400272 0.054758236 0.039756 -0.039804388 0.023420496
0.033630166 -0.07607712 0.010732098 0.04572693 -0.15871482 0.10777628 -0.06941057 0.03812533
-0.030204238 -0.07478461 0.014730198 0.038536213 -0.12079404 0.008308324 -0.06459009 -0.10405761
0.13205105 -0.055712 -0.071933694 -0.12567553 0.07580442 -0.05880674 -0.060226016 0.042826694
0.0709182 0.026349999 -0.033933423 -0.15028682 0.0003519933 0.06666517 -0.14057523 -0.05897985
-0.021943422 0.05402447 -0.10001096 -0.102446124 -0.11397981 -0.04700558 0.15768291 0.1198685
0.053750727 -0.017160637 0.15083121 0.08702027 -0.060808398 -0.05189242 0.13788962 -0.10045876
-0.07720118 0.046192914 -0.0051757484 -0.08795923 -0.07051766 0.00553549 -0.061305072 -0.09951963
-0.06643242 -0.0508381 -0.15843752 0.077045254 0.0066531594 -0.16281839 0.056253884 0.088936776
-0.013092142 -0.069896206 -0.085559756 0.079566844 0.09291786 0.05384774 -0.021262731 -0.0062789046
0.021541484 0.06507723 0.048763625 0.10918189 -0.10881123 -0.010661581 -0.0017549869 0.010651224
0.05716335 -0.064417616 0.038527332 0.06257824 0.0018247376 0.03653239 0.07910907 0.01273284
-0.02254195 0.1153843 -0.06705284 0.06451874 0.0060532168 0.13830699 -0.037755746 0.056392077
0.10953719 -0.002817568 -0.10332789 0.04095502 -0.06663273 -0.06655717 0.16637982 0.052891977
-0.07914665 0.14106162 0.044678565 0.08902214 -0.016658856 0.12671652 0.08440572 -0.015750382
-0.117926806 0.08595112 -0.09954532 -0.051636357 0.01643498 0.17384234 -0.076489076 -0.0042032716
0.0054330598 0.11211361 0.11162407 -0.07158993 0.13409095 0.0554008 0.011323605 -0.048743896
0.075639725 -0.068547994 -0.04319892 0.041172788 0.018147392 0.014154458 0.14601526 -0.049273502
0.09799604 0.016920362 0.045707922 -0.08298279 -0.014601489 0.0030081943 0.06262804 0.10517031

lstm.weight_hh_l1 f4 [256, 64]
00000000: ee33 7dbd 3207 bcbc 60e7 19be dfe8 5c3d
00000010: 40ac debd 0e98 403d eceb 8cbd 2568 bf3d
00000020: 24e7 e53d ca4c b7bc 49bd 843d 381c f03d
00000030: 2bfb 96bc e055 ad3d b93d 1f3d c50d f83d
00000040: 394a 873d 5c1b 8e3d 3931 373d 3aaf b03d
00000050: db24 c13d bb96 98bd 7ede 863b 3dfa fa3d
00000060: 0008 3cbd 1dba 423c 1a68 493d a42e 033e
00000070: 4116 393b c723 073e 1207 97bd ab0e 5fbb
00000080: 134d 013d 5d11 b8bc 1526 d7bd 4bb1 adbd
00000090: 31d8 2ebc cbed 87bd ca9d 783c a3b9 863d
000000a0: 5c00 62bd a917 cc3d eedf 83bd d271 6e3d
000000b0: b6b5 193d d23c babd 12f9 063d 04bf 103e
000000c0: 5035 043e 366c 04be bfab 6dbd f7c5 da3d
000000d0: 87a4 f23d 3642 67bd 43a0 8ebd a223 8cbd
000000e0: c47f ef3d 3e01 773d 5f32 dc3d 585c f7bd
000000f0: 4b68 143d 2bd8 793d 7cc4 bcbb 1f0e 953c
00000100: 7352 6ebc e73e c13d ce29 1bbe 219f ed3d
00000110: f5fe dc3c 6a03 9abb 5e59 e3bd 0f00 fe3d
00000120: d785 b03c 3121 b5bd 6785 143e 8b06 083e
00000130: b7a1 cc3d 950e 1b3e 271b d83d 391e 90bd
00000140: b573 883d d2cb cb3d e83e 093c 3003 a03d
00000150: 34a6 1abd 7988 98bd e7d5 b03d c148 8cbd
00000160: dbe7 89bd 41dd 9ebd 54a6 313d c5c0 f8bc
00000170: a58d e33c cd27 113e 0a2a 4b3d 925a d5bc
00000180: f9ae c6b9 89c2 253d 6ad0 6439 33e8 f8bd
00000190: 3770 803d 0ce8 8c3d 07d7 e23c 2dc8 623d
000001a0: 3ea4 1a3e 8053 8e3d 9487 9dbd ba6c 0a3e
000001b0: 8840 63bd e12c 1c3e f329 563d 05c2 f93c
000001c0: 6798 e23d 62cf 4f3d fc58 a23d ad84 d83c
000001d0: 88a3 8abd f5c4 dfbd bc3a d5bd b274 5f3d
000001e0: 68e7 4b3d 5688 bc3c b411 26bd 40a9 1cbe
000001f0: 2bbe a03d 406a b236 848c 5dbd 07e4 e73d
00000200: c194 f8bd fbc5 ab3d 042f cd3b f95a 8b3d
00000210: a1a6 e1bd 0c74 2dbd 4e3c b9bd 0e78 963d
00000220: c7e7 b53d 7750 f63d b984 ed3d 8dc6 15be
00000230: ad16 15bd 2672 2c3d 67de 34bc 25d8 3c3d
00000240: a2d7 ffbd 34e0 b0bc 40cf 62bd 166a af3d
00000250: 8329 e83d 9da3 b6bd dcff a33d 8862 783d
00000260: 4fc3 3b3d 5e90 b23c 61a2 063e 7b65 89bd
00000270: 839c db3d 744b 8dbd a780 943d 51d4 84bc
00000280: e2f7 bb3d 55bc b1bd 5f66 adbc ba57 873d
00000290: 8a2f 683d 2be6 59bd c6a6 f8bd cba9 0e3e
000002a0: 9cb0 8a3d 43dc 963d 41ae 82bd 33ca 173e
000002b0: 3a1c 34bd 19c9 c7bb e8be 95bc a6c6 b53c
000002c0: fd55 90bd fa13 b93d d56c c3bc a032 313d
000002d0: 10e2 a0bc 5b9a b23b b965 3a3d 379a 5c3d
000002e0: d2e7 d23d 496f 8f3d ebf7 67bd abbb 8e3d
000002f0: 6662 1e3c 3b66 e3bc 2f95 c53d 3248 b73c
00000300: ec84 9fbd 1f48 89bd 901f 20be f7b8 9abd
00000310: d4d0 d9bd b1e1 afbd 8271 1abe eae1 c83b
00000320: 3436 3abc da58 c23d 1f80 a9bd 660a 87bd
00000330: a707 bbbd 030c a0bc 7cf3 363d ecdd b2bd
00000340: 7d51 1a3d 3018 0abe 6b96 b5bd d931 9dbc
00000350: dd54 f83d 4558 8c3d 1cf2 fbba 0419 9fbc
00000360: cfb3 d1bd b6bf 373d 875e f23d 81f6 8d3c
00000370: 722f 08be 1bf0 a13d 8b9e 16bc 01ba 4dbd
00000380: d431 783d 2d2e a43d 5eb6 963b a128 87bc
00000390: aef0 9fbd d3ff ffbd b800 93bd c3a2 033e
000003a0: 58d6 143d 8f9a 053c 1710 693d 1ac2 07bd
000003b0: c769 02bd 24db 4fbd 3356 663d 0026 9d3d
000003c0: 65fd d9bc cdad ad3d 92c3 6cbd 3768 363d
000003d0: 4732 96bd 1ab4 1bbd f8df 10bd 6e89 0f3d
000003e0: 728a 89bd 59a9 bc3d 6214 9bbd f75c 20be
000003f0: b24f 053c 89d8 263d 3d32 03be ea53 c43b
-0.061817102 -0.02295265 -0.15029669 0.05393302 -0.10872698 0.04702001 -0.06880936 0.09346036
0.11225727 -0.022375483 0.06481416 0.11724132 -0.018430313 0.08463645 0.038877223 0.12112001
0.06605954 0.06938812 0.044724677 0.08627172 0.09430858 -0.074506246 0.0041158786 0.122547604
-0.045906067 0.011885193 0.049171545 0.1281076 0.0028242024 0.13197242 -0.073743954 -0.0034035842
0.031567644 -0.022469217 -0.105053104 -0.084810816 -0.010671661 -0.06637152 0.015174339 0.06578376
-0.055176124 0.0996545 -0.064391956 0.058214016 0.03752681 -0.09093632 0.032952376 0.14135367
0.12910962 -0.12931904 -0.058025118 0.1068229 0.11847787 -0.056459628 -0.06964161 -0.06842734
0.11694291 0.06030392 0.10751795 -0.1207816 0.036232274 0.06099717 -0.0057607275 0.01819521
-0.014546025 0.09435826 -0.15152666 0.11602617 0.026977042 -0.004700114 -0.1110103 0.12402355
0.021548195 -0.088442214 0.14504014 0.13283746 0.09991782 0.15142281 0.10552054 -0.070370145
0.06662694 0.09950985 0.008376814 0.07813108 -0.03775616 -0.07447905 0.08634549 -0.06849814
-0.06733676 -0.077570446 0.043371513 -0.030365357 0.027777502 0.14175339 0.04960064 -0.026044164
-0.00037895868 0.040468726 0.00021821415 -0.121536635 0.06271403 0.06880197 0.027690424 0.055366684
0.15101716 0.0694952 -0.07691875 0.13518038 -0.055481464 0.15251495 0.0522861 0.030488024
0.11064225 0.050734885 0.07927129 0.026430452 -0.06769472 -0.109262384 -0.10411593 0.05455465
0.049781233 0.023014229 -0.040544227 -0.15298939 0.07848772 5.3171825e-06 -0.054089084 0.1132279
-0.121377476 0.08387371 0.006261708 0.06804461 -0.1101811 -0.042347 -0.09044705 0.07347117
0.08882099 0.12027066 0.115975805 -0.14626522 -0.03639858 0.042101048 -0.011039353 0.04610457
-0.124923006 -0.021591283 -0.05537343 0.08565156 0.11336043 -0.089179255 0.08007786 0.06064084
0.045840558 0.021797355 0.1314788 -0.06708809 0.107232116 -0.06899157 0.07251101 -0.016214522
0.09178139 -0.086784996 -0.021166978 0.066085294 0.05668596 -0.05319802 -0.121411845 0.13931958
0.06771967 0.0736623 -0.063808925 0.14823227 -0.04397223 -0.0060969708 -0.018279508 0.02218945
-0.07047651 0.09037013 -0.023855606 0.04326117 -0.019639045 0.0054505295 0.045507167 0.05385801
0.102981225 0.07003648 -0.056632917 0.069693886 0.009667015 -0.027758708 0.09647595 0.022373293
-0.07789025 -0.06703209 -0.1563704 -0.075548105 -0.10635534 -0.08587969 -0.15082362 0.0061304467
-0.011365462 0.09489603 -0.0827639 -0.0659378 -0.09132319 -0.019536978 0.0446658 -0.087337345
0.03767537 -0.1348579 -0.088665806 -0.019188808 0.121255614 0.068527736 -0.0019221934 -0.019421108
-0.10239374 0.044860564 0.11834436 0.017329456 -0.13299349 0.079071246 -0.009193073 -0.050226215
0.060594395 0.0801662 0.0045993766 -0.016498866 -0.07809578 -0.124999665 -0.071778715 0.12855057
0.036337227 0.008154525 0.05690011 -0.033144094 -0.03183916 -0.0507461 0.05623455 0.076732635
-0.026610086 0.084804155 -0.057803698 0.04453298 -0.073338084 -0.038013555 -0.035369843 0.035043173
-0.067158595 0.09211988 -0.07572247 -0.15660463 0.008136677 0.040733848 -0.12812133 0.0059914486

lstm.bias_ih_l1 f4 [256]
00000000: 1a14 15bd ff0e 3a3d 61bc e83d 0b48 87bd
00000010: 3f6e 003c e977 873c fd6a 62bd 56a7 85bc
00000020: d0f8 1abb 42d0 9c3d 7bd8 9bbd cf3f 4fbd
00000030: 192b 703d a3c2 d5bc 261f 193e d266 0b3e
00000040: ef4e c1bb 46ea a43d b644 0b3e 947d 043d
00000050: 00a4 083e bce7 bb3c 20d8 c83d 3750 c53d
00000060: 2e0b d03d c8d0 e83d fe5d 4e3d df6e d9bc
00000070: 3412 5fbd 6b95 60bd 5a05 2dbd ff57 a9bc
00000080: 57de 14bc e644 03bc f04f 843d 51b2 043e
00000090: 715f 333d 577b 103d c057 1c3e 16af 143e
000000a0: 51d0 153e fa47 c5bd 0f8b 563c f18c 2b3d
000000b0: 61e2 063e 9889 e43c dc40 e43d 0be8 b63d
000000c0: f358 da3d 896a a3bd 1ad8 c1bd f8ec 873d
000000d0: 211f 003e 0889 ccbc 78ca 073e cfb9 26bc
000000e0: a6c3 b7bb 9426 be3d 601f c5bd 89f4 403c
000000f0: 8507 51bd 7400 4b3d 4471 843d 9ad0 6abd
00000100: 5900 0e3e 7a23 ca3c edea c6bd d96d 85bc
00000110: 3f9b d73c 22b0 6dbd 2989 a23b c11d c43d
00000120: 635d a8ba 50fd 023e e4ce f23c ab19 243c
00000130: 4062 e13c bdce 8fbc 9d1f 81bb d6d0 0b3e
00000140: 9deb 42bd 85c7 40bd f817 b0bc 31ba 0e3e
00000150: 279b 683d ea97 193d 64e7 8fbc a222 d1bc
00000160: 4b9d e43d 4d72 c2bc b2d8 803d 8f25 343d
00000170: 86fe 843d add6 c93d d37b a03d 7725 5bbc
00000180: c396 973b ea56 593d a98b 123d b3b7 2a3c
00000190: 5c6a e03d e499 983d a03c 993d c314 adbc
000001a0: 4468 0d3e 60dd 66bc c6c0 5cbd e607 b33c
000001b0: 7341 f43c 5d05 ddbc 6b2f b93d a3d7 6a3c
000001c0: a8e7 e73d 810c 90bd a4aa 63bd 6521 3c3b
000001d0: 3ccc bbbd ffc5 9b3d 82a3 44bc 9aa3 fe3d
000001e0: 0d74 cc3d e772 d6bd 11f0 5cbd 9bed c93d
000001f0: 8f33 cf3d cecc dc3d d778 8dbd c551 803d
00000200: eb11 b93d 98ec f8bb 2e13 81bd 553a 023e
00000210: 1ad8 173e d914 a4bc a41c 84bd 05e0 a73d
00000220: c063 2d3d cb31 d9bd 41e4 863d 4b8f e3bd
00000230: 1ac7 923a 2918 c43d c4e1 013c cea9 913d
00000240: 21bd c93d 6065 c9bd 6823 2cbd c057 c73c
00000250: 234c 8b3d 241c 243d 827e cebd dd65 233d
00000260: abed e53d 2a6c cfbd 1068 b3bd a465 5bbd
00000270: 720d 463b be89 103e 6df0 2c3b 7aca 1a3b
00000280: 4386 66bd 09f6 12be 5376 653d 2263 213d
00000290: 4bc8 cc3d 9ecf ee3c d3c5 dc3d a33d ed3d
000002a0: 51b6 91bd 9602 a43d 0035 5dbc ea55 6c3d
000002b0: b0d2 e23c 655a 9e3d 5307 d73d 19ee 0d3d
000002c0: ce83 193e d7cd a8bd 6747 30bd 7df0 9dbb
000002d0: f096 1bbc ee00 0b3c 0039 70bd 73a3 66bd
000002e0: 170a 063e a01f 5cbd 8e9b ec3d 7952 e2bd
000002f0: 1ad4 aabd 75a2 033e c2f0 a23c 9a1a 843c
00000300: 5dda 1b3e dd4c 723c ca4e d8bc 3063 903d
00000310: f111 9f3d 7bc6 6d3d a920 463c 4fd0 8e3d
00000320: 92da cc3d 6bf6 b9bd eeba e83c d88d 9d3d
00000330: db5f e1bd 7d10 af3c 8339 093e d02a c4bd
00000340: b9a3 ef3d 00f8 9bbd bb69 94bd f907 e63d
00000350: 056c b1bd 3bcd 023e 6a08 e23d 9de5 123e
00000360: 8549 99bd ba59 53bc 39ed a0bd a189 0a3e
00000370: f063 a0bd 4734 c33d ade3 5bbd 6565 61bc
00000380: 10fb 6dbd 2055 2c3c 0f1e 17bc daff 143e
00000390: 64fe 073c 0a0d 183e b959 56bc 224e d83d
000003a0: beaa 373e cb6a ae3d 05c4 283e e32c b6bd
000003b0: ef8b 433d c1e0 173e ff17 303d 3225 433c
000003c0: 16f8 183e 6a76 133e bc7d 97bd c100 973c
000003d0: 7b6a c83d a707 1b3e dd8a 293e 5498 ab3d
000003e0: 0ac7 663d a23d cf3d 9906 d8bb eb00 e93d
000003f0: 134c 7bbc 0813 963d a9d8 f53d 9e8a d53d
-0.036396123 0.045424458 0.113640554 -0.06605538 0.007838785 0.01653667 -0.055277813 -0.016315144
-0.002364684 0.076569095 -0.0760965 -0.050597962 0.05863485 -0.026093787 0.14953288 0.13613442
-0.005899302 0.080524966 0.1360043 0.032346323 0.13343811 0.022937648 0.098068476 0.096344404
0.10158382 0.11367947 0.050382607 -0.026542125 -0.05446072 -0.054829996 -0.04224143 -0.020671843
-0.009086213 -0.008012032 0.06460559 0.12958647 0.043792192 0.035273876 0.15267849 0.14519915
0.14630248 -0.09632869 0.013094678 0.04188246 0.13172294 0.027897641 0.111451834 0.089309774
0.10661497 -0.07979304 -0.09465046 0.06636995 0.12511875 -0.024967685 0.1326083 -0.010176136
-0.00560804 0.09284702 -0.09625125 0.011777052 -0.05103256 0.04956098 0.06466916 -0.057327844
0.1386732 0.02467512 -0.09712777 -0.016287731 0.026319144 -0.0580293 0.0049601984 0.095759876
-0.0012845214 0.12791944 0.029639669 0.010015885 0.02751267 -0.017554635 -0.003940536 0.13653883
-0.04758798 -0.047065277 -0.021495804 0.13938214 0.05678859 0.037498392 -0.01756639 -0.02552921
0.11162814 -0.023736143 0.06291331 0.04398113 0.06493859 0.09855399 0.078361176 -0.0133756315
0.0046261265 0.053061403 0.03577772 0.010419774 0.109577864 0.07451227 0.074822664 -0.021128064
0.13809305 -0.014090866 -0.05389478 0.021854352 0.029816365 -0.026980096 0.090422474 0.014333638
0.11323482 -0.07033635 -0.055582657 0.0028706428 -0.09169814 0.07606124 -0.012001874 0.12433548
0.099830724 -0.10471135 -0.053939883 0.09859773 0.10117256 0.10781251 -0.06907814 0.06265596
0.09036621 -0.0075965635 -0.06302486 0.12717564 0.1482853 -0.020029472 -0.06450775 0.08197025
0.042331457 -0.106052004 0.06586505 -0.11111315 0.0011198253 0.09574921 0.007927362 0.07112466
0.098505266 -0.09833789 -0.042025954 0.024333835 0.06801631 0.0400659 -0.10082723 0.039892066
0.11226972 -0.101280525 -0.08760083 -0.05356373 0.0030220416 0.14115044 0.0026388422 0.002361922
-0.056280386 -0.14351667 0.056021046 0.03940118 0.0999914 0.029151734 0.107799195 0.11584022
-0.07114852 0.08008306 -0.013501406 0.05769912 0.027688354 0.07732085 0.10499444 0.034650896
0.14991686 -0.08242386 -0.043036845 -0.004819928 -0.0094964355 0.008484108 -0.05864811 -0.05630822
0.13089786 -0.053741097 0.11553107 -0.11050887 -0.083412364 0.12854941 0.019890193 0.016125966
0.15220018 0.014788833 -0.026404757 0.070501685 0.07767094 0.058050614 0.012092748 0.069733255
0.100026265 -0.090802036 0.028409448 0.0769307 -0.11004611 0.021370167 0.13400845 -0.09578478
0.117011495 -0.076156616 -0.07246729 0.112319894 -0.08663181 0.12773602 0.11036761 0.14345403
-0.07484726 -0.01289981 -0.07857747 0.13529064 -0.078315616 0.095314555 -0.053683925 -0.0137570845
-0.05810076 0.010518342 -0.009223475 0.14550725 0.008300398 0.14848724 -0.013082915 0.10561778
0.17936227 0.08516463 0.16481026 -0.0889528 0.047740873 0.1483183 0.042991634 0.0119107235
0.14938387 0.1440064 -0.07397029 0.018432977 0.097859345 0.15139638 0.16556878 0.08378664
0.056342162 0.101191774 -0.0065925834 0.11377128 -0.015337962 0.07327849 0.12004215 0.1042683

lstm.bias_hh_l1 f4 [256]
00000000: 9bb6 e13b 9252 d3bc 619b c23c adf3 18bd
00000010: b450 9abc 2def 8c3d 6dad 42bd 85d8 f53d
00000020: 28a6 12bd 828c a1bb baea 64bc c167 493c
00000030: 81b6 b63d ad4c 8a3c cba8 7a3d 6362 b33d
00000040: 32bf e53d 570c 043e 3e0e e3bc 0614 6cbd
00000050: 85c9 87bb 9754 bc3b b06d 7f3d 7512 8fbd
00000060: fda5 263c 6d77 23bd 2774 b63c 5597 a43d
00000070: 507d 033e 2d53 973c a11c e0bb 7bce 53b9
00000080: 3df1 1e3c 1695 113e 9192 c4bb 446b cb3d
00000090: 82aa a7bc 6c82 54bc 2de3 8b3b 7e26 223b
000000a0: c50b 04bd 2af7 7c3d fd5d bf3d 7355 91bc
000000b0: de16 123d 7d8f b0bd 0b93 9d3d 2177 9839
000000c0: 9272 503d 274b 21bd 6b04 43bd 1e7a 8dbc
000000d0: b7a2 cd3d e87e 6ebc 3381 9cbc dc5e 49bd
000000e0: cbdd 78bd 3978 623c 9a42 a73d da84 043d
000000f0: caec 11bb a050 f73d b48e a8bc 25d0 873d
00000100: b897 873d 813b bb3c c771 51bc dbb7 8ebb
00000110: 40e4 4a3d 64a4 533d 7278 4e3c 8b2a 7a3d
00000120: bb84 0d3e d47d 6f3d 4346 c53c 0630 603d
00000130: 4a85 df3d d9ff 98bd eab3 31bd 2084 db3d
00000140: b97e 793d b5e8 b43d d09d f93d 94c4 84bd
00000150: 87b1 8a3d f5cf e23d 8fd6 44bd d548 1c3e
00000160: a0de 093d 3f50 0c3e 5be1 d43d 8f29 5dbd
00000170: 0774 6fbd 2465 75bd ecf4 b6bd 402a f63c
00000180: ea73 483d 8f53 a23b 79ec 90bd 030c 063c
00000190: 1261 f23c 68e7 f63d 2038 273d efa0 343d
000001a0: 8cfa 56bc 12f8 c6bd 6dd2 8bbd e503 30bd
000001b0: f622 573d 860c 913b 8e25 a43d a98b 04bd
000001c0: 82e6 df3b 4f4b c0bd 62b6 b73d 0e85 c53d
000001d0: 7e93 7e3d 8290 7abd 28f9 9e3d fec2 b1bd
000001e0: 657a b43d aeb5 643d e413 083d 0787 193e
000001f0: cb78 bfbd 3d8b 483d 9b9d 733d 0b20 823d
00000200: 17db d0bd f44d debb 1eca c8bd 52d6 a73d
00000210: b86f 60bd 9025 2a3d e668 e9bd 876b c63c
00000220: cddb b6bd a3ba 973c 99a1 933b 0187 b43d
00000230: 2d24 df3d 1aaf 753b fc53 5d3d 1101 743c
00000240: 41a4 a5bd 9ef6 093d fc29 2bbd 7eb8 f53c
00000250: d516 033b 6666 6f3d c6c6 f33d 0553 2a3d
00000260: f242 203d 58dc 0c3e 86cc 193e df4e 683c
00000270: 8e1b f4bd ee4e debc 9ba8 043e 0b62 80bd
00000280: 2f40 51bd 7747 a83d b0f8 ba3d fdea 8d3b
00000290: 85d5 19bd 09b9 adbd 70e4 0d3e 1bcc 56bd
000002a0: cc15 9b3c a62f d23d a712 a73a 74bc 243d
000002b0: 2208 f6bb 8d29 13bd 0512 c4bd 4760 cd3d
000002c0: d6ed d03d 1656 37bd 8a32 1bbc 641c 833c
000002d0: cebf ce3c 8481 9b3b a6e0 a23c 6718 3bbd
000002e0: 9e2d 09bd 7b74 ff3d 605a 3bbd 754e 37bd
000002f0: 43fc 093d 06aa 9f3d bc26 e2bd 47fd 5d3c
00000300: d85d 773d 20f7 a33d baf5 023e 1277 9bbd
00000310: d4a9 b9bd b057 2abd 856b fcbc 5b41 47bc
00000320: baf0 e93c 89aa 2e3c e4cc 283e 7044 103e
00000330: 8a50 453d d226 8b3d ec00 d83c 40d8 8dbd
00000340: 4b3d 193d 1c00 c5bb ed79 56bd 6ccc 54bd
00000350: 1558 64bd ced8 2e3e dc0e 0d3e 49e4 063e
00000360: c329 f63d f184 b73d 986c 183e 9723 b93d
00000370: 03f4 8f3d 54bf f43d 6c83 983b 62a9 fc3d
00000380: cb07 893d aebf 0b3e 9222 3bbd 5ec5 aebb
00000390: 2ed5 f43d 937e 94bd 09ef bf3d 4995 73bd
000003a0: f52e 55bd ead2 59bd c3f1 433d 7f4e 8dbd
000003b0: 4cd9 253c f795 12bd 512d 2e3e 79af af3d
000003c0: 1e09 9fbd d735 41bd 90c9 833d c147 80bd
000003d0: 693c 8abd 6fca 243e ebd8 db3d 754f 063e
000003e0: bd3b b33d 001d cebd 127a fd3c 1108 a13d
000003f0: f3f5 653d 2236 fcb9 9252 e13d 224c 093d
0.0068882233 -0.025796209 0.023755731 -0.037341762 -0.01883731 0.06881557 -0.047528673 0.120041884
-0.03580299 -0.00493008 -0.013971979 0.012292803 0.089215286 0.016882265 0.06119613 0.08759
0.11218108 0.12895332 -0.027716752 -0.057636283 -0.004143896 0.0057473886 0.062360466 -0.06985942
0.010171411 -0.039908815 0.022272183 0.08036677 0.12840772 0.018472278 -0.0068393503 -0.00020199448
0.00970107 0.14217028 -0.0059989174 0.09932569 -0.020467047 -0.012970548 0.004269025 0.0024742181
-0.032237787 0.06175915 0.09344099 -0.01774094 0.03566634 -0.08621118 0.07694062 0.00029080457
0.050890513 -0.03937831 -0.047611635 -0.017270144 0.10040801 -0.014556624 -0.019104576 -0.04916273
-0.060758393 0.013822609 0.08167 0.03235326 -0.0022266381 0.12075925 -0.020575859 0.06631497
0.06620735 0.022855522 -0.012783474 -0.0043554134 0.049534082 0.051670447 0.012601959 0.06107573
0.13820164 0.05846961 0.024081355 0.0547333 0.10914095 -0.07470674 -0.04338447 0.1071856
0.060911868 0.08833448 0.121883035 -0.06482807 0.06772142 0.11074821 -0.04805618 0.15262158
0.033659577 0.13702486 0.10394546 -0.05399471 -0.05846026 -0.05991091 -0.08933434 0.030049443
0.04893867 0.0049538086 -0.070763536 0.008181575 0.029587302 0.12055856 0.04082501 0.04409879
-0.0131212585 -0.097152844 -0.06827245 -0.042972464 0.052523576 0.0044265417 0.080149755 -0.032359753
0.0068328986 -0.09389364 0.08970334 0.09644519 0.06215238 -0.06117297 0.077623665 -0.0867977
0.088124074 0.055837326 0.033222094 0.14992915 -0.09349211 0.048960913 0.059476476 0.06353768
-0.10198038 -0.006784195 -0.09804176 0.08195175 -0.054794043 0.04153973 -0.11396961 0.024221195
-0.089286424 0.018521613 0.004505348 0.088148125 0.10895572 0.0037488402 0.054035172 0.014892832
-0.080879696 0.033682458 -0.041788086 0.0299952 0.0020002623 0.058447264 0.119031474 0.04158308
0.039126344 0.1375593 0.15019426 0.014178961 -0.11919318 -0.027137246 0.12954943 -0.062687
-0.0510866 0.08216756 0.091294646 0.0043309913 -0.037557144 -0.08482558 0.13856673 -0.052440744
0.018931292 0.102629945 0.0012746648 0.040218785 -0.0075082937 -0.035928298 -0.095737495 0.10028129
0.102016136 -0.044759832 -0.009472499 0.016004749 0.025237944 0.004745664 0.019882511 -0.04567757
-0.03349077 0.12473389 -0.045740485 -0.044752557 0.03368784 0.07796101 -0.11042544 0.013549156
0.06039223 0.0800612 0.1278905 -0.0759107 -0.09065595 -0.04158753 -0.030812988 -0.012161578
0.02855717 0.010660776 0.1648441 0.14088607 0.04817251 0.06794514 0.026367627 -0.06926012
0.03741197 -0.006011976 -0.05236237 -0.051952764 -0.055748064 0.17074892 0.137752 0.13173021
0.12019684 0.089609034 0.14885175 0.09039991 0.070289634 0.119505554 0.0046543386 0.12336995
0.066909395 0.13647339 -0.045687266 -0.0053335866 0.11954723 -0.072507046 0.09371764 -0.05946854
-0.052046735 -0.05317966 0.047837984 -0.068997376 0.010122608 -0.03578755 0.17009474 0.08578391
-0.07765411 -0.047170486 0.06434929 -0.06263686 -0.067498036 0.16092847 0.10734733 0.13116248
0.087516285 -0.10064125 0.030941997 0.07862867 0.05614276 -0.00048105518 0.11002077 0.03351987
